artifacts/dos_mlp.pt (torch, 13555 bytes, 14 tensors)

net.0.weight f4 [32, 10]
0	0x3ea81265	0.32826534
1	0x3e46325c	0.19355148
2	0xbd9e0216	-0.077152416
3	0x3e5ff912	0.21872357
4	0xbda45e2f	-0.080257766
5	0x3cf381ef	0.029725043
6	0xbd7bccf6	-0.061474763
7	0x3e07d3d4	0.132644
8	0x3ec947fe	0.39312738
9	0xbe5990fd	-0.21246715
10	0x3e169755	0.14706166
11	0x3d8185d3	0.06324353
12	0x3ed8a9b2	0.42316967
13	0x3cbe618b	0.023239871
14	0x3dd9123d	0.10599182
15	0xbc0eed73	-0.0087236045
16	0x3cf73958	0.03017871
17	0x3e8b8c07	0.2725527
18	0xbdb45b7a	-0.0880651
19	0x3d023a95	0.03179415
20	0x3d22f88c	0.039787814
21	0x3d828c17	0.06374376
22	0xbe97388f	-0.29535338
23	0x3e3cf585	0.18453033
24	0xbdcebd88	-0.10094744
25	0xbe732f4a	-0.23748508
26	0xbed4f397	-0.41592094
27	0xbee2f25e	-0.44325536
28	0x3c99e804	0.018787391
29	0xbc0a1b0f	-0.008429303
30	0x3ebd6f77	0.36999103
31	0xbecdc5c5	-0.4018995
32	0x3d9262ea	0.071477726
33	0x3e47b927	0.19504224
34	0xbe310ebf	-0.17290781
35	0x3e3d4ae0	0.18485594
36	0xbd84698d	-0.06465445
37	0x3e2413e6	0.16023216
38	0xbd0936d8	-0.03349957
39	0xbdaf8486	-0.08570199
40	0xbd752374	-0.059848264
41	0xbd9a77dc	-0.075423926
42	0x3e2fbd20	0.17161989
43	0x3e47a89e	0.19497916
44	0x3e052ad3	0.13004617
45	0xbe30fd9f	-0.17284249
46	0x3cfc188d	0.030773425
47	0x3dea0866	0.11427383
48	0x3e7f9879	0.24960507
49	0xbe2d4129	-0.16919388
50	0xbe5d9253	-0.2163785
51	0xbe3fac8b	-0.18718164
52	0xbd565a91	-0.052332465
53	0x3e1e578a	0.15463081
54	0x3e866237	0.26246807
55	0x3e22d14d	0.15900154
56	0xbb8b850b	-0.0042578033
57	0x3b0f83ba	0.0021898584
58	0x3e8e2a5d	0.27766696
59	0xbe011dbf	-0.12609003
60	0x3a8e7d87	0.001087115
61	0xbe05c161	-0.1306205
62	0x3c992379	0.018693672
63	0xbd3c2c4d	-0.045940686
64	0xb98940fb	-0.0002617909
65	0xbc9aba42	-0.018887643
66	0xbcbc4f99	-0.022987174
67	0xbd8a2cf6	-0.06746857
68	0xbec447b8	-0.38335967
69	0xbe000cce	-0.12504885
70	0x3eb15a98	0.3463943
71	0x3e2583e9	0.16163601
72	0x3eaacc23	0.3335887
73	0xbe2d5024	-0.16925102
74	0xbe94b0dc	-0.29041183
75	0xbe1d52a2	-0.15363553
76	0xbe56cba1	-0.20976116
77	0x3d1d1f1c	0.038359746
78	0x3e3e3ff9	0.18579091
79	0x3edabea7	0.4272358
80	0xbe407640	-0.18795109
81	0xbe852548	-0.26005006
82	0x3de6f510	0.11277211
83	0x3dcd6cd1	0.10030521
84	0x3e36dc40	0.17857456
85	0xbddacacc	-0.10683212
86	0x3aa98e06	0.0012936003
87	0xbea978d7	-0.33100006
88	0xbe3a8029	-0.18212952
89	0x3de4c4f2	0.11170377
90	0x3e706203	0.23474889
91	0xbdf09dc8	-0.117488444
92	0x3e260e1e	0.16216323
93	0x3d8ecab2	0.06972255
94	0xbecd3460	-0.4007902
95	0xbe40cb6f	-0.18827604
96	0x3f05658a	0.5210806
97	0xbdc1b807	-0.094589286
98	0xbdb1262d	-0.086498596
99	0xbe4b2344	-0.19837672
100	0xbe6d1a3b	-0.23154537
101	0x3e535f07	0.20641719
102	0xbde052c0	-0.10953283
103	0xbe648f45	-0.22320278
104	0x3d9e035d	0.07715485
105	0xbd38bec7	-0.045103814
106	0xbce2667a	-0.027636755
107	0xbc636956	-0.0138800945
108	0xbe82395b	-0.25434384
109	0xbec02b6a	-0.37533122
110	0x3e38608b	0.18005578
111	0x3cd475b9	0.02593504
112	0x3ded9890	0.116013646
113	0xbe3d58f2	-0.18490961
114	0xbe97176e	-0.29510063
115	0xbf01720b	-0.5056464
116	0xbdff861c	-0.12476751
117	0xbea465ac	-0.3210882
118	0xbe67695c	-0.22598785
119	0xbdf038f7	-0.11729615
120	0x3dfc4a1f	0.12318825
121	0xbd84ecf1	-0.064905055
122	0xbde13a42	-0.1099744
123	0xbe95511c	-0.29163444
124	0xbe8d4169	-0.27588966
125	0xbe8e2df8	-0.27769446
126	0xbbbb7743	-0.005721004
127	0xbe6ddfa9	-0.23229851
128	0x3eb1d162	0.3473006
129	0x3cf3db9b	0.029767802
130	0x3e708b8b	0.23490731
131	0x3e5243fe	0.2053375
132	0xbea87561	-0.32902053
133	0x3e7d5f9a	0.247435
134	0xbe01970f	-0.1265528
135	0xbe0081ae	-0.12549469
136	0xbc36a9b0	-0.011148855
137	0xbee6aa3a	-0.45051748
138	0x3d8e9771	0.06962479
139	0x3d0ca203	0.034334194
140	0x3e6de8cc	0.23233336
141	0xbe842639	-0.25810412
142	0x3e07a4df	0.13246487
143	0xbecc53fc	-0.39907825
144	0x3d994c66	0.07485275
145	0x3e5b9aba	0.21445742
146	0x3b92c021	0.00447847
147	0x3e7a9073	0.24469166
148	0x3e9f74d8	0.31143832
149	0xbe8fd622	-0.28093058
150	0x3ca3c806	0.01999284
151	0xbdee4870	-0.1163491
152	0xbda34a72	-0.07973184
153	0xbeb98919	-0.3623741
154	0x3e5dabbe	0.21647546
155	0xbf1b0866	-0.6055969
156	0xbb23d5e3	-0.0024999313
157	0x3dd80590	0.10547936
158	0x3dd725c7	0.10505252
159	0xbd3a4295	-0.045473654
160	0x3e6a1658	0.22860086
161	0x3e3f1ce9	0.18663372
162	0x3dacd3aa	0.08438809
163	0xbe3d4254	-0.18482333
164	0x3d6da977	0.058022942
165	0x3d8a9962	0.06767537
166	0xbe05026d	-0.12989207
167	0x3ec8554b	0.39127573
168	0xbd089387	-0.033343818
169	0xbe193cad	-0.14964552
170	0xbeccc8a2	-0.3999682
171	0x3d1bec92	0.038067408
172	0x3e21b5f9	0.15792073
173	0xbd2680ff	-0.040650364
174	0xbe886916	-0.26642674
175	0xbd437731	-0.04772109
176	0xba569174	-0.00081851264
177	0x3ce916e4	0.028453298
178	0x3ec514f0	0.38492537
179	0xbe909c53	-0.28244266
180	0x3d7f9d25	0.062405724
181	0x3e6f03a6	0.23341236
182	0x3db2c6c1	0.087293155
183	0xbe051777	-0.12997232
184	0x3e1ecf8f	0.15508865
185	0x3e6aeb17	0.22941242
186	0xbc0f4e90	-0.008746758
187	0xbdd1445f	-0.10218119
188	0xbd056cde	-0.032574527
189	0xbce58f6a	-0.028022487
190	0x3d0def3a	0.034651972
191	0xbe4c3f05	-0.19945915
192	0x3e2bcb68	0.16776812
193	0x3ead40f5	0.3383862
194	0x3dd7bc48	0.10533959
195	0xbd0d47f1	-0.034492437
196	0xbc80a307	-0.015702737
197	0xbd11af53	-0.035567593
198	0xbd85168e	-0.064984426
199	0xbccb895b	-0.02484577
200	0xbf30cd7f	-0.6906356
201	0xbe1af67e	-0.15133092
202	0x3d63cade	0.05561339
203	0x3e47d26f	0.19513868
204	0xbe11d787	-0.14242373
205	0xbe0f5f01	-0.14001085
206	0xbc8558cc	-0.016277693
207	0xbc9b5207	-0.018960012
208	0xbcb95401	-0.022623064
209	0x3ccfbbab	0.025358042
210	0x3e1a189c	0.1504845
211	0x3e432b82	0.19059566
212	0xbf1bb5e9	-0.6082445
213	0xbd8d2d5d	-0.06893418
214	0xbd47356f	-0.048634943
215	0x3e6e00c2	0.23242477
216	0xbcab627d	-0.020920986
217	0x3d35d40b	0.044391673
218	0x3d5a4621	0.053289536
219	0xbe373406	-0.17890939
220	0xbef87f27	-0.4853451
221	0x3e4dd4d1	0.20100714
222	0xbe96ed3f	-0.2947788
223	0xbbec43e3	-0.007210241
224	0xbf09d603	-0.5384218
225	0x3e247958	0.16061914
226	0xbb7efcbb	-0.0038907963
227	0xba00f2d6	-0.0004918998
228	0xbe2a4b85	-0.16630371
229	0xbea14302	-0.31496435
230	0xbe492bd7	-0.1964563
231	0x3e0d61ac	0.1380679
232	0xbbcf2423	-0.0063214465
233	0x3e9e3413	0.30899104
234	0x3e2c5904	0.16830832
235	0xbe7b4ebb	-0.24541752
236	0xbfed2c79	-1.8529197
237	0xbc40fa6a	-0.011778453
238	0xbedd49ca	-0.4322036
239	0xbecb543f	-0.39712712
240	0x3e724271	0.23658158
241	0xbdbf5d12	-0.09343924
242	0xbe717eb2	-0.23583487
243	0xbde89773	-0.11357012
244	0xbde78cf5	-0.11306182
245	0xbe226bd6	-0.15861449
246	0xbc04da95	-0.008108755
247	0x3e3a2ef3	0.18181972
248	0xbdd847c6	-0.10560565
249	0x3e40c08a	0.18823448
250	0x3e0e34a2	0.13887265
251	0xbf031178	-0.5119853
252	0xbd814cc3	-0.06313469
253	0xbd8f9166	-0.070101544
254	0xbe0b616d	-0.13611384
255	0xbf0a9145	-0.54127914

net.0.bias f4 [32]
0	0xbe9fb89a	-0.31195527
1	0x3c7d1285	0.01544631
2	0xbe228c6b	-0.15873878
3	0x3ca5738e	0.020196702
4	0xbe921e4b	-0.28538737
5	0xbeb47082	-0.35242087
6	0xbea0cea0	-0.31407642
7	0xbe94c4c7	-0.2905638
8	0xbec158b5	-0.3776299
9	0xbe4b5896	-0.19858012
10	0x3eca8f44	0.39562428
11	0xbdb08c12	-0.08620466
12	0xbe6defab	-0.23235957
13	0xbe666771	-0.22500397
14	0xbd38ce1d	-0.04511844
15	0xbe432f34	-0.19060975
16	0x3d09fffd	0.033691395
17	0xbd065db4	-0.032804206
18	0xbe7fddbc	-0.24986929
19	0xbe1aa857	-0.15103279
20	0xbe64a9f4	-0.22330457
21	0xbe0ec194	-0.13941032
22	0xbe3a130d	-0.1817133
23	0xbea7706c	-0.3270296
24	0xbe38beaf	-0.1804149
25	0xbea4517d	-0.3209342
26	0x3e4ae9cc	0.19815749
27	0xbe2d94b5	-0.16951258
28	0xbe6c9310	-0.23102975
29	0x3d254ee5	0.040358443
30	0xbdbc2e94	-0.091885716
31	0x3e935ee3	0.2878333

net.2.weight f4 [32]
0	0x3f6e1b06	0.93009984
1	0x3f6201d7	0.8828406
2	0x3f810a0d	1.0081192
3	0x3f8103c4	1.0079274
4	0x3f7f394d	0.9969681
5	0x3f968639	1.1759712
6	0x3fa996b3	1.3249115
7	0x3f24af5e	0.6433009
8	0x3f48c2c3	0.7842218
9	0x3f9bcfb0	1.2172756
10	0x3f4e3081	0.8054276
11	0x3f7bfa6a	0.98428977
12	0x3f77f429	0.96856934
13	0x3f823b01	1.0174257
14	0x3f573820	0.84070015
15	0x3f4769b6	0.7789568
16	0x3f630561	0.8868008
17	0x3f6cb0ab	0.92457074
18	0x3f5ebc92	0.87006485
19	0x3f5c80fb	0.8613431
20	0x3f7c150e	0.98469627
21	0x3f895583	1.0729221
22	0x3f67cd16	0.9054731
23	0x3f6d421e	0.9267901
24	0x3f4f2f3f	0.80931467
25	0x3f771987	0.96523327
26	0x3f6cb01f	0.9245624
27	0x3f594e59	0.84885174
28	0x3f6df452	0.9295093
29	0x3f83c8bd	1.0295635
30	0x3fa64d35	1.2992312
31	0x3f7d35d6	0.9891027

net.2.bias f4 [32]
0	0xbd41bcd9	-0.04729924
1	0x3e5e3f06	0.21703729
2	0xbce51a5d	-0.027966673
3	0xbc73ad68	-0.014872886
4	0x3e236d7a	0.1595973
5	0x3e0b8722	0.13625768
6	0xbd1120b9	-0.035431597
7	0x3e39105c	0.18072647
8	0x3cf5b557	0.029993696
9	0x3e9a7314	0.30165923
10	0xbb2b7800	-0.0026164055
11	0xbc365761	-0.011129231
12	0x3e3d47c4	0.18484408
13	0x3ec02342	0.375269
14	0xbcc17bff	-0.023618696
15	0xbe32ccfa	-0.17461005
16	0x3eacb96e	0.33735222
17	0x3d2a1e4e	0.041532807
18	0xbbe46ad2	-0.006970742
19	0xbc05e362	-0.008171888
20	0x3eb140fd	0.34619895
21	0x3e7a2322	0.24427465
22	0x3e5824e2	0.2110782
23	0xbe01b294	-0.12665778
24	0x3e3b7e84	0.1830998
25	0xbe27a2e8	-0.16370738
26	0xbe93402c	-0.28759897
27	0x3e683420	0.22676134
28	0x3cb8520f	0.022500066
29	0x3e1bdc31	0.15220715
30	0xbde6a5e2	-0.112621084
31	0x3cfea09f	0.03108245

net.2.running_mean f4 [32]
0	0x3e1645a1	0.14674999
1	0x3e5486df	0.20754574
2	0x3d63e189	0.05563501
3	0x3df73737	0.12071078
4	0x3d3d0cac	0.046154663
5	0x3d1315e1	0.035909537
6	0x3c211c45	0.0098334
7	0x3df29e39	0.11846585
8	0x3c9246c9	0.017856019
9	0x3c4a0401	0.012330056
10	0x3efb9f95	0.4914519
11	0x3e61dab7	0.2205609
12	0x3df1d843	0.11808827
13	0x3d2d372f	0.042288955
14	0x3e416c7e	0.18889043
15	0x3e5400d4	0.20703441
16	0x3e3a2bea	0.18180814
17	0x3e57dc5d	0.21080156
18	0x3dbaa441	0.0911336
19	0x3d922122	0.07135226
20	0x3cd4e3ed	0.02598759
21	0x3d318dc2	0.04334808
22	0x3e2f555a	0.17122403
23	0x3d2df1dd	0.042466987
24	0x3db3b69b	0.087750636
25	0x3e2619e5	0.16220815
26	0x3e990739	0.29888323
27	0x3dcf4b38	0.10121769
28	0x3da82d5b	0.08211776
29	0x3e99b9e6	0.30024642
30	0x3c7e2269	0.015511134
31	0x3eabb35a	0.33535272

net.2.running_var f4 [32]
0	0x3dcd4cf0	0.1002444
1	0x3e8745ca	0.26420432
2	0x3b0c8736	0.0021442897
3	0x3d9bc913	0.07606711
4	0x3cc128c0	0.023579001
5	0x3c9b03d0	0.018922716
6	0x39105baf	0.00013767065
7	0x3e35a068	0.17736971
8	0x3bde8325	0.006790536
9	0x3b39d86e	0.0028357762
10	0x3da1ef49	0.07906968
11	0x3d1b56ae	0.03792446
12	0x3dbcfa65	0.092274465
13	0x3c83aa24	0.01607234
14	0x3e23b621	0.15987445
15	0x3d9ad2d8	0.075597465
16	0x3e378b7a	0.179243
17	0x3e16cbb1	0.1472614
18	0x3d5da6a4	0.054114
19	0x3d5949e1	0.053048972
20	0x3b99214c	0.0046731587
21	0x3c5de4a6	0.013543284
22	0x3d4da7c4	0.050208822
23	0x3c9eaa37	0.019368274
24	0x3d862103	0.06549265
25	0x3c5a90b2	0.013340162
26	0x3c9f892d	0.01947459
27	0x3dc83f35	0.09777681
28	0x3d3404a9	0.043949757
29	0x3d288daa	0.041150726
30	0x39564801	0.00020435454
31	0x3e895ea7	0.26830027

net.3.weight f4 [32, 32]
0	0x3d55f90f	0.052239474
1	0x3c72dc7f	0.014823078
2	0xbe866519	-0.26249006
3	0x3d86b3da	0.06577273
4	0x3d3e22bd	0.046419848
5	0x3cbe7090	0.023247033
6	0xbd41fa1c	-0.047357664
7	0x3e2af49d	0.16694875
8	0xbe78c3ef	-0.24293493
9	0xbd442c3c	-0.047893748
10	0xbe187f4b	-0.14892308
11	0xbd89928a	-0.06717403
12	0xbd868578	-0.06568426
13	0xbe694cba	-0.22783175
14	0xbdb77c65	-0.08959273
15	0xbda9dba2	-0.08293845
16	0xbe4a3747	-0.19747649
17	0xbc934d6c	-0.017981254
18	0xbda98e0d	-0.08279047
19	0x3da3207b	0.079651795
20	0xbe27acbe	-0.1637449
21	0xbecaa4e1	-0.39578918
22	0xbe40d733	-0.18832092
23	0xbdccda94	-0.10002628
24	0x3e0632cf	0.1310532
25	0x3d8b986d	0.06816182
26	0x3e33dddd	0.17565103
27	0xbeb46d9d	-0.35239878
28	0xbd735ba2	-0.05941356
29	0xbd378ec5	-0.04481389
30	0x3e7a9590	0.24471116
31	0x3dec1363	0.11527135
32	0xbdbc1177	-0.09183019
33	0x3d4f7b3e	0.050654642
34	0xbe3e1789	-0.18563665
35	0xbd2ac7ab	-0.041694324
36	0x3da9dcbd	0.082940556
37	0xbe7de022	-0.24792531
38	0xbe1fbf9d	-0.15600438
39	0xbce1b892	-0.02755383
40	0x3dbc5ebf	0.09197759
41	0x3cfb2d41	0.030661227
42	0x3df7b02d	0.1209415
43	0xbbf9fd68	-0.0076290853
44	0xbf1ea0e9	-0.6196428
45	0x3da024ab	0.07819494
46	0x3c34f13d	0.011043844
47	0xbdf8770a	-0.1213208
48	0x3d2c8c32	0.04212589
49	0x39aed156	0.00033343834
50	0x3d849fd9	0.06475801
51	0xbec835bd	-0.391035
52	0x3d04b76d	0.03240149
53	0x3c587852	0.01321228
54	0xbd2cdd8d	-0.042203475
55	0xbf133db2	-0.57516015
56	0xbdfc97f4	-0.1233367
57	0x3da4e58b	0.08051594
58	0x3e10a166	0.14124069
59	0xbe3d82bc	-0.18506902
60	0x3dd5fd19	0.10448665
61	0x3b992b1a	0.0046743276
62	0xbd05d026	-0.03266921
63	0xbe11e375	-0.14246924
64	0x3d3e62a5	0.046480794
65	0x3e0c6090	0.1370871
66	0xbda8ae95	-0.08236424
67	0xbe99e630	-0.30058432
68	0xbd1e3d72	-0.038632818
69	0xbca718d2	-0.020397577
70	0xbe2718eb	-0.16318099
71	0x3c0e2796	0.00867643
72	0x3d62f8fe	0.05541324
73	0xbcd0707c	-0.025444262
74	0x3e2ced66	0.16887435
75	0x3e0d3ceb	0.1379277
76	0xbe5f4934	-0.21805269
77	0xbdcf8b5d	-0.10134003
78	0xbc17817b	-0.009247179
79	0x3d6d7554	0.05797322
80	0xbc669456	-0.014073452
81	0x3bad3187	0.005285445
82	0x3df11493	0.11771502
83	0xbb9bab4e	-0.0047506457
84	0xbdd8718f	-0.105685346
85	0x3d21fa43	0.03954531
86	0xbe59b6cf	-0.21261142
87	0x3d3efd9a	0.046628572
88	0xbe2054ae	-0.15657303
89	0x3e1b97fb	0.15194695
90	0xbd9dad99	-0.07699127
91	0x3dccd799	0.100020595
92	0x3e0fde08	0.14049542
93	0x3dad43ed	0.084602214
94	0xbf02825d	-0.5098017
95	0x3de252f7	0.110509805
96	0x3e410598	0.1884979
97	0xbcc1b575	-0.023646096
98	0xbd9f3474	-0.077736765
99	0xbdd7fae8	-0.105459034
100	0x3bec3273	0.0072081625
101	0x3bcbf581	0.0062243347
102	0xbd3560c1	-0.044281725
103	0xbdb3f490	-0.08786881
104	0xbbd5ed85	-0.0065285587
105	0x3d16e9d9	0.03684411
106	0x3e15d183	0.14630704
107	0xbc86c039	-0.01644908
108	0xbe7dc8b2	-0.2478359
109	0x3d81d153	0.063387536
110	0x3d3d6dc8	0.046247274
111	0xbde05199	-0.109530635
112	0x3dcb7d8f	0.09936058
113	0xbea84dd7	-0.32871887
114	0xbea1457c	-0.31498325
115	0xbc5cf5be	-0.013486324
116	0x3e644bb5	0.22294505
117	0x3d1b67c1	0.037940744
118	0x3e5d9dcf	0.2164223
119	0x3e711235	0.23542102
120	0xbd40df29	-0.047087822
121	0xbe37c2bb	-0.17945378
122	0xbdc2ebf5	-0.095176615
123	0x3e0706c5	0.13186176
124	0xbc4bebef	-0.012446388
125	0xbd6803d9	-0.056644294
126	0x3dce6796	0.10078351
127	0x3db83914	0.08995262
128	0xbc622071	-0.01380168
129	0xbd0c5d80	-0.034268856
130	0xbe2c5437	-0.16829
131	0x3cf219f3	0.02955339
132	0xbdf1589b	-0.11784478
133	0x3dd8e99a	0.10591431
134	0x3e00db5f	0.12583683
135	0xbdf7be72	-0.120968714
136	0x3e494b04	0.19657522
137	0x3d967bca	0.0734783
138	0xbdf56141	-0.1198144
139	0xbd008ab7	-0.03138229
140	0x3e2874d8	0.16450822
141	0xbd60a6e4	-0.05484666
142	0x3ddc8ec6	0.10769419
143	0xbd22b7f9	-0.03972623
144	0x3ba4d75a	0.0050305547
145	0x3e6f2331	0.23353268
146	0xba8207c9	-0.0009920533
147	0xbd57a5d6	-0.052648388
148	0x3dbce4a5	0.09223298
149	0xbefe9738	-0.49724746
150	0xbd93dcf6	-0.07219879
151	0x3e542e29	0.20720734
152	0x3e2a98be	0.16659829
153	0x3dcaa8f4	0.098955065
154	0xbceb027e	-0.028687712
155	0xbe157077	-0.14593683
156	0x3b47830d	0.0030443103
157	0xbdd5d5a4	-0.10441139
158	0xbc8f4c9e	-0.017492589
159	0xbe5f9ebe	-0.21837899
160	0x3c88dd6b	0.016707143
161	0xbe21ca36	-0.15799794
162	0xbe79ef7f	-0.24407767
163	0xbe2a8d75	-0.16655524
164	0x3c934c2e	0.017980661
165	0xbe8a7f3f	-0.27050206
166	0x3e6a6c43	0.22892861
167	0xbe1311e5	-0.14362295
168	0xbd360130	-0.044434726
169	0xbeaede83	-0.34154138
170	0x3d2218c8	0.039574414
171	0x3e2ce3e8	0.16883814
172	0xbdb94819	-0.09046955
173	0xbdca2ce4	-0.098718435
174	0xbd64d63a	-0.055868365
175	0x3da7aba3	0.08187034
176	0x3d5e789f	0.054314252
177	0xbe44e8af	-0.19229387
178	0x3bd7408e	0.006568975
179	0xbd897473	-0.06711664
180	0x3d5bfc44	0.053707376
181	0x3d4c3fb8	0.049865454
182	0x3be3a6bb	0.006947366
183	0xbd3314dc	-0.043721065
184	0xbd90acd2	-0.07064213
185	0xbc2a1123	-0.010380062
186	0x3cfe49db	0.031041076
187	0x3e2aeab7	0.16691099
188	0xbe3e0c73	-0.18559437
189	0x3ea0053b	0.3125399
190	0x3e24361a	0.16036263
191	0x3d39f329	0.04539791
192	0x3de161ba	0.11004968
193	0xbd06e5bd	-0.03293394
194	0x3d20bca3	0.039242398
195	0x3e92d7c2	0.28680235
196	0x3cf8495a	0.030308414
197	0xbd395a05	-0.045251865
198	0x3e5187eb	0.20462005
199	0xbdb3fe3f	-0.08788728
200	0x3e344bbe	0.17607018
201	0x3d44ee36	0.04807874
202	0xbccb8aff	-0.024846552
203	0xbdf5760b	-0.119854055
204	0x3e11c175	0.14233954
205	0xbe5b24f4	-0.21400815
206	0xbc91f948	-0.017819062
207	0x3dafcd18	0.085840404
208	0x3d5bc8ed	0.053658415
209	0x3e3a379a	0.18185273
210	0x3d75a7a5	0.05997433
211	0xbd02ed18	-0.03196439
212	0xbd9c019e	-0.07617496
213	0xbe7aed6f	-0.24504636
214	0xbdfe1dad	-0.12408004
215	0xbdc1ff84	-0.09472564
216	0xbeb3ff81	-0.35155872
217	0xbe65f3cb	-0.22456281
218	0xbe6c0349	-0.23048128
219	0xbe896a7f	-0.26839063
220	0xbe44aadd	-0.19205804
221	0xbea6d492	-0.32584053
222	0xbe1522a2	-0.14563993
223	0xbe188913	-0.1489604
224	0xbd85587c	-0.06511018
225	0x3d123022	0.035690434
226	0x3d25bbac	0.04046218
227	0x3db5e23a	0.0888104
228	0xbe977c68	-0.29587102
229	0xbef08c8b	-0.46982226
230	0x3dd6c502	0.10486795
231	0xbd477d92	-0.048703738
232	0x3d8ef816	0.069809124
233	0xbaab4940	-0.0013068095
234	0xbda18afc	-0.07887837
235	0xbdc3df96	-0.0956413
236	0xbcb381cc	-0.021912478
237	0xbe11541f	-0.14192246
238	0x3c69616b	0.014244418
239	0x3daf4cee	0.08559595
240	0x3cf2cb0e	0.02963784
241	0x3dbec418	0.09314746
242	0xbe8890b1	-0.2667289
243	0xbdb2770b	-0.08714112
244	0xbc8865f5	-0.01665018
245	0xbea09277	-0.31361744
246	0x3e022f8f	0.12713455
247	0x3dbdd58b	0.09269246
248	0xbdb1f46d	-0.08689199
249	0x3dea448a	0.11438854
250	0x3cb4919e	0.022042092
251	0xbdc518ae	-0.09623848
252	0x3cc14caf	0.023596136
253	0xbe90fa65	-0.28316036
254	0xbd8cf869	-0.06883318
255	0xbe10dea4	-0.1414743

net.3.bias f4 [32]
0	0xbde83b28	-0.11339408
1	0xbe1a4e71	-0.15068986
2	0x3d23c51d	0.039982904
3	0x3e0c9f08	0.1373254
4	0x3e356400	0.17713928
5	0xbe6520c2	-0.22375777
6	0xbd4ab8cb	-0.04949264
7	0xbec25cd0	-0.37961435
8	0x3d84ec8a	0.06490429
9	0xbe7358b3	-0.23764305
10	0xbe50d191	-0.20392443
11	0x3d8d7c58	0.06908482
12	0xbdc65b22	-0.09685351
13	0xbe029ea4	-0.12755829
14	0xbdff684b	-0.12471064
15	0xbe07b277	-0.13251673
16	0xbe291d74	-0.16515142
17	0xbe7e83b6	-0.24854931
18	0xbd4915ce	-0.04909306
19	0xbe850d9e	-0.25986952
20	0xbe1962a4	-0.14979035
21	0xbe928cbb	-0.28622994
22	0xbdc97e65	-0.09838561
23	0xbe4054e9	-0.1878239
24	0xbdb0bd70	-0.08629882
25	0xbeb69657	-0.35661575
26	0xbe66d1db	-0.22540991
27	0x3b2dd751	0.0026526044
28	0x3c9befc3	0.019035226
29	0xbd5400b6	-0.05175849
30	0xbe8c2cf1	-0.27378038
31	0xbc492505	-0.012276893

net.5.weight f4 [32]
0	0x3fa642f4	1.2989182
1	0x3fcb3a17	1.5877103
2	0x3fcd1f5c	1.6025195
3	0x3fc8f1bd	1.5698773
4	0x3fb63204	1.4234014
5	0x3f60436f	0.87602895
6	0x3f9011e3	1.1255459
7	0x3faebb5a	1.3650925
8	0x3f94001f	1.1562537
9	0x3fdd254c	1.7277007
10	0x3f96cd0c	1.1781325
11	0x3fe1a684	1.7628942
12	0x3fb5fffb	1.4218744
13	0x3fa96ad5	1.3235728
14	0x3f889cf8	1.0672903
15	0x3f64e369	0.894095
16	0x3f6cfa75	0.9256967
17	0x3f94eff3	1.1635727
18	0x3fd10074	1.6328263
19	0x3fa262de	1.2686422
20	0x3fc0eb9d	1.5071903
21	0x3f42350c	0.75862193
22	0x3fe3240c	1.7745376
23	0x3fbdcbc6	1.4827812
24	0x3fdb16d9	1.7116348
25	0x3faf4d6e	1.3695505
26	0x3f8cb76e	1.0993478
27	0x3fdf257c	1.7433314
28	0x3fcd558c	1.6041732
29	0x4009c946	2.1529098
30	0x3f8b1884	1.0866857
31	0x3fddf16f	1.7339305

net.5.bias f4 [32]
0	0xbed70159	-0.41993216
1	0xbf3cc7c7	-0.73742336
2	0x3f20a610	0.6275339
3	0x3f30985c	0.6898248
4	0x3f1abb74	0.6044228
5	0xbf294bc1	-0.66131216
6	0xbf001e66	-0.50046384
7	0xbf45d937	-0.7728457
8	0xbf1708d4	-0.58997846
9	0xbf217cef	-0.6308126
10	0xbf213436	-0.6297029
11	0x3f2dd36b	0.67900723
12	0x3f08067c	0.53134894
13	0x3f077f5b	0.52928704
14	0xbf12e69b	-0.57383126
15	0xbeecd6c9	-0.46257618
16	0xbf1a08fa	-0.6016995
17	0xbee41335	-0.44545904
18	0xbf30793d	-0.68934995
19	0xbf05c151	-0.522481
20	0xbf2e93ff	-0.68194574
21	0xbf15af02	-0.58470166
22	0x3efddff3	0.49584922
23	0x3f19bfe8	0.6005845
24	0x3f31add3	0.6940586
25	0x3f00f7d6	0.5037817
26	0xbedc6140	-0.43042946
27	0x3e9bc95d	0.30427065
28	0x3ef143c9	0.47122028
29	0x3f104b3e	0.5636481
30	0xbf013cd1	-0.50483423
31	0x3f0547ff	0.5206298

net.5.running_mean f4 [32]
0	0x3ce1013f	0.027466414
1	0x3e6e9d17	0.23302113
2	0x3e8d3bc3	0.27584657
3	0x3efd74aa	0.4950307
4	0x3e8337b4	0.25628436
5	0x3eb7eea5	0.3592426
6	0x3e357eba	0.17724124
7	0x3c6f53e8	0.014607407
8	0x3e6c5a29	0.23081268
9	0x3c18e270	0.009331331
10	0x3e7bc124	0.24585396
11	0x3e6cef64	0.23138195
12	0x3c9cb180	0.019127607
13	0x3dbb5998	0.09147948
14	0x3decc3e7	0.11560803
15	0x3ce56da5	0.028006384
16	0x3e45402c	0.19262761
17	0x3c940c54	0.018072285
18	0x3dcc8122	0.09985568
19	0x3d22389b	0.039604764
20	0x3d9c46a8	0.07630664
21	0x3d904cae	0.070458755
22	0x3e3a3b70	0.18186736
23	0x3ea20fcb	0.31652674
24	0x3dd298d1	0.10283054
25	0x3e773cd8	0.24144304
26	0x3bbb05b5	0.0057074674
27	0x3d8266f7	0.06367295
28	0x3ec94e8c	0.3931774
29	0x3dc638be	0.096787915
30	0x00000004	6e-45
31	0x3e0b8bf0	0.136276

net.5.running_var f4 [32]
0	0x3bf7b707	0.0075596604
1	0x3d712164	0.058869734
2	0x3df351d3	0.11880841
3	0x3e8d2671	0.2756839
4	0x3e3e0679	0.18557157
5	0x3e28f4ad	0.16499586
6	0x3dd8061f	0.105480425
7	0x3b4fea1f	0.003172524
8	0x3d7a1c94	0.06106241
9	0x3b13022f	0.0022431721
10	0x3e90a022	0.28247172
11	0x3d7d4935	0.061837394
12	0x3b90cfa2	0.004419283
13	0x3d09729e	0.033556573
14	0x3d66a6cf	0.056311425
15	0x3c29d037	0.010364584
16	0x3e53ed41	0.20695974
17	0x3bb7f166	0.0056134937
18	0x3ce8dc61	0.028425397
19	0x3cbd417d	0.023102516
20	0x3c4520de	0.012031762
21	0x3dac5f32	0.084165946
22	0x3d6cddc8	0.057828695
23	0x3e39cb7a	0.18144026
24	0x3d067dc0	0.03283477
25	0x3ebe8604	0.3721162
26	0x3a105920	0.0005506445
27	0x3c8ab9cd	0.0169343
28	0x3e62e263	0.22156672
29	0x3d27ec97	0.040997114
30	0x00000004	6e-45
31	0x3cd37a07	0.025815023

net.6.weight f4 [13, 32]
0	0x3d14eb54	0.03635724
1	0xbe5d7860	-0.2162795
2	0x3eacc61c	0.33744895
3	0x3ed6dc4a	0.41964942
4	0x3ef12d53	0.47104892
5	0xbebdc776	-0.3706624
6	0xbeb21486	-0.34781283
7	0xbee6c658	-0.450732
8	0xbebd6434	-0.3699051
9	0xbecde920	-0.40216923
10	0xbeaf9d24	-0.34299576
11	0x3ed7b737	0.4213197
12	0x3ee10dde	0.43955892
13	0x3e9c8d33	0.30576476
14	0xbe7d0c6a	-0.24711767
15	0xbe52f30a	-0.20600525
16	0xbdd2807b	-0.10278412
17	0xbe9b8953	-0.30378208
18	0x3a5f159a	0.0008509994
19	0x3c69780f	0.014249816
20	0xbe749eff	-0.23888777
21	0xbea66fa0	-0.32507038
22	0x3ed7e444	0.4216634
23	0x3f3815ea	0.7190844
24	0x3f06c815	0.5264905
25	0x3f0218c8	0.50819063
26	0xbecc989d	-0.39960185
27	0xbd400323	-0.04687799
28	0x3ee90eb5	0.45519033
29	0x3ee451fe	0.44593805
30	0xbef44856	-0.47711438
31	0x3ee7c461	0.45267013
32	0x3e09cacc	0.13456267
33	0xbe92bdea	-0.28660518
34	0x3dfd568f	0.12370025
35	0xbfb1e3f6	-1.3897693
36	0xbfc102d0	-1.5078983
37	0xbe2d2624	-0.1690908
38	0xbdbfae96	-0.093594715
39	0xbe808504	-0.25101483
40	0x3f27b6cb	0.65513295
41	0xbe5bcd9b	-0.21465151
42	0xbb73482b	-0.0037121873
43	0xbfaaef87	-1.3354348
44	0xbde24f69	-0.110503025
45	0x3ef3e025	0.47631946
46	0x3e992d8c	0.29917562
47	0x3e1101cc	0.14160842
48	0x3c90e0fa	0.017685402
49	0xbf0e0956	-0.55482996
50	0x3ecaa929	0.39582184
51	0x3e0dd989	0.13852514
52	0x3f1078f5	0.56434566
53	0x3ea1f444	0.31631672
54	0x3f4256e0	0.7591381
55	0xbdf582f9	-0.11987872
56	0x3eecf8f2	0.4628368
57	0xbf0da8d8	-0.5533576
58	0x3a816795	0.0009872789
59	0xbf8e42ec	-1.1114173
60	0x3dd70618	0.10499209
61	0xbec8e65c	-0.3923825
62	0x3eafb146	0.34314936
63	0xbf6f4aa7	-0.93473285
64	0xbf1b5778	-0.6068034
65	0x3f190160	0.59767723
66	0xbfb3bfd3	-1.4042915
67	0x3e9c46f4	0.30522883
68	0xbf200324	-0.6250479
69	0xbd6604a3	-0.056156766
70	0x3db3d8cc	0.08781585
71	0xbdb0fda2	-0.086421266
72	0x3d16f5c3	0.03685547
73	0x3e5c2085	0.2149678
74	0xbeb81686	-0.35954684
75	0xbf4689fa	-0.77554286
76	0xbf1c34eb	-0.61018246
77	0x3ca568ac	0.020191513
78	0x3eb98691	0.3623548
79	0xba97552a	-0.0011545767
80	0x3dd0d6b8	0.10197204
81	0xbda48da9	-0.08034832
82	0xbf23fc5f	-0.6405696
83	0xbf1efe7b	-0.62107056
84	0xbf4fa40c	-0.8110969
85	0x3d3c63da	0.045993663
86	0xbfdedbb6	-1.74108
87	0xbf366787	-0.7125172
88	0xbf2cb90d	-0.67469865
89	0xbf679300	-0.9045868
90	0x3f0770cc	0.5290649
91	0x3e80c92b	0.2515348
92	0xbbdb5827	-0.006693858
93	0xbf751e92	-0.9574977
94	0x3e848ad3	0.25887164
95	0xbf5c850b	-0.8614051
96	0x3e40ad60	0.18816137
97	0xbf5bb705	-0.8582614
98	0x3e72b3a5	0.23701341
99	0x3ca237f6	0.019802075
100	0xbed3c146	-0.41358393
101	0x3e42fc13	0.19041471
102	0xbd0bb357	-0.03410658
103	0xbdcef484	-0.101052314
104	0x3e4c6d5d	0.19963594
105	0x3e0d1068	0.1377579
106	0xbd4f0f86	-0.050551914
107	0x3ebfbc9c	0.37448585
108	0x3d004329	0.03131405
109	0x3df70d5b	0.12063094
110	0x3e1e3223	0.15448813
111	0x3de23a01	0.110462196
112	0x3e36719d	0.17816778
113	0x3e94b5e0	0.2904501
114	0xbf1ade68	-0.60495615
115	0x3ee86cab	0.45395407
116	0xbdbfcb5b	-0.09364959
117	0xbd2cf949	-0.042229924
118	0x3e316137	0.17322241
119	0x3dd5cbfa	0.10439296
120	0x3e027ac1	0.1274214
121	0xbdd5c51b	-0.104379855
122	0x3e5610a0	0.2090478
123	0x3eca1dae	0.3947577
124	0xbf95c8c1	-1.170189
125	0xbf24c3e0	-0.6436138
126	0x3dfc8977	0.12330907
127	0xbf61ceac	-0.8820598
128	0x3f0a0021	0.53906447
129	0x3f513191	0.8171626
130	0xbd87da11	-0.0663339
131	0xbee56d94	-0.44810164
132	0xbe140289	-0.14454092
133	0x3f0e6d9e	0.5563601
134	0x3edaff46	0.42772883
135	0x3f4be4de	0.796461
136	0x3ec68113	0.3877035
137	0xbe130432	-0.14357069
138	0x3f04015b	0.5156457
139	0xbd16bb58	-0.03679976
140	0x3d9738d1	0.07383884
141	0xbf951e13	-1.1649803
142	0xbe62d0f1	-0.22150017
143	0x3e96ec8e	0.29477352
144	0xbe609ef0	-0.2193563
145	0x3ea489f3	0.32136497
146	0x3e336bcc	0.1752159
147	0x3e838138	0.25684524
148	0xbf2a4790	-0.66515446
149	0x3e9e8fa9	0.3096898
150	0xbe3cf035	-0.18451007
151	0xbee4856d	-0.44633046
152	0x3ebf143a	0.3732012
153	0x3c1855f2	0.009297835
154	0x3e5c4cf5	0.21513732
155	0xbfa3fad0	-1.2810917
156	0xbdd2fd84	-0.103022605
157	0x3eb0ab1a	0.3450554
158	0x3ec48f3a	0.38390523
159	0x3ebc06b3	0.3672386
160	0x3e7c6edc	0.24651664
161	0xbd98c7d7	-0.074599914
162	0x3da965b0	0.082713485
163	0xbf713470	-0.9422064
164	0xbdb20e4f	-0.086941354
165	0x3d52e69c	0.051489457
166	0x3e7769fd	0.24161525
167	0x3f2fdb6a	0.68694174
168	0x3f1e0f3b	0.6174199
169	0xbe96a0b5	-0.29419485
170	0x3ea14ac3	0.3150235
171	0xbed1f3a3	-0.41006193
172	0xbe79ee27	-0.24407254
173	0xbf25efa8	-0.6481881
174	0xbd9ec287	-0.07751947
175	0x3d8546cb	0.06507643
176	0x3ed19b5a	0.40938836
177	0x3f052556	0.52010095
178	0xbd8d5e31	-0.06902731
179	0x3e026ee4	0.12737614
180	0x3e108984	0.14114958
181	0x3e3a5fb6	0.18200573
182	0xbf02f776	-0.51158845
183	0xbca5b545	-0.020228038
184	0xbeaa709e	-0.33289045
185	0xbf3216d6	-0.69566095
186	0x3e8e9811	0.27850392
187	0xbf5bec54	-0.85907483
188	0xbeb02e40	-0.34410286
189	0xbdf94885	-0.12172035
190	0x3d329f67	0.04360905
191	0x3efe1048	0.49621797
192	0xbe38abcb	-0.18034284
193	0x3d55ce25	0.052198548
194	0xbd13945d	-0.036030162
195	0xbf2750a0	-0.653574
196	0x3e08bc9e	0.13353202
197	0x3e96f022	0.29480082
198	0x3e009a77	0.12558924
199	0x3e2f6141	0.17126943
200	0x3e9e3046	0.30896205
201	0x3f24534e	0.6418961
202	0x3ec27ab8	0.37984252
203	0xbee67050	-0.45007563
204	0xbec69487	-0.38785192
205	0xbf75286b	-0.957648
206	0x3e850929	0.2598355
207	0x3e4ac71f	0.19802521
208	0x3e70276a	0.23452535
209	0xbe249784	-0.16073424
210	0x3f0194fe	0.5061797
211	0x3e8cdbcb	0.2751144
212	0xbea1b438	-0.31582808
213	0x3eb8e028	0.36108518
214	0xbe8d5c72	-0.27609593
215	0xbebc152e	-0.3673491
216	0x3de12866	0.109940335
217	0xbbbfd6e7	-0.005854476
218	0x3de8b85b	0.11363288
219	0xbebebbed	-0.3725275
220	0x3ebe4b0a	0.37166625
221	0xbfb92eeb	-1.4467443
222	0x3ee47695	0.4462172
223	0xbe135bb2	-0.14390448
224	0xbe51ca90	-0.20487428
225	0x3f4c6b82	0.79851544
226	0xbe7933b2	-0.24336126
227	0xbedf4220	-0.43605137
228	0xbf710d56	-0.94160974
229	0x3e9a064d	0.30082932
230	0x3e8beb4b	0.27327952
231	0x3e3490f4	0.1763342
232	0x3e006f38	0.12542427
233	0x3e329eea	0.17443433
234	0x3e994f9d	0.29943553
235	0xbf3d3d78	-0.7392192
236	0xbe9349ff	-0.28767392
237	0xbe610307	-0.21973811
238	0x3e6e2477	0.23256098
239	0x3e555909	0.20834745
240	0x3ebcaa84	0.36848843
241	0xbdaedd0c	-0.08538255
242	0x3ebb4d2a	0.3658231
243	0x3e044d58	0.1292013
244	0x3e4f47e3	0.20242266
245	0x3eb196ea	0.3468545
246	0x3d7a6276	0.061129056
247	0xbf4715f0	-0.7776785
248	0xbe09b377	-0.13447367
249	0x3d3cdeb7	0.046110835
250	0x3e897ffa	0.2685545
251	0xbf0d7f79	-0.5527263
252	0x3d05f278	0.03270194
253	0xbf6079dc	-0.8768594
254	0x3f13e4a5	0.5777076
255	0x3e10abf9	0.14128102

net.6.bias f4 [13]
0	0x3ed87d3c	0.42283046
1	0xbeac6f60	-0.33678722
2	0x3d8fe9e0	0.0702703
3	0x3e163ad1	0.14670874
4	0xbeb4eb30	-0.35335684
5	0xbcb5eba5	-0.02220709
6	0xbe8c5aa9	-0.27412918
7	0xbe91de67	-0.28489992
8	0xbea911a7	-0.3302128
9	0xbeb2a155	-0.34888712
10	0xbe5376e6	-0.20650825
11	0xbe9792a4	-0.29604065
12	0xbea2b56a	-0.31779033
