artifacts/dos_mlp.pt (torch, 165491 bytes, 14 tensors)

net.0.weight f4 [156, 78]
0	0x3d81402d	0.06311069
1	0x3d9b0519	0.07569332
2	0xbd99e61e	-0.075145945
3	0x3c40f022	0.011776002
4	0x3b850940	0.0040599406
5	0x3d3200ac	0.043457672
6	0xbd5c9a3a	-0.05385802
7	0x3d6b5987	0.057458427
8	0x3dcc6bd9	0.09981508
9	0xbdaa1f0c	-0.08306703
10	0x3dc98ee6	0.09841709
11	0xbd9adc53	-0.07561555
12	0x3ddbcedb	0.10732814
13	0x3df216a9	0.11820728
14	0x3da50bf2	0.08058919
15	0x3d7c666f	0.061621126
16	0x3e0ee17d	0.13953204
17	0x3c891a12	0.016736064
18	0xbd07474e	-0.033026986
19	0x3cf6d117	0.030128999
20	0x3d30a584	0.043126598
21	0xbd36d76c	-0.044639036
22	0xbfb7cb66	-1.4358947
23	0x3d99d44e	0.07511197
24	0x3d04c304	0.032412544
25	0xbd482c03	-0.048870098
26	0x3c190255	0.009338935
27	0xbcd1ee44	-0.02562631
28	0x3d89e7c9	0.06733663
29	0x3dcc785f	0.099838965
30	0x3de6abad	0.11263213
31	0xbe1a41b1	-0.15064122
32	0x3be37872	0.0069418484
33	0xbd26282d	-0.04056566
34	0xbdce154d	-0.100626566
35	0xbe151a46	-0.14560804
36	0x3c908fa7	0.017646624
37	0x3dbb5be1	0.09148384
38	0x3c4acd2b	0.012378017
39	0xbdfbdc7d	-0.12297914
40	0xbd68d91e	-0.056847684
41	0xbd67fe31	-0.0566389
42	0x3d7f78fb	0.062371235
43	0x3e37f196	0.17963251
44	0x3db384b2	0.08765544
45	0xbce8ab0c	-0.028401874
46	0xbd78cae4	-0.060740367
47	0x3d2bec92	0.041973658
48	0x3d468112	0.048462935
49	0xbd4135a3	-0.047170293
50	0xbd79cadd	-0.06098448
51	0x3d185b78	0.037196606
52	0x3d0f2020	0.034942746
53	0x3db5a243	0.088688396
54	0x3ce7b846	0.02828611
55	0x3d3b64f7	0.045750584
56	0x3cecd633	0.028910732
57	0x3b803035	0.0039119967
58	0x3d779380	0.0604434
59	0xbd8880d6	-0.066651985
60	0x3d350aee	0.044199876
61	0xbd9cc013	-0.07653823
62	0x3d7c68af	0.06162327
63	0xbd229476	-0.039692365
64	0x3da505ab	0.08057722
65	0x3c9a8a04	0.01886464
66	0xbd03dc8d	-0.032192755
67	0x3d09b6b9	0.033621524
68	0x3d63cd13	0.055615496
69	0xbde4cf44	-0.11172345
70	0x3e69a089	0.22815146
71	0x3e24bcbf	0.16087626
72	0x3e70e8b6	0.23526272
73	0x3befeaa4	0.0073216725
74	0xbe20400e	-0.15649435
75	0x3cd61216	0.02613167
76	0x3c847e60	0.016173542
77	0xbc1e6a58	-0.009668909
78	0xbde19845	-0.11015371
79	0x3e245f95	0.16052087
80	0x3d833d85	0.06408218
81	0x3df54d00	0.11977577
82	0x3d8d23a2	0.06891562
83	0xbc556f21	-0.0130269835
84	0x3dae4fd7	0.08511322
85	0xbcd4bdb7	-0.02596937
86	0x3d84a6e4	0.06477144
87	0xbdb42bdf	-0.0879743
88	0xbd6a0bfb	-0.05714033
89	0xbca98039	-0.020691024
90	0xbdea750e	-0.11448108
91	0xbe0dedef	-0.13860296
92	0x3d305219	0.043047044
93	0xbdec24b5	-0.11530439
94	0xbe48f3c1	-0.19624235
95	0xbd779906	-0.06044867
96	0x3e887528	0.26651883
97	0xbcb2b47c	-0.021814577
98	0x3e5edb88	0.21763432
99	0x3ca2033c	0.019776933
100	0xbe5ba0b4	-0.21448022
101	0x3ce7b54e	0.028284695
102	0x3dbf740f	0.09348308
103	0x3ed4f5e4	0.4159385
104	0x3e429f2c	0.19006032
105	0xbc13e307	-0.0090262955
106	0x3e50bede	0.2038531
107	0x3e1ffbea	0.15623441
108	0xbeb19993	-0.3468748
109	0xbe90b9e6	-0.2826683
110	0xbe2acc9f	-0.16679619
111	0xbdd98912	-0.10621847
112	0xbe413a95	-0.18870004
113	0xbda492df	-0.08035826
114	0xbd984cac	-0.07436499
115	0xbd1a5f42	-0.0376885
116	0x3c910b37	0.017705543
117	0xbe18c844	-0.14920145
118	0xbdc96f58	-0.0983569
119	0xbe80f1b8	-0.25184417
120	0xbe3471ea	-0.1762158
121	0xbe062c10	-0.13102746
122	0xbe3adc21	-0.18248035
123	0xbe9d8b3a	-0.30770284
124	0xbdec7213	-0.115451954
125	0xbdd3b481	-0.10337163
126	0xbd1b1125	-0.037858147
127	0xbd48374b	-0.048880856
128	0x3cf3f518	0.029779956
129	0x3d5639bd	0.052301157
130	0x3e52ca90	0.20585084
131	0xbda86807	-0.08222967
132	0xbe175a37	-0.14780508
133	0x3d8cfc54	0.06884065
134	0xbea67df9	-0.32517985
135	0xbd06d226	-0.032915257
136	0xbefccf1f	-0.4937677
137	0x3ceff9ad	0.02929386
138	0x3e48c204	0.19605261
139	0x3c9b5d08	0.01896526
140	0x3d9c9044	0.07644704
141	0xbc8c7a3f	-0.017148135
142	0x3e5d9d37	0.21642004
143	0xbc7271c0	-0.014797628
144	0xbd6aa36e	-0.057284765
145	0xbda3bd4f	-0.07995092
146	0x3d7e7c5f	0.06213033
147	0x3e490ee1	0.19634582
148	0x3dc6f64c	0.09714946
149	0xbdb057cf	-0.08610498
150	0x3cb8517b	0.02249979
151	0xbe1be374	-0.15223485
152	0x3dbd88d9	0.09254617
153	0xbe6c9072	-0.23101977
154	0x3dd370ab	0.10324224
155	0xbe3bc952	-0.18338516
156	0xbd1d56c9	-0.038412843
157	0x3ca29df2	0.019850705
158	0x3d8dedf9	0.06930155
159	0xbd3262c9	-0.04355124
160	0x3d3529dd	0.044229377
161	0x3e82273b	0.25420555
162	0x3e9784d9	0.29593542
163	0xbe238bc5	-0.15971287
164	0x3d42b096	0.047531687
165	0xbc8b273f	-0.016986487
166	0xbd54781d	-0.05187236
167	0xbbd8b131	-0.0066129197
168	0xbd85749a	-0.065163806
169	0xbd79c857	-0.060982075
170	0xbe771606	-0.24129495
171	0x3d79dbaa	0.061000504
172	0x3d482507	0.048863437
173	0xbced05f6	-0.028933506
174	0x3d613e86	0.054991268
175	0x3e786a63	0.24259333
176	0xbd7eee67	-0.062239077
177	0x3ed60bf2	0.4180599
178	0x3e3881f7	0.18018328
179	0xbdda4f98	-0.106597126
180	0x3d735a19	0.059412096
181	0xbdebc251	-0.11511672
182	0x3e362107	0.17786036
183	0x3dd935d6	0.106059715
184	0xbe439785	-0.19100769
185	0x3d6ce296	0.057833277
186	0xbd9f29b6	-0.077716276
187	0xbe5e6ae0	-0.21720457
188	0xbd8c5514	-0.06852165
189	0x3c599c6a	0.013281921
190	0xbded6d1c	-0.115930766
191	0xbd134d56	-0.035962425
192	0x3d9439d5	0.07237593
193	0x3dc74955	0.09730784
194	0xbc37a6f9	-0.011209243
195	0xbbd41d2f	-0.0064732055
196	0x3ca82faf	0.02053055
197	0xbe700b81	-0.23441888
198	0xbd9b0be4	-0.07570627
199	0x3974081b	0.00023272673
200	0xbea1ecb7	-0.31625912
201	0xbe436105	-0.19079979
202	0xbc5be64f	-0.013421609
203	0x3e2a9e8e	0.16662046
204	0xbd864580	-0.06556225
205	0xbdc6ff9a	-0.09716721
206	0x3dc84156	0.09778087
207	0xbe11e8a4	-0.14248902
208	0xbb78a2e0	-0.0037938878
209	0xbe5de06f	-0.21667646
210	0xbe0833a4	-0.1330095
211	0xbdedbdda	-0.11608477
212	0xbefcf6d9	-0.4940708
213	0xbe0f5f21	-0.14001133
214	0x3ec5ae02	0.3860932
215	0x3e591086	0.2119771
216	0x3d6d6c2c	0.05796449
217	0x3dccd8be	0.10002278
218	0x3e735d44	0.23766047
219	0x3e940925	0.28913227
220	0xbcdd1976	-0.02698968
221	0x3e6a85e2	0.22902635
222	0xbe241ad5	-0.1602586
223	0x3ce70504	0.028200634
224	0xbe80f5ef	-0.25187632
225	0x3d77e3c1	0.060519937
226	0xbb9c016a	-0.0047609108
227	0xbdc8a62e	-0.09797321
228	0xbe2d90a4	-0.16949707
229	0xbd7929cf	-0.060830887
230	0xbddb8bb2	-0.10720004
231	0x3e3f5e47	0.18688308
232	0xbdb22dca	-0.0870014
233	0x3e078199	0.13233031
234	0xbdf44573	-0.11927309
235	0xbae9c302	-0.0017834606
236	0x3d1154f2	0.0354814
237	0xbcbb33fe	-0.02285194
238	0xbe6f4d13	-0.23369245
239	0xbd94bbcb	-0.07262381
240	0x3d82fe63	0.06396177
241	0xbb71547b	-0.0036824036
242	0xbcbaac93	-0.022787368
243	0xbd857440	-0.065163136
244	0xbca90606	-0.020632755
245	0xbb0516ab	-0.00203077
246	0xbdd405bb	-0.103526555
247	0x3df81ada	0.121144965
248	0x3ddb8541	0.107187755
249	0x3e8aab25	0.27083698
250	0xbd912bc0	-0.07088423
251	0xbdaa1b6e	-0.08306013
252	0x3d898d1d	0.06716368
253	0xbd18af2d	-0.037276436
254	0x3e0ffedf	0.1406207
255	0x3d02c1b8	0.031923026

net.0.bias f4 [156]
0	0xbe8ef628	-0.27922177
1	0xbe04bd76	-0.12962899
2	0xbcf09f75	-0.02937291
3	0xbe48ac9e	-0.19597098
4	0xbe02205a	-0.12707654
5	0x3d812ce2	0.06307389
6	0xbdd4e07e	-0.10394381
7	0xbc67335f	-0.014111369
8	0xbe5ab7d4	-0.21359187
9	0x3d0cb4c4	0.03435208
10	0xbdd5bef6	-0.104368135
11	0xbbcb594f	-0.006205715
12	0xbe628f73	-0.22125034
13	0x3d335353	0.043780636
14	0xbdb1ab1c	-0.08675215
15	0xbe81b60a	-0.25334197
16	0xbe524ff7	-0.20538317
17	0xbe1d5519	-0.15364493
18	0xbdb014ab	-0.08597692
19	0x3dda39f5	0.10655586
20	0xbe49fab4	-0.19724542
21	0xbe1660f8	-0.14685428
22	0x3de7d8f6	0.11320679
23	0xbdcebbf1	-0.10094441
24	0xbe71844a	-0.2358562
25	0xbe2a7c26	-0.16648921
26	0xbe64b556	-0.22334799
27	0xbc3ebbb8	-0.011641435
28	0x3972c006	0.00023150453
29	0xbc2b0672	-0.010438548
30	0xbd6730ca	-0.056443013
31	0x3c291ae6	0.0103213545
32	0xbedd7da8	-0.4325993
33	0xbe3a2aa5	-0.1818033
34	0xbe3ee946	-0.18643674
35	0xbd89ffe4	-0.067382604
36	0x3dd88262	0.105717435
37	0xbe1c1824	-0.15243584
38	0xbc0219e2	-0.007940741
39	0xbebd51dc	-0.36976516
40	0xbd4f2d6e	-0.050580435
41	0xbe58cf3b	-0.21172802
42	0xbd548c80	-0.051891804
43	0xbe29109d	-0.16510244
44	0xbe5f2cb6	-0.217944
45	0xbccc2a68	-0.024922565
46	0x3cd711f9	0.026253687
47	0x3ca3b69b	0.019984534
48	0xbcc063c1	-0.023485066
49	0xbe7512b3	-0.23932914
50	0xbd772772	-0.060340352
51	0x3c0974c0	0.008389652
52	0x3e646250	0.22303128
53	0x3c84a0a4	0.01618988
54	0xbe8bc6d7	-0.2730014
55	0xbdd1232b	-0.10211786
56	0xbeeec7ce	-0.46636814
57	0x3ca79aeb	0.020459613
58	0xbe4cd41f	-0.20002793
59	0xbe125c75	-0.14293082
60	0xbdf40722	-0.11915423
61	0xbe0903ee	-0.13380405
62	0x3c1bf661	0.0095191905
63	0xbe28dead	-0.16491194
64	0xbd854bd4	-0.06508604
65	0xbe3c1f0e	-0.18371221
66	0xbe30ebf0	-0.17277503
67	0x3e55c3d2	0.20875481
68	0xbe8c2983	-0.2737542
69	0xbe573946	-0.21017942
70	0xbe72a8bd	-0.23697181
71	0xbe624c5f	-0.22099446
72	0xbc3ab61f	-0.01139596
73	0x3d094058	0.03350863
74	0xbe73bfe3	-0.23803668
75	0x3e342a4b	0.17594258
76	0xbe118f9b	-0.14214937
77	0xbe0cd6f5	-0.13753875
78	0x3def956d	0.116984226
79	0xbda9671b	-0.08271619
80	0xbdf3d7ef	-0.119064204
81	0x3c7d1f55	0.015449365
82	0xbcd92b08	-0.026509777
83	0xbe14f3fb	-0.14546196
84	0x3da76ac9	0.081746645
85	0xbdd91d7e	-0.10601328
86	0xbe23d07c	-0.15997499
87	0xbd2d323b	-0.04228423
88	0xbe286f30	-0.16448665
89	0xbdcdf436	-0.10056345
90	0xbc4701f2	-0.01214646
91	0xbe278798	-0.16360319
92	0xbd4df98e	-0.050286822
93	0xbe3ddfc2	-0.18542388
94	0xbe3d97b5	-0.18514903
95	0xbe1563e6	-0.1458889
96	0xbe03d4f9	-0.12874211
97	0xbbcacdc1	-0.0061890786
98	0xbe436da5	-0.19084795
99	0xbeeea24b	-0.46608195
100	0xbe1acd3e	-0.15117356
101	0x3d5146ae	0.051092796
102	0xbeab03d3	-0.33401355
103	0x3da62870	0.081131816
104	0xbe259b89	-0.16172613
105	0xbe72d0bd	-0.2371244
106	0x3e617da3	0.22020583
107	0xbd9ac9a1	-0.07557989
108	0xbe718aa2	-0.2358804
109	0xbd865823	-0.065597795
110	0xbe1113b3	-0.14167671
111	0xbd0d944f	-0.034565266
112	0xbdb65db6	-0.08904593
113	0x3c711015	0.014713307
114	0xbd611e5f	-0.054960605
115	0x3bd7e897	0.006589006
116	0xbe37cd31	-0.17949368
117	0xbd2de7d8	-0.04245743
118	0xbe95067d	-0.29106513
119	0xbddff83b	-0.10936018
120	0xbd8fe155	-0.070254005
121	0xbd5f9f0e	-0.054595046
122	0xbe56495e	-0.20926425
123	0xbeb14fb5	-0.34631124
124	0xbf02dc46	-0.5111736
125	0xbe4dcacb	-0.2009689
126	0xbe4fe0ad	-0.20300551
127	0xbe1273a7	-0.1430193
128	0xbea87166	-0.32899016
129	0xbdf3cedc	-0.1190469
130	0xbe4a4a8e	-0.19755003
131	0x3dddef02	0.10836603
132	0x3e12080a	0.14260879
133	0xbefbd3ad	-0.49184933
134	0xbd9ea3bd	-0.07746074
135	0xbdafe08a	-0.08587749
136	0x3be96a01	0.0071232324
137	0x3d6d26fb	0.057898503
138	0xbd7aae2d	-0.061201263
139	0xbe82ab74	-0.25521433
140	0x3e0f5a28	0.13999236
141	0xbe73bee0	-0.23803282
142	0xbd3d14c1	-0.04616237
143	0x3dbcab88	0.092124045
144	0xbd459117	-0.04823407
145	0xbe52274e	-0.20522806
146	0xbee2d2d5	-0.44301477
147	0x3aeb7317	0.0017963377
148	0xbd316e8c	-0.043318316
149	0xbca28e93	-0.019843375
150	0xbd903c7f	-0.07042789
151	0xbda2f4cc	-0.079568475
152	0xbe27d356	-0.16389212
153	0xbe1eada9	-0.15495934
154	0xbe6c3957	-0.23068748
155	0xbe5e0a28	-0.21683562

net.2.weight f4 [156]
0	0x3f8ed65a	1.1159165
1	0x3f7e14c7	0.99250454
2	0x3f34c429	0.70611817
3	0x3f1a91b0	0.6037855
4	0x3fb44bc5	1.4085623
5	0x3f627d41	0.8847237
6	0x3f2f0116	0.6836103
7	0x3f4d8025	0.8027366
8	0x3f18fb4e	0.5975846
9	0x3f1d3466	0.6140808
10	0x3f3eb0a8	0.74488306
11	0x3f350f26	0.7072624
12	0x3f62686e	0.884406
13	0x3f171524	0.59016633
14	0x3f20415a	0.6259972
15	0x3f25ed75	0.64815456
16	0x3f49c0a9	0.788096
17	0x3f23539c	0.6379945
18	0x3f55239b	0.83257455
19	0x3f2cf447	0.6756024
20	0x3f58a0a8	0.8462014
21	0x3f7fe97c	0.99965644
22	0x3f82413d	1.0176159
23	0x3f358bfd	0.7091673
24	0x3f573401	0.84063727
25	0x3f58d55d	0.84700567
26	0x3f778d62	0.9670011
27	0x3f8934ec	1.0719275
28	0x3f2e9cd4	0.6820805
29	0x3f5ec5ef	0.8702077
30	0x3f349b1d	0.70549184
31	0x3f4151ac	0.75515246
32	0x3f2e2f46	0.68040884
33	0x3f3f0b67	0.74626774
34	0x3f380e64	0.7189696
35	0x3f504d09	0.81367546
36	0x3f4f8429	0.81061035
37	0x3f453c14	0.77044797
38	0x3f393fda	0.72363055
39	0x3f38a035	0.72119457
40	0x3f244877	0.6417307
41	0x3f474b40	0.778492
42	0x3f5e18d8	0.8675666
43	0x3f507f6f	0.8144445
44	0x3f10b4e5	0.56526023
45	0x3f52a0db	0.82276696
46	0x3f357afa	0.7089077
47	0x3f2ba12f	0.6704282
48	0x3f1b2618	0.60605
49	0x3f64bf14	0.8935406
50	0x3f527226	0.82205427
51	0x3f471a90	0.77774906
52	0x3f1b8a18	0.6075759
53	0x3f347bc8	0.70501375
54	0x3f68ca36	0.9093355
55	0x3fd4406d	1.6582161
56	0x3fb2a54b	1.3956693
57	0x3f443213	0.7663891
58	0x4003e4e9	2.0608466
59	0x3f34d4ed	0.706374
60	0x3f2b2afc	0.66862464
61	0x3f412c57	0.7545828
62	0x3f378324	0.7168448
63	0x3f1a9224	0.6037924
64	0x3f57d906	0.84315526
65	0x3f2a6886	0.6656574
66	0x3f5fb84f	0.8739061
67	0x3f5e25f2	0.8677665
68	0x3f1fd49b	0.62433785
69	0x3fa00136	1.250037
70	0x3f656f1a	0.8962265
71	0x3f25574c	0.6458633
72	0x3f4f1a21	0.80899245
73	0x3f58387b	0.8446118
74	0x3f6bc99c	0.92104506
75	0x3f5e0880	0.8673172
76	0x3f3f4cc7	0.7472653
77	0x3f5e1b08	0.86759996
78	0x3f57c839	0.8428989
79	0x3f483b87	0.7821583
80	0x3f2536d9	0.64536816
81	0x3f3aab35	0.7291749
82	0x3f4383b5	0.76372844
83	0x3f4b4c83	0.7941362
84	0x3f312ab4	0.69205785
85	0x3f8ea077	1.114272
86	0x3f1fd356	0.6243185
87	0x3f60793e	0.87685
88	0x3f59756c	0.84944797
89	0x3f438d04	0.7638705
90	0x3f503b7e	0.8134078
91	0x3f11c2b2	0.56937706
92	0x3f575adb	0.8412301
93	0x3f31ef80	0.69506073
94	0x3f603ea8	0.87595606
95	0x3f3f1d86	0.74654424
96	0x3f4fb4e6	0.81135404
97	0x3f50ef0c	0.81614757
98	0x3f1d40ec	0.6142719
99	0x3fb98511	1.4493734
100	0x3f4058ca	0.7513548
101	0x3f5c9e73	0.86179274
102	0x3f7d02b7	0.9883227
103	0x3f754d11	0.9582072
104	0x3f412def	0.75460714
105	0x3f8415b5	1.0319124
106	0x3f3eaf3a	0.74486125
107	0x3f357647	0.708836
108	0x3f8686b3	1.0509857
109	0x3f5228a3	0.82093257
110	0x3f533c69	0.82514054
111	0x3f3bfd7e	0.73433673
112	0x3f57adcf	0.84249586
113	0x3f69a1d7	0.91262573
114	0x3f47b492	0.78009903
115	0x3f338e6e	0.70139205
116	0x3fc81aa2	1.5633128
117	0x3f575754	0.8411763
118	0x3f21bc31	0.6317778
119	0x3f828202	1.0195925
120	0x3f46c250	0.7764025
121	0x3f27a6d6	0.65488946
122	0x3f45f60e	0.77328575
123	0x3f949980	1.1609344
124	0x3f5252d2	0.82157624
125	0x3f674774	0.90343404
126	0x3fb22ad6	1.3919322
127	0x3f4e5136	0.8059267
128	0x3f69a8fb	0.9127347
129	0x3f47bd02	0.7802278
130	0x3f68991f	0.90858644
131	0x3f1f02a6	0.62113416
132	0x3f4b116a	0.79323447
133	0x3f572623	0.84042567
134	0x3f4fd927	0.81190723
135	0x3f56f461	0.8396664
136	0x3f959e7c	1.168899
137	0x3f798916	0.974748
138	0x3f193d6f	0.59859365
139	0x3f792fac	0.97338367
140	0x3f5113b5	0.81670696
141	0x3f290484	0.66022515
142	0x3f29e305	0.6636203
143	0x3f64a424	0.8931296
144	0x3f6c582e	0.9232205
145	0x3f88af7d	1.0678555
146	0x3f77e28f	0.96830076
147	0x3f26cbed	0.65154916
148	0x3f4f9ab3	0.8109543
149	0x3f37f921	0.71864516
150	0x3f2969c5	0.66177016
151	0x3f295904	0.6615145
152	0x3f6d58a2	0.9271337
153	0x3f484c3b	0.7824132
154	0x3f3bc89f	0.73353
155	0x3f908f5b	1.1293749

net.2.bias f4 [156]
0	0x3e22e2ca	0.15906826
1	0x3e4622dd	0.19349237
2	0x3ead5e57	0.33861038
3	0x3db01d6e	0.08599363
4	0x3e97f8a0	0.29681873
5	0x3ce9d44c	0.028543614
6	0x3e3d22d5	0.18470319
7	0x3e4a1363	0.19733958
8	0x3dde5417	0.108558826
9	0x3ea83a8b	0.32857165
10	0x3da002ef	0.078130595
11	0x3e841f6c	0.25805223
12	0x3e9761ab	0.29566702
13	0x3e8792c5	0.26479164
14	0x3ec991c0	0.3936901
15	0x3dd73503	0.10508158
16	0x3e871ab3	0.26387557
17	0x3d938f65	0.07205085
18	0x3e7ae7a2	0.24502423
19	0x3ec5aafb	0.3860701
20	0x3e8a9a19	0.27070692
21	0x3dc64627	0.09681349
22	0x3e9022a3	0.28151426
23	0x3de05147	0.109530024
24	0x3da63495	0.08115498
25	0x3e2ca897	0.16861187
26	0x3e33109d	0.17486806
27	0x3eba2bd2	0.36361557
28	0x3e6c1de9	0.23058285
29	0xbc92b8e1	-0.017910423
30	0x3dbf6450	0.09345305
31	0x3e2b08da	0.16702595
32	0x3de551a9	0.11197216
33	0x3e0d5975	0.13803656
34	0x3e11926a	0.14216009
35	0x3e28f4d8	0.1649965
36	0x3e514d94	0.2043975
37	0x3f090f7e	0.53539264
38	0x3f00cd1a	0.5031296
39	0x3e85104c	0.25988996
40	0x3e588aaf	0.21146654
41	0x3ebb3573	0.36564216
42	0x3e1fd810	0.15609765
43	0x3cf72e51	0.030173453
44	0x3dd482d6	0.103765175
45	0x3e4494aa	0.19197336
46	0x3ea0dd5d	0.31418887
47	0x3eabfc76	0.3359105
48	0x3e863d64	0.26218712
49	0x3efa0898	0.48834682
50	0x3ef7b220	0.48378086
51	0x3e851a17	0.25996467
52	0x3e73753e	0.23775193
53	0x3f081bab	0.5316722
54	0x3ec0f439	0.37686327
55	0x3edf4ca4	0.4361316
56	0xbed0d909	-0.40790585
57	0xbce6e85d	-0.028186971
58	0x3e822c59	0.2542446
59	0x3ea7521b	0.3267983
60	0x3e41d864	0.18930203
61	0x3eef6c75	0.46762434
62	0x3e46cb50	0.19413495
63	0x3eb1d9f7	0.34736606
64	0x3e2cf2d8	0.16889513
65	0x3e3869b7	0.18009077
66	0x3e5fc7a1	0.21853496
67	0x3e943a0e	0.28950542
68	0x3db7e4a9	0.0897916
69	0x3e7d483c	0.24734586
70	0x3df6212c	0.12018046
71	0x3e163c15	0.14671357
72	0x3edde7f4	0.4334103
73	0x3d6a4b33	0.05720062
74	0x3e34a275	0.17640097
75	0x3ea373b4	0.31924212
76	0x3e3909b9	0.18070115
77	0x3e5cbffb	0.2155761
78	0x3e9c6b41	0.30550578
79	0x3e8aac63	0.27084646
80	0x3b144c2d	0.0022628412
81	0x3e4f0c01	0.20219423
82	0xbdd82b75	-0.10555164
83	0x3eb55ed3	0.35423908
84	0x3ebd9061	0.37024215
85	0x3e512fd6	0.20428404
86	0x3e219d60	0.1578269
87	0x3eb488de	0.3526067
88	0x3ef276b8	0.473562
89	0x3e4c385e	0.19943377
90	0x3eac6ba0	0.3367586
91	0x3e0b30ae	0.13592789
92	0x3ef37275	0.4754826
93	0x3e0065d6	0.12538847
94	0x3e264bc6	0.16239843
95	0x3e83d65c	0.2574948
96	0x3ea8f53b	0.32999596
97	0x3dfc3a39	0.123157926
98	0x3c8ec7dc	0.017429285
99	0xbd9e8179	-0.07739539
100	0x3e6efe93	0.233393
101	0x3e4250d1	0.18976142
102	0x3cfa3700	0.030543804
103	0x3f0058ad	0.5013531
104	0x3ea22d81	0.31675342
105	0x3e65b29d	0.22431417
106	0x3f029de1	0.51022154
107	0x3e8ea0e3	0.27857122
108	0x3ebc0668	0.36723638
109	0x3eb26d68	0.34849095
110	0x3e2a5bda	0.16636601
111	0x3e1c3e9e	0.15258262
112	0x3ecd966a	0.4015382
113	0x3e2d2df1	0.16912057
114	0x3e369a86	0.17832384
115	0x3eb3c450	0.35110712
116	0x3e9d1b17	0.3068473
117	0x3e962975	0.29328504
118	0x3dd6d699	0.1049015
119	0x3e451a39	0.19248284
120	0x3ea1ff09	0.3163989
121	0x3e4df53d	0.20113082
122	0x3e044b8e	0.12919447
123	0xba71b042	-0.0009219685
124	0x3dcb6b38	0.0993256
125	0x3e364369	0.17799152
126	0x3f00dbc6	0.5033535
127	0x3ec9c341	0.3940678
128	0x3e811915	0.2521445
129	0x3e26da0d	0.16294117
130	0x3e6581de	0.22412822
131	0x3e68ff4e	0.22753641
132	0x3d8a7d36	0.06762163
133	0x3e31021b	0.1728596
134	0x3d58b67e	0.052908413
135	0x3ebd93d4	0.37026846
136	0x3e79be62	0.24389032
137	0x3f033b53	0.51262397
138	0x3efa49c4	0.48884404
139	0x3f2d0b2f	0.6759519
140	0x3f0dbf42	0.5536996
141	0x3da0973d	0.078413464
142	0x3e611fd5	0.21984799
143	0x3e787e00	0.24266815
144	0x3e76173c	0.240323
145	0x3e534df3	0.20635204
146	0x3d97aecf	0.07406389
147	0x3ebcb7cc	0.36858976
148	0x3e8d7c2f	0.27633807
149	0x3effeb9e	0.4998445
150	0x3e286f65	0.16448744
151	0x3df21e28	0.11822158
152	0x3e7f186f	0.24911664
153	0x3eaaf317	0.33388588
154	0x3e1f8c87	0.1558095
155	0x3ee42592	0.44559914

net.2.running_mean f4 [156]
0	0x3e59c98f	0.21268295
1	0x3f80bf03	1.0058292
2	0x3f1880e2	0.5957166
3	0x3f6ab1eb	0.9167773
4	0x3ea18d89	0.31553295
5	0x3fced379	1.6158286
6	0x3fc5e917	1.5461758
7	0x3fa1846d	1.2618538
8	0x3f915dd1	1.1356755
9	0x3ec62235	0.38697973
10	0x3f9124c6	1.1339347
11	0x3ef56dcc	0.4793533
12	0x3f5cfa36	0.8631929
13	0x3f8509d4	1.0393624
14	0x3ea0a4df	0.31375787
15	0x3f12b75c	0.57311034
16	0x3e8bcf6d	0.2730669
17	0x3fdfa5dd	1.7472492
18	0x3f945f2f	1.1591548
19	0x3fb51e45	1.4149863
20	0x3f73e636	0.9527315
21	0x3e1e26cf	0.15444492
22	0x3fa37331	1.2769529
23	0x400479dc	2.0699377
24	0x3e4f79a0	0.2026124
25	0x3f168fdf	0.5881328
26	0x3d8c39b6	0.06846945
27	0x3e89e30f	0.26931044
28	0x3fc969bd	1.5735394
29	0x3fabf0ee	1.3432901
30	0x3fd49aee	1.6609781
31	0x3f81b1cc	1.0132384
32	0x3fd0a6b5	1.6300875
33	0x3fdfa1cc	1.7471251
34	0x3f6e81fc	0.9316709
35	0x3fa14fc9	1.2602473
36	0x3f7200ef	0.94532675
37	0x3ee71665	0.45134273
38	0x3eeb56f1	0.4596477
39	0x3fa6e0b5	1.3037325
40	0x3fb092a7	1.3794755
41	0x3eafafbd	0.34313765
42	0x401c8608	2.4456806
43	0x3e4bd136	0.19904026
44	0x3fbd9d46	1.4813621
45	0x3fb58f26	1.418431
46	0x3f1e2f96	0.6179136
47	0x3fa91a83	1.3211216
48	0x3f8ca2d6	1.0987194
49	0x3dec3b09	0.115346976
50	0x3f1378e5	0.57606345
51	0x3ecd17f0	0.40057325
52	0x3f9912ef	1.1958903
53	0x3f949a23	1.1609539
54	0x3f2a6c02	0.66571057
55	0x3ea82799	0.3284271
56	0x3e8d3cc5	0.27585426
57	0x3fda4ca7	1.7054642
58	0x3dfb8d0b	0.12282761
59	0x3f943294	1.1577935
60	0x3fc1e949	1.5149318
61	0x3f7a944e	0.97882545
62	0x3fa970b3	1.3237518
63	0x3f79b2ff	0.9753875
64	0x3f5a612a	0.8530451
65	0x3fc00d28	1.5004015
66	0x3f1613fd	0.5862425
67	0x3fc02084	1.5009923
68	0x3f9ee89c	1.2414737
69	0x3d90f7fb	0.070785485
70	0x3ff8d018	1.9438505
71	0x40005fc9	2.0058463
72	0x3fbc8ea4	1.473103
73	0x400cc6b2	2.1996274
74	0x3fa81de1	1.3134118
75	0x3f82811e	1.0195653
76	0x3f8c6e68	1.0971193
77	0x3fc1b2b0	1.5132656
78	0x3fabbb40	1.3416519
79	0x3f9083e2	1.1290247
80	0x3fc0bbeb	1.5057348
81	0x400c8df9	2.1961653
82	0x3fcde96e	1.6086862
83	0x3e9d60f6	0.30738038
84	0x3fb24f94	1.3930535
85	0x3f5688e8	0.8380265
86	0x3fef43aa	1.8692524
87	0x402629a7	2.5962923
88	0x3e29c9b6	0.16580853
89	0x3fdf3ff0	1.7441387
90	0x3e3a3ce4	0.1818729
91	0x3ed23eff	0.41063687
92	0x3ec7d82b	0.3903211
93	0x3ffc1f48	1.9697046
94	0x3f1c3d5c	0.61031127
95	0x3f868d73	1.0511917
96	0x3f88682c	1.0656791
97	0x400a5e15	2.1619923
98	0x3e680f6e	0.22662136
99	0x3d840369	0.06445963
100	0x3ea9b1ae	0.3314337
101	0x3f3fab1a	0.74870455
102	0x3e193ed7	0.14965378
103	0x3f72e70f	0.9488382
104	0x3f8a9180	1.0825653
105	0x3dfc571e	0.12321304
106	0x3f956bc4	1.1673512
107	0x3eaa4629	0.33256653
108	0x3dd094d1	0.101846345
109	0x3e9aefe9	0.30261162
110	0x3f892beb	1.0716528
111	0x3fd79b54	1.6844277
112	0x3ebd7ea2	0.37010676
113	0x3fee2893	1.8606132
114	0x3f4fc0e4	0.811537
115	0x3f8af7dc	1.0856891
116	0x3e56ea8f	0.20987915
117	0x3fff85b4	1.9962678
118	0x3f7684fd	0.96296674
119	0x3f090c27	0.5353417
120	0x3f2828a0	0.6568699
121	0x3f0cab20	0.54948616
122	0x3f192f02	0.59837353
123	0x3d06aacd	0.032877732
124	0x3f93ee10	1.1557026
125	0x3f56622f	0.83743566
126	0x3f1b1c55	0.60590106
127	0x3e5d502d	0.21612616
128	0x3dc30e65	0.0952423
129	0x4004bb4a	2.0739312
130	0x3e370a1a	0.17874947
131	0x3f98e06d	1.1943489
132	0x402d8bc9	2.7116568
133	0x3d9906b8	0.074719846
134	0x402dc68f	2.715244
135	0x3ff364ef	1.9015177
136	0x3f1b4d97	0.6066527
137	0x3ff41d1b	1.9071382
138	0x3f4b1ca5	0.79340583
139	0x3e211c88	0.1573354
140	0x3ff312be	1.8990095
141	0x3fea9415	1.8326441
142	0x3f332270	0.6997442
143	0x3f554bfd	0.83319074
144	0x3f33dea5	0.70261604
145	0x3eb3cea2	0.35118586
146	0x3f170eb3	0.59006804
147	0x3f3033dc	0.6882913
148	0x3fc81017	1.562991
149	0x3f298ff7	0.662353
150	0x3faa84f8	1.3321829
151	0x3ff5a821	1.9191934
152	0x3ed959db	0.42451367
153	0x3e4cacf0	0.19987845
154	0x3fd92e96	1.6967342
155	0x3e3c6c9c	0.18400806

net.2.running_var f4 [156]
0	0x3f0a1640	0.539402
1	0x41adaf9e	21.71075
2	0x4011acc4	2.2761698
3	0x41fcf109	31.617693
4	0x3f850a37	1.0393742
5	0x3fea8cb6	1.8324192
6	0x42771bb2	61.777046
7	0x40f018bf	7.503021
8	0x4268a2f4	58.159134
9	0x3fc01237	1.5005559
10	0x421b6474	38.8481
11	0x40617b72	3.5231595
12	0x40c10008	6.031254
13	0x3f66f240	0.90213394
14	0x3f72f6a8	0.9490762
15	0x41011c5e	8.069426
16	0x4015997e	2.3374934
17	0x42987676	76.23137
18	0x41a6f27b	20.868399
19	0x41538390	13.21962
20	0x417789a8	15.4711075
21	0x3df715f1	0.12064732
22	0x41b0df07	22.1089
23	0x43200cd3	160.0501
24	0x3fcc4306	1.5957954
25	0x4118b323	9.543735
26	0x3d4599d7	0.048242416
27	0x3f84327c	1.0327907
28	0x42483170	50.04828
29	0x41ef94d4	29.94767
30	0x4274ea89	61.22904
31	0x41e27788	28.308365
32	0x42e40252	114.00453
33	0x42b4c8d1	90.39222
34	0x41956ca0	18.67804
35	0x41f97ed0	31.18692
36	0x3f65bb2c	0.89738727
37	0x3ff4805f	1.9101676
38	0x3e87ab1d	0.26497737
39	0x4204005f	33.000362
40	0x41969cce	18.826565
41	0x3f8d488d	1.1037766
42	0x434e1c0e	206.10959
43	0x3ec5369a	0.3851822
44	0x428842ad	68.130226
45	0x425694d1	53.64533
46	0x40107b10	2.2575111
47	0x41182d59	9.511071
48	0x407f85be	3.992538
49	0x3d901023	0.07034328
50	0x402446a8	2.5668125
51	0x4029fe3a	2.6561418
52	0x41550b30	13.315231
53	0x3f82d892	1.0222342
54	0x403c8f1a	2.9462342
55	0x3ff6de30	1.9286556
56	0x3d7ac6e8	0.061224848
57	0x41e48444	28.564583
58	0x3f627948	0.8846631
59	0x423724d7	45.785976
60	0x426c566b	59.084393
61	0x407d24ad	3.9553635
62	0x425e94ec	55.64543
63	0x4183ffd5	16.499918
64	0x41a57818	20.68364
65	0x428ddc5e	70.930405
66	0x4125da29	10.365762
67	0x41bdf8ee	23.746548
68	0x429c1a38	78.05121
69	0x3d462067	0.048370745
70	0x430f3ab5	143.22932
71	0x42f6e534	123.44766
72	0x41db7ded	27.436487
73	0x427f4bba	63.82395
74	0x41fcf22b	31.618246
75	0x3f9a1ebf	1.2040633
76	0x423050e9	44.079014
77	0x426b20f4	58.78218
78	0x41d26109	26.29738
79	0x420649f9	33.57224
80	0x42a0dfd4	80.437164
81	0x430389c7	131.5382
82	0x4215b4d7	37.4266
83	0x3f6ebb0b	0.93254155
84	0x4154e0a7	13.304847
85	0x413eb5f3	11.919421
86	0x4319da90	153.85376
87	0x4283dc03	65.92971
88	0x3ef1042e	0.470735
89	0x42cedb44	103.42825
90	0x3e2e7a99	0.17038955
91	0x4045c414	3.0900927
92	0x3f99a471	1.2003309
93	0x43135061	147.31398
94	0x401e455a	2.472983
95	0x419c9288	19.571548
96	0x415028d4	13.009968
97	0x42fc416e	126.12779
98	0x3fba1068	1.4536257
99	0x3c50660a	0.0127196405
100	0x3f4b5fa7	0.7944283
101	0x41586182	13.523806
102	0x3e8a2f16	0.2698905
103	0x3f42cbea	0.760924
104	0x411fb589	9.98182
105	0x3cdf1767	0.027232839
106	0x40cb7f84	6.359316
107	0x3f9d3fa4	1.2285047
108	0x3db03c9b	0.086053096
109	0x3fc572c3	1.5425647
110	0x42310291	44.252506
111	0x425a5a48	54.588165
112	0x3fa7f1d9	1.3120681
113	0x429a45db	77.13644
114	0x4136cf8d	11.425672
115	0x3fb36fad	1.4018456
116	0x3fdcf006	1.7260749
117	0x429f5554	79.66666
118	0x4252debc	52.717514
119	0x3fe7ecae	1.8119104
120	0x407103cc	3.7658567
121	0x4119e9c8	9.6195755
122	0x3f821cb3	1.0165008
123	0x3c41604a	0.011802742
124	0x427f3a49	63.80692
125	0x410e9222	8.910677
126	0x40948361	4.6410375
127	0x3ea614a0	0.3243761
128	0x3eed2b33	0.4632202
129	0x43170ae3	151.04253
130	0x3e3d03f4	0.18458539
131	0x41d10307	26.126478
132	0x42d08492	104.25893
133	0x3cac9fed	0.021072352
134	0x4313b0be	147.6904
135	0x41ee8049	29.81264
136	0x3eee7194	0.46571028
137	0x4178aea0	15.542633
138	0x3f7eb04c	0.9948776
139	0x3d290e28	0.041273266
140	0x41b6bdb9	22.842638
141	0x42cb19be	101.55028
142	0x3fa2022f	1.2656916
143	0x40bd5f23	5.9178634
144	0x40a34a32	5.102807
145	0x3f5f43b5	0.8721269
146	0x418acdf8	17.35057
147	0x3fe1903c	1.7622142
148	0x424c7c52	51.121407
149	0x404e4d6e	3.223476
150	0x401828da	2.3774934
151	0x42e67c56	115.24284
152	0x3fcdd157	1.607951
153	0x3f7d9ce4	0.9906752
154	0x429c2e04	78.089874
155	0x3e5291fe	0.20563504

net.3.weight f4 [156, 156]
0	0xbbf0c026	-0.0073471246
1	0xbd4d8ee5	-0.050185103
2	0xbdda6f56	-0.10665767
3	0x3cdf9ab7	0.027295453
4	0xbe16b9f5	-0.14719374
5	0xbd4f26d3	-0.050574135
6	0x3cd1a3e4	0.025590844
7	0x3d319851	0.04335815
8	0x3c621fc4	0.013801519
9	0xbd99ab4c	-0.075033754
10	0x3d0e4872	0.034737058
11	0xbdbfdab3	-0.093678854
12	0xbe7315e8	-0.23738825
13	0xbc77be49	-0.015121051
14	0xbe9e1d57	-0.3088176
15	0xbdac29f7	-0.08406442
16	0xbde1a396	-0.1101753
17	0x3e0ff406	0.14057931
18	0xbe08d843	-0.13363747
19	0xbe27ed52	-0.16399124
20	0x3dc45a68	0.09587556
21	0xbcbf6cf0	-0.023367375
22	0xbe1e083c	-0.15432829
23	0xbc5aebde	-0.013361899
24	0xbdec5efd	-0.11541555
25	0x3d7b5fda	0.061370708
26	0xbd64e204	-0.055879608
27	0x3da6a5a9	0.08137066
28	0xbd5bf288	-0.053698093
29	0x3e40bccf	0.18822025
30	0x3d807bdf	0.062736265
31	0xbd8c9cd6	-0.068658516
32	0x3e57fdb3	0.21092872
33	0x3e106dff	0.1410446
34	0x3d3655ed	0.04451554
35	0xbd54f735	-0.051993567
36	0x3d4b25c6	0.04959657
37	0xbd5e7f22	-0.054320462
38	0xbd2041eb	-0.039125364
39	0xbca4cdf2	-0.020117734
40	0xbd7d378a	-0.061820544
41	0xbea3fa51	-0.32026914
42	0xbd0b0cfd	-0.033947933
43	0x3e56238a	0.20911995
44	0xbe17962b	-0.14803378
45	0xbe4f8873	-0.20266895
46	0xbe81932c	-0.25307596
47	0xbe858a69	-0.2608216
48	0xbe14ebd0	-0.1454308
49	0xbe90abe3	-0.2825614
50	0xbebea8cd	-0.3723816
51	0xbe0a68b6	-0.13516507
52	0xbece315c	-0.40272033
53	0x3deca2fb	0.115545236
54	0xbea18283	-0.31544885
55	0x3d6e9c06	0.058254264
56	0x3c965808	0.018352523
57	0x3e007f1d	0.1254849
58	0x3d3b1c4d	0.045681287
59	0xbd8dc4d5	-0.06922308
60	0xbd87aff4	-0.06625357
61	0x3ba981f9	0.0051729647
62	0xbc99b772	-0.018764231
63	0xbddd37c3	-0.10801651
64	0xbe224062	-0.15844873
65	0xbe42020e	-0.18946096
66	0xbe04b6d6	-0.12960371
67	0xbe08deee	-0.13366291
68	0x3b85864e	0.0040748483
69	0x3d084a79	0.033274148
70	0x3e091e3a	0.13390437
71	0x3da05615	0.07828919
72	0xbdb70811	-0.089370854
73	0x3d26de13	0.04073913
74	0x3cf4673f	0.029834388
75	0xbe251a01	-0.16123201
76	0xbe297f88	-0.16552556
77	0xbde88531	-0.11353529
78	0xbe4bd452	-0.19905213
79	0xbd4adf22	-0.049529202
80	0x3de12c2f	0.109947555
81	0xbdc84850	-0.097794175
82	0x3db2f88a	0.08738811
83	0xbe58f99b	-0.21188967
84	0xbe748611	-0.23879267
85	0xbdb83310	-0.089941144
86	0xbd83a3e1	-0.06427742
87	0xbe554d5d	-0.20830293
88	0xbe9cc982	-0.30622488
89	0xbdd51f3d	-0.10406349
90	0x3c2821d8	0.010261975
91	0xbd209043	-0.03920008
92	0x3aeeb958	0.0018213196
93	0x3da74cd8	0.08168954
94	0xbe636401	-0.22206117
95	0xbdd6bb71	-0.1048497
96	0xbdb270a9	-0.087128945
97	0xbc012ae2	-0.007883759
98	0x3deec91f	0.116594546
99	0xbedfa37b	-0.43679413
100	0x3d8113e2	0.063026205
101	0xbdb908e2	-0.090348974
102	0x3d7b39cb	0.061334413
103	0xbd90444c	-0.070442766
104	0xbde92205	-0.11383442
105	0xbd0a269a	-0.03372822
106	0xbeafb1c2	-0.34315306
107	0xbe567081	-0.20941354
108	0xbd80c9b7	-0.06288474
109	0xbeafb300	-0.34316254
110	0xbda4d0a7	-0.0804761
111	0x3e11aab5	0.14225276
112	0xbe6cf062	-0.23138574
113	0xbd094ab8	-0.033518523
114	0x3b709439	0.0036709441
115	0xbdb85f9c	-0.09002611
116	0x3d97ff6e	0.07421766
117	0xbdfe5f5f	-0.12420534
118	0x3daa4e27	0.083156876
119	0xbd57619c	-0.052583322
120	0xbe19bf5d	-0.15014406
121	0xbde8e874	-0.11372462
122	0x3c8dd79b	0.017314723
123	0xbe6dfbf6	-0.23240647
124	0x3b62b811	0.0034594575
125	0xbe29c57a	-0.16579238
126	0x3d28b3e9	0.0411872
127	0xbe1a6a1c	-0.1507954
128	0xbdf37f7d	-0.11889551
129	0x3c3915e6	0.011296725
130	0x3d592c61	0.05302084
131	0xbe5325fa	-0.20619956
132	0x3da34b23	0.079733156
133	0xbdb41374	-0.08792773
134	0x3e09255d	0.13393159
135	0xbe071b50	-0.13194013
136	0xbe2317d5	-0.1592706
137	0xbe4337a4	-0.19064194
138	0xbc09caf5	-0.008410205
139	0xbe8c9397	-0.27456352
140	0xbe442f17	-0.19158588
141	0x3c0b5f0b	0.008506547
142	0xbd1cc7be	-0.038276426
143	0xbe1b130e	-0.15143988
144	0x3d460165	0.048341174
145	0x3e6aede1	0.22942306
146	0xbcee65b4	-0.02910123
147	0x3d4283ba	0.047488905
148	0xbd2e9231	-0.042619888
149	0xbe2aae7b	-0.16668122
150	0x3d0f0b5d	0.034922946
151	0xbd9092d9	-0.07059259
152	0x3d3c2fc0	0.045943975
153	0xbdd147b6	-0.10218756
154	0x3c571f6f	0.013130053
155	0xbd905ef9	-0.070493646
156	0xbd36b1b4	-0.044603065
157	0xbe2fad95	-0.1715606
158	0xbdea293f	-0.11433648
159	0x3ce321ef	0.027726142
160	0x3d339272	0.043840833
161	0xbd884579	-0.06653876
162	0xbc8961c9	-0.01677026
163	0xbd5c1d38	-0.053738803
164	0x3e0a2744	0.13491541
165	0xbcbd1082	-0.02307916
166	0x3c7f42ee	0.015579922
167	0xbdde05e3	-0.108409666
168	0xbc84c900	-0.016209126
169	0xbe33d200	-0.17560577
170	0xbeb80483	-0.35940942
171	0x3be747b2	0.0070581073
172	0xbcd5d045	-0.026100287
173	0xbe06cda5	-0.13164385
174	0xbe53866d	-0.20656748
175	0xbe5b0064	-0.21386868
176	0x3a2282c1	0.00061992934
177	0xbdc34ffb	-0.095367394
178	0xbe1331c5	-0.14374454
179	0xbdf0e329	-0.11762077
180	0xbc43efe7	-0.011959053
181	0x3d5d0767	0.053962138
182	0xbb8dadcc	-0.0043236967
183	0xbe115589	-0.14192785
184	0xbe2c4684	-0.16823775
185	0xbdafd571	-0.085856326
186	0x3dbba8a3	0.09163024
187	0xbc9a9088	-0.018867746
188	0x3dfe95a9	0.12430889
189	0xbd1f9cbd	-0.038967837
190	0xbd0bedb3	-0.034162235
191	0xbca4bf63	-0.020110792
192	0xbdf37cc2	-0.1188903
193	0xbe16aaa1	-0.14713527
194	0xbdc1fe0d	-0.094722845
195	0xbd2225b4	-0.039586738
196	0x3d9f8a7b	0.07790085
197	0xbe21a682	-0.15786174
198	0xbc66940b	-0.014073382
199	0x3d1cc06b	0.03826944
200	0x3c8dd57f	0.017313717
201	0xbdf5e8b5	-0.12007276
202	0xbe1579a4	-0.14597183
203	0xbdf1545a	-0.11783667
204	0x3d8d1719	0.06889171
205	0x3c2f1462	0.010686012
206	0xbe19856a	-0.149923
207	0xbde0e4dc	-0.109811515
208	0xbe832c35	-0.25619665
209	0xbdb69689	-0.08915431
210	0xbd93f453	-0.072243355
211	0x3d0860fd	0.03329562
212	0xbd33fe79	-0.043943856
213	0x3e5edf9e	0.2176499
214	0xbf65c4b0	-0.89753246
215	0x3d2f0d8f	0.04273754
216	0xbd8f1d1f	-0.06987976
217	0xbd97d551	-0.07413734
218	0xbe22c4c7	-0.15895377
219	0xbeaccdf8	-0.33750892
220	0x3d7be3bb	0.061496478
221	0x3d871900	0.06596565
222	0x3cbe3bc9	0.023221867
223	0xbdc0c4f4	-0.09412566
224	0x3d8ff229	0.0702861
225	0xbdede10a	-0.116151884
226	0xbe36bf68	-0.17846453
227	0x3e0b65a0	0.13612986
228	0xbe0ed6fa	-0.13949195
229	0x3d87ee47	0.06637245
230	0x3d8671f2	0.06564702
231	0xbdcf0ea2	-0.10110213
232	0x3cf1048e	0.029421117
233	0xbe16bac1	-0.14719678
234	0xbd7f42de	-0.06231963
235	0xbe417b2b	-0.18894641
236	0xbbb4e2c0	-0.005520195
237	0x3d0b3e69	0.033995066
238	0x3d2c956f	0.0421347
239	0xbe41a406	-0.18910226
240	0xbdd18906	-0.10231213
241	0xbc11b4dd	-0.008893219
242	0xbe07466f	-0.13210462
243	0xbd1321b1	-0.035920803
244	0xbe38fef1	-0.18066002
245	0xbd900fd6	-0.070342705
246	0x3d6c047d	0.057621468
247	0xbd6542c5	-0.05597188
248	0xbeacac22	-0.33725077
249	0xbd5522d9	-0.052035186
250	0xbdbf60fe	-0.09344672
251	0xbe338e9f	-0.17534874
252	0xbd422ab1	-0.047403995
253	0x3d5f9057	0.054581013
254	0x3e3ad1a0	0.18244028
255	0x3d7180ee	0.058960848

net.3.bias f4 [156]
0	0xbe169595	-0.14705499
1	0xbe1f2337	-0.15540777
2	0xbe4990bc	-0.19684118
3	0xbe279120	-0.16363955
4	0xbe30b596	-0.1725677
5	0xbe894c69	-0.2681611
6	0x3e9ca9ce	0.305983
7	0xbe384bcf	-0.17997669
8	0xbe8a685f	-0.27032754
9	0x3d01a360	0.031649947
10	0xbdc14228	-0.094364464
11	0xbc3921c0	-0.0112995505
12	0xbe2107ee	-0.15725681
13	0xbc65e690	-0.014032021
14	0xbe4c1646	-0.19930372
15	0xbdc85e74	-0.097836405
16	0xbe627594	-0.22115165
17	0x3caf716d	0.02141639
18	0xbdfee91c	-0.12446806
19	0xbde51f17	-0.111875705
20	0xbe3c6e1d	-0.1840138
21	0xbe343d84	-0.17601591
22	0x3d62c99c	0.05536805
23	0xbd3bd9df	-0.045862075
24	0xbdd10f4c	-0.10207996
25	0xbe418def	-0.189018
26	0xbe824293	-0.25441417
27	0xbdb27f24	-0.087156564
28	0xbe858319	-0.26076582
29	0xbe505deb	-0.20348327
30	0xbe9829d5	-0.29719415
31	0xbd67a515	-0.05655392
32	0xbe1b7a37	-0.1518334
33	0x3d57f55f	0.05272424
34	0xbdc145af	-0.09437119
35	0xbeab99fb	-0.33515915
36	0xbe0b4f88	-0.13604558
37	0xbded4794	-0.11585918
38	0xbd4fe313	-0.050753664
39	0xbe524cb7	-0.20537077
40	0xbe4181e2	-0.18897203
41	0xbe3b472e	-0.18288872
42	0x3d0e8445	0.03479411
43	0xbe22fb47	-0.15916167
44	0xbe03a62b	-0.12856357
45	0x3c5bbb07	0.01341129
46	0xbe0560aa	-0.13025156
47	0xbd76f29e	-0.06028997
48	0xbdb8637f	-0.090033524
49	0xbe0e5864	-0.13900906
50	0xbe1698c9	-0.1470672
51	0xbdb2fb02	-0.08739282
52	0xbe39a303	-0.1812859
53	0xbe1c70bb	-0.15277378
54	0xbb03bf2b	-0.0020102959
55	0xbe24e6a0	-0.16103601
56	0x3c60c369	0.013718464
57	0xbe2cca28	-0.16873991
58	0xbe1cefff	-0.15325926
59	0xbe7fbec8	-0.24975121
60	0xbdbfc85b	-0.09364387
61	0xbdd38113	-0.10327353
62	0x3c55debf	0.013053595
63	0xbd21c980	-0.039498806
64	0xbd266aea	-0.040629305
65	0x3c3f7ee1	0.011687965
66	0xbe1191a3	-0.14215712
67	0xbe11b25b	-0.14228193
68	0xbe0cf6dd	-0.13766046
69	0xbe1d0859	-0.15335216
70	0x3de1af56	0.11019771
71	0xbe48fdcc	-0.19628066
72	0xbdeefcfe	-0.11669348
73	0xbe17ceae	-0.14824936
74	0x3ec01e02	0.37522894
75	0xbdfa0c49	-0.122093745
76	0xbdd39d5b	-0.103327475
77	0xbe5c1ae7	-0.21494637
78	0xbe400f6f	-0.18755887
79	0xbda2f65c	-0.079571456
80	0xbda27b6b	-0.07933696
81	0x3ac5ab18	0.0015080897
82	0x3d39ee06	0.045393012
83	0x3ced2297	0.028947158
84	0xbdcc816b	-0.09985622
85	0xbe301da9	-0.17198814
86	0xbeaf1b20	-0.34200382
87	0xbe921afd	-0.28536215
88	0x3ca48162	0.020081226
89	0xbdd67c05	-0.104728736
90	0xbe6d02de	-0.23145625
91	0xbda7bb41	-0.08190013
92	0xbb90fcfa	-0.0044246884
93	0xbe69b73e	-0.22823808
94	0x3cee9997	0.029125972
95	0xbe7ba57c	-0.24574846
96	0xbe45cd3d	-0.19316573
97	0xbe0950b6	-0.13409695
98	0xbe0be151	-0.1366017
99	0xbc4dd854	-0.012563784
100	0xbda8c00d	-0.08239756
101	0xbe4cd54c	-0.20003241
102	0xbc1132af	-0.008862182
103	0xbe996d33	-0.29966125
104	0xbe496f68	-0.19671404
105	0xbe1076a7	-0.14107762
106	0xbe0ee4e5	-0.13954504
107	0xbd8c79ed	-0.06859193
108	0x3e138c91	0.1440909
109	0xbde335e4	-0.11094263
110	0xbe65be33	-0.22435836
111	0xbe8828fe	-0.26593775
112	0x3c83d0ed	0.016090835
113	0xbdda4009	-0.10656745
114	0xbbfadc37	-0.007655646
115	0xbe092cba	-0.13395968
116	0xbe94cd31	-0.290628
117	0xbdaa6f65	-0.08322028
118	0x3dcb5cbc	0.09929797
119	0x3c752408	0.014962204
120	0xbd303888	-0.043022662
121	0xbe685cee	-0.226917
122	0x3cc5124f	0.024056582
123	0xbeb9acd4	-0.3626467
124	0xbdf13cb8	-0.11779159
125	0xbe93c2ac	-0.2885946
126	0xbe221b5f	-0.15830754
127	0xbcd825fd	-0.026385302
128	0xbe8a7491	-0.27042058
129	0xbe81b422	-0.25332743
130	0xbdd40960	-0.10353351
131	0x3dd3fbbe	0.103507504
132	0xbe0b2f0c	-0.13592166
133	0xbd315a31	-0.043298904
134	0xbebe70ca	-0.37195426
135	0xbd4ee34e	-0.050509743
136	0xbdbb921f	-0.0915873
137	0xbe3cfeaa	-0.18456522
138	0xbe170775	-0.14748938
139	0x3d07e7d8	0.033180088
140	0xbd8a9297	-0.06766241
141	0xbe3b1eca	-0.18273464
142	0xbe3ef575	-0.18648322
143	0xbdc7f74c	-0.09763965
144	0xbde6047e	-0.112313256
145	0xbe066843	-0.1312571
146	0xbe4c84b3	-0.19972496
147	0xbe9dc916	-0.3081748
148	0xbe9cfef5	-0.30663267
149	0xbe724b61	-0.23661567
150	0xbe48d1fc	-0.19611353
151	0x3bd0710e	0.0063611334
152	0xbe5be296	-0.21473154
153	0xbda444fb	-0.080209695
154	0xbdb60af6	-0.088888094
155	0xbe8a3675	-0.26994672

net.5.weight f4 [156]
0	0x3fcfcb71	1.623396
1	0x3f9b2233	1.2119812
2	0x3fb61936	1.4226444
3	0x3fc090e7	1.5044221
4	0x3f981cf7	1.1883839
5	0x3f8b31f7	1.0874623
6	0x401ccca9	2.4499915
7	0x3f8d6881	1.1047517
8	0x3f8c33c5	1.0953299
9	0x3fb5d79d	1.4206425
10	0x3fecdd3b	1.8505014
11	0x40129fba	2.290999
12	0x3f862176	1.0478961
13	0x3fcea8a6	1.6145217
14	0x3f92ebae	1.1478174
15	0x3f92b275	1.1460711
16	0x3fa83ed7	1.3144177
17	0x3fdc2414	1.719851
18	0x3f90fd5e	1.1327322
19	0x3fcc60e5	1.596707
20	0x3fb22376	1.3917072
21	0x3f85bcb2	1.044821
22	0x3fa11051	1.2583104
23	0x3ff04188	1.8769999
24	0x3fbbc6e9	1.4670078
25	0x3f936839	1.1516181
26	0x3fabf132	1.3432982
27	0x3fa5495f	1.2913016
28	0x3f92dcc6	1.1473625
29	0x3f8bb019	1.0913116
30	0x3fa18828	1.2619677
31	0x3fbfb14e	1.4975984
32	0x3f798482	0.97467816
33	0x3fc7735a	1.5582078
34	0x3fa8f00e	1.3198259
35	0x3fa79e91	1.3095266
36	0x3fac8f8c	1.3481307
37	0x3fc1bf56	1.5136516
38	0x3fc1a0f5	1.5127245
39	0x3f8a895c	1.0823169
40	0x3f9215ac	1.1412864
41	0x3fdef960	1.7419853
42	0x3fb7bc89	1.4354411
43	0x3fb54dd4	1.4164376
44	0x3f80c55e	1.0060232
45	0x3f954b6b	1.1663641
46	0x3fc561d6	1.5420482
47	0x3f7a0bc6	0.97674215
48	0x3f9684b1	1.1759244
49	0x3f882492	1.063616
50	0x3f9ce878	1.2258444
51	0x3fa8c84a	1.3186123
52	0x3fa3b967	1.2790955
53	0x3fcfe571	1.6241895
54	0x4001bcda	2.0271516
55	0x3f8d3f99	1.1035033
56	0x3f9e9ad3	1.2390999
57	0x3fae2845	1.3606039
58	0x3fa41fdb	1.2822222
59	0x3fa40d34	1.2816529
60	0x3fcdff59	1.6093551
61	0x3fa0a134	1.2549195
62	0x3f952e75	1.1654803
63	0x3ff20f67	1.891095
64	0x3fca8624	1.5822186
65	0x3f883d6e	1.0643747
66	0x3fc04c02	1.5023196
67	0x3fed92f1	1.8560468
68	0x3fb31767	1.3991517
69	0x3ff05e01	1.8778688
70	0x3fe2431e	1.7676733
71	0x3fb1eb5f	1.3899955
72	0x3fac3aa4	1.3455396
73	0x3fc4e582	1.538254
74	0x3fcc1294	1.594317
75	0x3fa56ced	1.2923867
76	0x3f928fca	1.1450131
77	0x3fc8bb99	1.568225
78	0x3f7f215c	0.9966028
79	0x3f5c1c6e	0.8598088
80	0x3f958df2	1.1683943
81	0x40097142	2.1475377
82	0x400be47b	2.1858203
83	0x3f99d814	1.2019067
84	0x3f7a5f9e	0.9780215
85	0x3f9dba80	1.232254
86	0x3fd80a2d	1.6878105
87	0x3fbf25b5	1.4933382
88	0x3f7a3129	0.9773126
89	0x3fad9bfc	1.3563228
90	0x3fb54b5c	1.4163623
91	0x3fdcda8e	1.7254198
92	0x3fb353ed	1.4009987
93	0x3fa099b9	1.2546912
94	0x3ff7d4c7	1.936181
95	0x3fbbdefb	1.4677423
96	0x3fd3e73a	1.655494
97	0x3fd5a62d	1.6691338
98	0x3fbab786	1.4587257
99	0x3ff63f5b	1.9238085
100	0x3faad076	1.3344867
101	0x3f96a5e8	1.176938
102	0x3fc8c0ec	1.5683875
103	0x40034b7a	2.0514817
104	0x3f9f9b30	1.2469234
105	0x3fbefb54	1.4920449
106	0x3f9fc692	1.2482474
107	0x3f9d86ca	1.2306759
108	0x3f883fb1	1.0644437
109	0x3fb3e518	1.4054289
110	0x3fad67f5	1.354735
111	0x3f6684ed	0.9004658
112	0x3ff77599	1.9332763
113	0x3fbe2a98	1.4856749
114	0x3fe268e2	1.7688258
115	0x3f8b5567	1.0885438
116	0x3f9762da	1.1827042
117	0x3f82040a	1.0157483
118	0x3f9847a0	1.1896858
119	0x3fb494be	1.4107893
120	0x3fe35e05	1.7763067
121	0x3f9aa338	1.208106
122	0x3f83ff49	1.0312282
123	0x3f9bbd22	1.2167094
124	0x3f9a7c7d	1.2069241
125	0x3f9bf7e7	1.2185029
126	0x3fa91c3e	1.3211744
127	0x3f7dd289	0.99149376
128	0x3ff024c1	1.8761216
129	0x3fa2e266	1.2725341
130	0x3fbfcc2c	1.4984183
131	0x3fe14afb	1.7601007
132	0x3f992003	1.1962894
133	0x3fe03ed9	1.751918
134	0x3f828337	1.0196294
135	0x3f820381	1.0157319
136	0x3fc8e91b	1.5696138
137	0x3fbad2fa	1.4595635
138	0x3fb9c810	1.4514179
139	0x3fd444fc	1.6583552
140	0x3fcaa981	1.5832978
141	0x3fd6cb27	1.6780747
142	0x3faecf8c	1.3657088
143	0x3f96f116	1.1792324
144	0x3fd30024	1.6484418
145	0x3f9a41bd	1.2051312
146	0x3fa62d8e	1.2982652
147	0x3f80dc79	1.0067283
148	0x3f99cb72	1.2015212
149	0x3fa4d1b2	1.2876494
150	0x3f7f5f04	0.9975436
151	0x3f9f8cfc	1.24649
152	0x3fa96c34	1.3236146
153	0x3ff06640	1.8781204
154	0x3f74f3cb	0.956845
155	0x3f7d7195	0.9900144

net.5.bias f4 [156]
0	0xbb9200fa	-0.004455683
1	0x3d62886e	0.05530589
2	0x3e000fea	0.1250607
3	0x3d82afa2	0.063811556
4	0x3cc3113b	0.023811927
5	0x3e3a64c4	0.18202502
6	0xbeaead51	-0.34116605
7	0x3dad866a	0.08472903
8	0x3e04df40	0.12975788
9	0x3dc10e75	0.094265856
10	0xbd9ca50a	-0.07648666
11	0xbbf811c0	-0.0075704753
12	0x3e0035cb	0.1252052
13	0x3e241a87	0.16025744
14	0x3d037133	0.032090377
15	0x3df2dc89	0.1185847
16	0x3ea0585f	0.31317422
17	0x3daa2ed0	0.0830971
18	0x3e229890	0.1587851
19	0xbd319d59	-0.04336295
20	0x3de1413a	0.10998769
21	0x3dcc70c7	0.09982448
22	0xbd051115	-0.032486994
23	0xbe1f00fd	-0.15527721
24	0x3e5d77ba	0.21627703
25	0x3a44516d	0.000748894
26	0xb8d3d98c	-0.00010101785
27	0x3bdfc2b7	0.0068286317
28	0xbd81bf7f	-0.06335353
29	0x3c5c6997	0.013452909
30	0x3e050f6d	0.12994166
31	0x3d838804	0.06422427
32	0x3dded266	0.10879974
33	0x3e362653	0.17788057
34	0x3c8a7837	0.016903026
35	0xb9a0f3fc	-0.0003069936
36	0x3df0fbf7	0.117668085
37	0x3ca055c7	0.019572152
38	0x3d84d27b	0.064854585
39	0x3c9dd2ae	0.019265499
40	0x3e14c582	0.14528468
41	0x3bae0f9b	0.005311919
42	0x3e55dd38	0.2088517
43	0x3e425c66	0.1898056
44	0x3dae2dd6	0.08504836
45	0x3dbc7ded	0.09203706
46	0x3e0aabe9	0.13542141
47	0xbd00b18e	-0.03141933
48	0x3e104dab	0.14092128
49	0x3e24376b	0.16036765
50	0xb937ff9a	-0.00017547459
51	0x3e640221	0.22266437
52	0x3d69ad4a	0.057050027
53	0x3e6ace98	0.22930372
54	0x3db50903	0.088396095
55	0x3a8c05e6	0.001068291
56	0x3e7e1d4f	0.24815868
57	0x3e9b0c50	0.3028283
58	0x3b0b1f7e	0.0021228488
59	0xba801b8c	-0.0009773835
60	0x3e55132e	0.20808098
61	0x3e7db559	0.2477621
62	0x3e42e039	0.19030847
63	0x3e89301f	0.26794526
64	0x3d8ee721	0.06977678
65	0x3df29814	0.11845413
66	0x3dd2d032	0.10293616
67	0xbd806a4a	-0.06270273
68	0x3de03fa4	0.109496385
69	0x3dfafb9e	0.122550234
70	0x3d88d6e5	0.06681613
71	0x3cda4830	0.02664575
72	0x3cdb40de	0.02676433
73	0x3dc311fd	0.09524915
74	0xbc0eec53	-0.008723336
75	0x3db21819	0.086960025
76	0x3de4023d	0.111332394
77	0xbd8a5536	-0.06754534
78	0x3dd35977	0.103197984
79	0x3e4f904a	0.20269886
80	0x3d83a8a7	0.06428652
81	0xbd94bf5a	-0.0726306
82	0xbab728b2	-0.001397392
83	0x3de6c008	0.11267096
84	0x3d66081a	0.05616007
85	0x3e5fc7c6	0.21853551
86	0x3e48f845	0.19625957
87	0xbcac0ae9	-0.021001296
88	0x3e05c1f0	0.13062263
89	0xbb75a31a	-0.003748125
90	0xbdfb768b	-0.1227847
91	0xbd64a9ab	-0.05582587
92	0x3d9651be	0.0733981
93	0x3cd0623d	0.025437469
94	0x3db97dcf	0.09057199
95	0x3be6accf	0.0070396434
96	0x3d80ba3d	0.06285522
97	0x3e344038	0.17602623
98	0x3d9ea443	0.07746174
99	0x3e84a10c	0.2590412
100	0x3e26f837	0.16305624
101	0xb8b5ea5a	-8.674404e-05
102	0x3e1e83cc	0.15479964
103	0xbe8fd84d	-0.28094712
104	0x3d42251f	0.047398683
105	0x3e3dad59	0.18523158
106	0x3d1a979f	0.037742253
107	0x3c6179be	0.013761936
108	0x3e100aa6	0.14066562
109	0x3d3d6609	0.046239886
110	0x3dab13e7	0.083534054
111	0x3e4fe1ef	0.2030103
112	0x3d0f8461	0.035038356
113	0x3e287e58	0.16454446
114	0x3e365532	0.17805937
115	0x3cefd2b8	0.029275283
116	0x3ca1dee8	0.01975961
117	0x3d7435bb	0.059621554
118	0x3de8b4f0	0.11362636
119	0x3e31e68b	0.17373101
120	0xbd9a4cc9	-0.07534177
121	0x3d2fbfce	0.04290753
122	0x3de358b5	0.11100904
123	0x3d0fb642	0.035085924
124	0x3d0b59f7	0.034021344
125	0x3a248f61	0.00062774686
126	0x3d152a50	0.036417305
127	0x3baaae91	0.005208798
128	0x3d6d0517	0.057866182
129	0x3d84a101	0.064760216
130	0xbd375454	-0.044758156
131	0x3ed5bd3d	0.4174594
132	0x3e60a514	0.21937972
133	0x3dea1fee	0.11431871
134	0x3d3fb5b4	0.046804145
135	0x3d5d90ce	0.054093175
136	0xbc2d1a76	-0.010565391
137	0x3db301e3	0.08740594
138	0x3d86d186	0.06582932
139	0x3df6ba6b	0.12047275
140	0x3e0b1297	0.1358131
141	0xbe2b0695	-0.1670173
142	0x3d6f521b	0.05842791
143	0x3addaa44	0.0016911705
144	0x3d013cba	0.031552054
145	0x3ce0451e	0.027376708
146	0x3cd87483	0.026422745
147	0xbcfec3a6	-0.031099152
148	0xbcb3c076	-0.021942358
149	0x3d0e8da4	0.034803048
150	0x3b131a49	0.0022446087
151	0x3e231208	0.15924847
152	0x3e22a8f4	0.15884763
153	0xbdd2e1ad	-0.102969505
154	0x3daf8f44	0.085722476
155	0x3db095cb	0.08622321

net.5.running_mean f4 [156]
0	0x0f4e0c2b	1.01589276e-29
1	0x00000004	6e-45
2	0x3dd93a98	0.10606879
3	0x3de73991	0.11290277
4	0x00000004	6e-45
5	0x3f42719f	0.7595462
6	0x400fba00	2.2457275
7	0x00000004	6e-45
8	0x3f762660	0.96152306
9	0x3ce7c5f6	0.028292637
10	0x3ea701d1	0.32618573
11	0x3f8126a5	1.0089918
12	0x3c95617c	0.01823496
13	0x2d862ae3	1.5253082e-11
14	0x00000004	6e-45
15	0x00000004	6e-45
16	0x3d28e2cd	0.04123192
17	0x3f72e809	0.9488531
18	0x3e240d1a	0.16020623
19	0x00000004	6e-45
20	0x00000004	6e-45
21	0x3b4c6079	0.0031185432
22	0x00000004	6e-45
23	0x3f7180c8	0.9433713
24	0x3cc1a9ee	0.0236406
25	0x00000004	6e-45
26	0x02a5269d	2.4266734e-37
27	0x3e81fafa	0.25386792
28	0x00000004	6e-45
29	0x00000004	6e-45
30	0x3e7c3587	0.24629794
31	0x00000004	6e-45
32	0x3fc7f008	1.5620127
33	0x3d364afe	0.044505112
34	0x00000004	6e-45
35	0x3c840485	0.016115436
36	0x00000004	6e-45
37	0x285f6721	1.2401349e-14
38	0x3e9035b0	0.2816596
39	0x00000004	6e-45
40	0x00000004	6e-45
41	0x00000004	6e-45
42	0x3cedf172	0.029045794
43	0x3da8f2a3	0.08249404
44	0x00000004	6e-45
45	0x00000004	6e-45
46	0x3cf0f28d	0.029412532
47	0x3c2a407f	0.010391354
48	0x3e21b09d	0.15790029
49	0x3e7787de	0.24172923
50	0x00000004	6e-45
51	0x3eb1b8c3	0.34711275
52	0x3d5c6fe1	0.053817634
53	0x3e45c2f3	0.19312648
54	0x3fad4b67	1.3538636
55	0x00000004	6e-45
56	0x3b88d870	0.004176192
57	0x0d095f9b	4.2331465e-31
58	0x00000004	6e-45
59	0x00000004	6e-45
60	0x27002cc4	1.7787836e-15
61	0x3da04ccb	0.07827147
62	0x3f400630	0.7500944
63	0x3d01cb7b	0.031688195
64	0x3f520668	0.82041025
65	0x3e95149c	0.29117286
66	0x3d7e16c0	0.062033415
67	0x3e627d82	0.2211819
68	0x00000004	6e-45
69	0x00000004	6e-45
70	0x3f030a22	0.51187336
71	0x16587265	1.7484438e-25
72	0x3cd4cac0	0.025975585
73	0x10bb6d2c	7.39267e-29
74	0x3bb616e7	0.0055569294
75	0x00000004	6e-45
76	0x3d8c3b9f	0.06847309
77	0x00000004	6e-45
78	0x3fb78976	1.4338825
79	0x3db95a7c	0.09050462
80	0x00000004	6e-45
81	0x3e224c04	0.1584931
82	0x3e275f50	0.16344953
83	0x3e180445	0.14845379
84	0x3cb6a17b	0.022293797
85	0x3f57488f	0.8409509
86	0x3d96919a	0.0735199
87	0x00000004	6e-45
88	0x3f31aeed	0.6940754
89	0x00000004	6e-45
90	0x3f569b54	0.8383076
91	0x3e683bdc	0.22679085
92	0x30f6a2e1	1.7945149e-09
93	0x3fda0dae	1.7035425
94	0x3e421096	0.1895164
95	0x00000004	6e-45
96	0x3cc6eacb	0.02428188
97	0x3da31a7f	0.07964038
98	0x3e33838e	0.17530653
99	0x3d8bf58b	0.06833943
100	0x3c9524de	0.018206056
101	0x00000004	6e-45
102	0x3c18242b	0.009285967
103	0x00000004	6e-45
104	0x00000004	6e-45
105	0x3ec2c4f4	0.38040888
106	0x00000004	6e-45
107	0x00000004	6e-45
108	0x3ff2f7d8	1.8981886
109	0x3d1dafe7	0.03849783
110	0x3c676796	0.014123818
111	0x3e060367	0.13087235
112	0x3e4786ec	0.19485062
113	0x3c17a9b3	0.009256768
114	0x3c56bf33	0.013107109
115	0x00000004	6e-45
116	0x333b63c3	4.3630063e-08
117	0x3d4aa9e9	0.049478445
118	0x3f328c1e	0.6974505
119	0x2f92fd2f	2.6737143e-10
120	0x3f31bc51	0.69427973
121	0x00000004	6e-45
122	0x2e55bef3	4.860019e-11
123	0x00000004	6e-45
124	0x3daef2b9	0.085423894
125	0x3438f532	1.7225537e-07
126	0x3c413f4c	0.011794876
127	0x0405d3a1	1.573125e-36
128	0x3d6811e6	0.056657694
129	0x00000004	6e-45
130	0x3ce5ccf5	0.028051833
131	0x3d742a94	0.05961092
132	0x3e13a473	0.14418201
133	0x3ceceb87	0.028920902
134	0x31396eba	2.6983984e-09
135	0x3dc12082	0.094300285
136	0x00000004	6e-45
137	0x00000004	6e-45
138	0x3f0a80c5	0.54102737
139	0x3e957ef9	0.29198435
140	0x3da11d54	0.07866922
141	0x3cd3a544	0.02583564
142	0x368e49e5	4.2405322e-06
143	0x1f64db39	4.8462215e-20
144	0x3b670b77	0.0035254636
145	0x00000004	6e-45
146	0x00000004	6e-45
147	0x00000004	6e-45
148	0x00000004	6e-45
149	0x00000004	6e-45
150	0x00000004	6e-45
151	0x3dc04592	0.093882695
152	0x3d483726	0.04888072
153	0x3d860bbe	0.065452084
154	0x00000004	6e-45
155	0x39870e13	0.00025759693
