artifacts/mlp.pt (torch, 164763 bytes, 14 tensors)

net.0.weight f4 [156, 78]
0.15911402 0.12850003 -0.054067295 0.07842321 -0.00066599494 -0.006225452 -0.052616503 0.032695122
0.121670514 -0.029088581 0.111558974 0.086658984 0.09506807 0.020837955 0.11653761 -0.077642955
0.12806408 0.03906438 -0.036255248 0.04083116 -0.019586755 0.03093756 -0.054430716 0.090222724
-0.03737359 -0.035145756 -0.06465116 -0.044931687 0.008566692 -0.17987546 0.10100616 -0.09618334
0.15916187 0.018843258 -0.07034875 0.02464257 -0.060802054 0.046223577 0.107142694 -0.020089058
0.06488983 -0.014372001 0.066257164 0.120348595 0.06420154 0.010992039 0.056435116 -0.0020197157
0.057892323 0.0027341056 -0.05159301 0.0071981563 -0.04846033 0.114763215 0.044027604 0.01331728
0.035809524 -0.001969706 0.08861294 -0.08044982 0.007129238 -0.07728246 0.0073729525 -0.014851051
0.009105678 -0.052663334 0.049898393 -0.12606558 -0.070375405 -0.13839838 0.14798395 0.024850553
0.14742246 -0.0722468 -0.112444185 -0.028887566 -0.064608 0.030738475 0.04866299 0.052147336
-0.51292294 -0.058305465 0.06384238 0.009117404 0.061101925 -0.03729762 0.07886762 -0.13107027
-0.07852265 -0.003726042 -0.00093790144 -0.06206214 0.02789786 0.033156566 -0.24141409 -0.2581137
-0.032825302 0.09930934 -0.08667823 -0.17159018 -0.30566078 -0.10627466 0.1252786 0.020812651
0.099446006 -0.019431831 0.0025407898 0.057233714 -0.059930958 -0.072096385 0.09343413 0.021385878
0.01828559 -0.0976116 -0.059008103 -0.06784424 -0.015174199 -0.095342845 -0.07161901 -0.07977561
0.08293998 -0.022740755 0.03132112 -0.09214471 -0.060673527 -0.0708124 -0.01628752 -0.109117754
0.07951976 0.00893167 0.0830371 0.04937603 -0.120755926 0.061750915 -0.031154016 -0.04340313
-0.09398697 -0.11256652 0.03239565 -0.024733897 -0.4103671 -0.0891555 0.10294663 -0.028231004
0.0031100817 0.044830717 -0.48982024 0.095628195 0.0755623 -0.042818543 0.008603493 -0.0764027
0.026476543 0.014046709 0.14751747 -0.0501491 0.1060112 0.015567796 0.008344241 -0.084553756
0.09253277 0.012194656 -0.02380528 -0.11192472 0.045196515 -0.04281013 -0.051376794 0.0911855
0.025757337 -0.11074336 -0.028711434 -0.024647469 0.062145345 -0.08515704 -0.12041801 0.11884513
-0.1028263 0.032758094 0.050677113 -0.156593 0.014386488 0.038555257 0.0027015323 -0.020392545
0.03538079 0.030173702 -0.00075622747 -0.019896531 -0.020433264 0.012113204 -0.02534426 -0.029763084
0.06467967 0.083396286 -0.018853426 -0.028817516 0.024850158 -0.018317897 -0.00120975 0.03620385
-0.14593495 -0.032225378 0.13385446 0.01960476 0.016719792 -0.058716055 -0.059713606 -0.18597858
-0.014017486 0.035902295 0.072709836 0.046934813 -0.10008695 -0.06809089 -0.017869217 0.10953076
0.016379235 -0.029322661 0.01839434 -0.053511955 -0.09662493 0.06996896 -0.049094267 -0.0349787
-0.21346502 0.0675152 0.053691152 0.024100835 -0.11824658 -0.13094394 -0.08448626 0.053678256
0.056368943 0.11412619 0.022632668 0.0024770857 -0.17230995 0.0499869 -0.13450749 -0.039295092
0.07630604 -0.08800206 -0.06930933 -0.050493225 -0.005392349 -0.07299853 -0.06829269 0.013266726
-0.059743337 0.018033367 -0.11546065 -0.1580395 -0.050758954 -0.054706503 -0.061105546 -0.12888055
00000000: c9ee 223e 8395 033e ab75 5dbd 599c a03d
00000010: 2a96 2eba e0fe cbbb 6784 57bd 52eb 053d
00000020: 642e f93d 2d4b eebc 0879 e43d 447a b13d
00000030: 0cb3 c23d 5cb4 aa3c 45ab ee3d 4503 9fbd
00000040: 3b23 033e f901 203d 6280 14bd 933e 273d
00000050: 6774 a0bc c470 fd3c bef2 5ebd b1c6 b83d
00000060: 0d15 19bd fff4 0fbd d467 84bd 4a0a 38bd
00000070: 4f5b 0c3c 4631 38be 51dc ce3d c5fb c4bd
00000080: 54fb 223e 2d5d 9a3c 0113 90bd 37df c93c
00000090: 930b 79bd ef54 3d3d a16d db3d cf91 a4bc
000000a0: f6e4 843d 8b78 6bbc d6b1 873d 5379 f63d
000000b0: 197c 833d f417 343c 8228 673d 355d 04bb
000000c0: 8020 6d3d ae2e 333b 3153 53bd 83de eb3b
000000d0: 577e 46bd fa08 eb3d 4a56 343d b930 5a3c
000000e0: 02ad 123d 2f16 01bb b37a b53d e0c2 a4bd
000000f0: 629c e93b 4446 9ebd cf98 f13b d351 73bc
00000100: fb2f 153c 82b5 57bd 4262 4c3d 5617 01be
00000110: fb20 90bd 4eb8 0dbe 1b89 173e 6393 cb3c
00000120: eaf5 163e 21f6 93bd 2349 e6bd 9ea5 ecbc
00000130: 3351 84bd 41cf fb3c d852 473d 7298 553d
00000140: eb4e 03bf b6d1 6ebd cbbf 823d 2a61 153c
00000150: 0346 7a3d 64c5 18bd 5985 a13d 4937 06be
00000160: 7cd0 a0bd 9d30 74bb 80dd 75ba df34 7ebd
00000170: 0e8a e43c 2ecf 073d 4135 77be 7b27 84be
00000180: d373 06bd b262 cb3d 5b84 b1bd 56b5 2fbe
00000190: 927f 9cbe 87a6 d9bd 0949 003e 4b7f aa3c
000001a0: 59aa cb3d 812f 9fbc 6183 263b e66d 6a3d
000001b0: 2a7a 75bd 45a7 93bd 655a bf3d 7031 af3c
000001c0: a9cb 953c 97e8 c7bd 7bb2 71bd ecf1 8abd
000001d0: 349d 78bc 1c43 c3bd fdac 92bd 6561 a3bd
000001e0: 70dc a93d d24a babc 934a 003d 5eb6 bcbd
000001f0: ce84 78bd 1706 91bd 686d 85bc 2179 dfbd
00000200: 42db a23d 2456 123c 5b0f aa3d 853e 4a3d
00000210: e24e f7bd 87ee 7c3d b536 ffbc 7bc7 31bd
00000220: 3e7c c0bd 4789 e6bd 4db1 043d be9e cabc
00000230: a31b d2be 2997 b6bd afd5 d23d b544 e7bc
00000240: 83d2 4b3b 6aa0 373d b8c9 fabe b7d8 c33d
00000250: 68c0 9a3d 7f62 2fbd aaf5 0c3c 0579 9cbd
00000260: 56e5 d83c 2b24 663c d20e 173e 2569 4dbd
00000270: 661c d93d 1210 7f3c 49b6 083c 852a adbd
00000280: d281 bd3d 18cc 473c 4a03 c3bc ca38 e5bd
00000290: fb1f 393d ad59 2fbd 7970 52bd 77bf ba3d
000002a0: 0d01 d33c 6acd e2bd 3e34 ebbc 7de9 c9bc
000002b0: 1e8c 7e3d d066 aebd b89d f6bd 1365 f33d
000002c0: 9896 d2bd 5a2d 063d ce92 4f3d ea59 20be
000002d0: 4eb5 6b3c 1eec 1d3d 310c 313b 440e a7bc
000002e0: 72eb 103d d72e f73c 913d 46ba 0dfe a2bc
000002f0: a963 a7bc 7676 463c c49e cfbc b6d1 f3bc
00000300: c676 843d accb aa3d 8072 9abc b612 ecbc
00000310: 8f92 cb3c 6a0f 96bc 7990 9eba 7d4a 143d
00000320: f96f 15be c2fe 03bd 2511 093e 299a a03c
00000330: f2f7 883c 3f80 70bd 4196 74bd 2b71 3ebe
00000340: 99a9 65bc 490e 133d e5e8 943d b83e 403d
00000350: 63fa ccbd 3d73 8bbd 7762 92bc aa51 e03d
00000360: bf2d 863c 1436 f0bc baaf 963c 5a2f 5bbd
00000370: 4be3 c5bd e34b 8f3d 1217 49bd d345 0fbd
00000380: 9396 5abe 6945 8a3d 41eb 5b3d 1d6f c53c
00000390: 432b f2bd 2b16 06be 2207 adbd bbdd 5b3d
000003a0: 1fe3 663d feba e93d 2568 b93c 9a56 223b
000003b0: 0572 30be 10bf 4c3d 55bc 09be e4f3 20bd
000003c0: 5746 9c3d 6d3a b4bd 0df2 8dbd fcd1 4ebd
000003d0: 4db2 b0bb 4180 95bd 0add 8bbd af5c 593c
000003e0: 6eb5 74bd b6ba 933c a276 ecbd 1bd5 21be
000003f0: 9fe8 4fbd ed13 60bd cf49 7abd 43f9 03be

net.0.bias f4 [156]
-0.12555447 -0.12408925 -0.080275215 -0.082323514 -0.044249773 -0.11606207 -0.016212733 -0.020935135
0.008103761 0.07130467 -0.060303442 0.07125855 -0.122453794 -0.11398226 -0.02715873 -0.15759142
0.024600442 -0.1566374 -0.09583506 -0.11511853 -0.03417285 0.0034520875 0.021375414 -0.07802222
-0.05471872 -0.06998113 -0.11646126 -0.0436544 0.0010803791 0.08223109 0.11622294 0.037699964
-0.08602152 -0.09885951 -0.19912305 0.09456878 0.023697965 -0.087868 0.07971614 -0.16064586
-0.014673138 -0.03910123 -0.045648597 0.07646582 -0.11762841 -0.024617454 0.16109216 -0.00023936675
-0.11680291 0.049632274 -0.032556713 -0.106042676 0.06740812 -0.3792455 -0.03594507 -0.1637795
-0.07753474 0.07284278 -0.094679445 -0.07567407 -0.09534593 -0.21137038 0.07467012 -0.12681612
-0.08766677 -0.11962055 -0.10074717 0.0051872307 0.10525102 -0.030205501 -0.08133588 -0.12325006
-0.08352537 0.038034417 -0.07315226 -0.050084602 -0.17155671 -0.11184063 0.0043357434 -0.1110557
-0.07315194 -0.00073492853 -0.014346261 -0.059380155 -0.026736932 -0.047595993 0.09050272 -0.09240077
-0.04988648 -0.061895713 0.089787774 0.032285906 -0.08716519 -0.0898952 0.019832116 -0.12834738
-0.1081132 0.020418359 -0.059737474 -0.21575682 0.0015236748 0.040713098 -0.123077035 -0.08898024
-0.16968654 -0.13920513 0.068286896 -0.05242619 -0.096262574 -0.0043186597 -0.17422119 -0.090506665
-0.04233483 0.0041342727 0.002592297 -0.26172575 0.009148983 -0.06482911 -0.09435167 -0.19588155
-0.0892683 -0.10649681 -0.1437002 -0.13920923 -0.070257306 -0.12372137 0.031059602 -0.05431927
-0.094388284 -0.22340578 -0.062469106 0.038297836 -0.013311984 -0.12508754 -0.06881956 -0.03670325
0.07273298 -0.12079522 -0.146961 -0.21617657 0.078665435 -0.16483061 -0.06302777 0.043870848
-0.090283826 -0.13747722 -0.093727864 0.021746444 0.08140504 -0.065744705 -0.15387781 -0.18183689
0.009569092 -0.09323648 -0.105851956 -0.24598815
00000000: 5a91 00be 8122 febd 5567 a4bd 3b99 a8bd
00000010: 403f 35bd f3b1 edbd 91d0 84bc 2980 abbc
00000020: a3c5 043c 2f08 923d be00 77bd 01f0 913d
00000030: 0ec9 fabd 886f e9bd fc7b debc a55f 21be
00000040: de86 c93c 8e65 20be 2c45 c4bd 44c3 ebbd
00000050: d5f8 0bbd 6b3c 623b 7e1b af3c 1dca 9fbd
00000060: bd20 60bd 4452 8fbd 3e83 eebd f5ce 32bd
00000070: 829b 8d3a c668 a83d 4b06 ee3d 476b 1a3d
00000080: 0d2c b0bd db76 cabd eae6 4bbe 47ad c13d
00000090: 3c22 c23c 23f4 b3bd 3742 a33d 5980 24be
000000a0: 9a67 70bc 9d28 20bd 06fa 3abd 1d9a 9c3d
000000b0: 2ae7 f0bd 8baa c9bc 58f5 243e 86fe 7ab9
000000c0: 5d36 efbd 364b 4b3d 305a 05bd e72c d9bd
000000d0: 450d 8a3d 772c c2be 233b 13bd d0b5 27be
000000e0: 89ca 9ebd 982e 953d 4ce7 c1bd 02fb 9abd
000000f0: ba44 c3bd 7a71 58be a6ec 983d 16dc 01be
00000100: a38a b3bd 9efb f4bd 8854 cebd a5f9 a93b
00000110: d98d d73d 8771 f7bc 6d93 a6bd 876a fcbd
00000120: 590f abbd fac9 1b3d dad0 95bd 8325 4dbd
00000130: 90ac 2fbe b30c e5bd da12 8e3b 2c71 e3bd
00000140: afd0 95bd 38a8 40ba 940c 6bbc 9b38 73bd
00000150: 6907 dbbc 04f4 42bd 7d59 b93d 9d3c bdbd
00000160: c455 4cbd 5c86 7dbd a7e2 b73d 3a3e 043d
00000170: aa83 b2bd fa1a b8bd f676 a23c 7f6d 03be
00000180: 746a ddbd 6744 a73c 48af 74bd 5bef 5cbe
00000190: 0bb6 c73a c7c2 263d d00f fcbd 463b b6bd
000001a0: 4fc2 2dbe ca8b 0ebe 00da 8b3d d8bc 56bd
000001b0: 5025 c5bd 8b83 8dbb 0a67 32be 8f5b b9bd
000001c0: 4967 2dbd cb78 873b 87e3 293b eb00 86be
000001d0: 9ee5 153c 20c5 84bd 733b c1bd 2c95 48be
000001e0: 4cd2 b6bd 001b dabd 2526 13be dd8c 0ebe
000001f0: 10e3 8fbd a161 fdbd b570 fe3c e27d 5ebd
00000200: a54e c1bd 7cc4 64be 9bdf 7fbd 31de 1c3d
00000210: 821a 5abc f316 00be 45f1 8cbd 2656 16bd
00000220: 07f5 943d 7c63 f7bd f27c 16be 645d 5dbe
00000230: 581b a13d 5bc9 28be b414 81bd ebb1 333d
00000240: bae6 b8bd d4c6 0cbe 65f4 bfbd 9925 b23c
00000250: b0b7 a63d 29a5 86bd 2592 1dbe 7333 3abe
00000260: aec7 1c3c c5f2 bebd e9c8 d8bd 51e4 7bbe

net.2.weight f4 [156]
0.94546664 0.98588383 0.99008954 1.0873309 0.9281503 0.9003826 0.99713045 0.9190674
0.9462667 0.94915104 0.9996581 0.8799921 1.0048441 0.90865993 1.0129994 0.99358755
0.91347814 0.92730033 1.0060673 1.040141 1.0470484 0.91812366 0.948018 0.9525467
0.9557963 0.97374713 0.95277053 0.94067866 1.0045974 0.96051615 1.0022408 0.9503624
0.9255628 1.0025357 1.0487366 0.973586 0.9211788 1.0026951 1.0476221 0.9637452
0.9557485 1.0045048 1.0367725 0.9645578 0.916124 1.0577555 0.967993 0.90321213
1.0456595 0.9413689 0.98467 1.0131121 0.9377888 1.1616052 1.0027359 0.95389104
1.0091318 0.98103666 0.9370286 0.97816396 0.9729176 0.9516228 0.8791937 0.9479154
0.94771886 0.9326893 0.9674054 1.0695803 0.9003465 1.0758414 0.8851408 0.9442502
0.9717983 0.94924766 0.92217314 0.88321817 0.9470731 0.975514 0.99418986 0.9892473
0.9916861 0.9196215 0.92842895 0.90859514 0.96376073 0.98841435 0.95219284 0.98631203
1.0673112 0.9025122 1.0598007 0.9963223 1.0332234 1.0207514 0.94442034 0.9976476
0.9171122 1.0372237 0.95546734 1.0150331 0.9623953 0.9614762 0.9392403 1.0117573
0.9606548 0.9409675 0.90243876 0.95741 1.0719742 0.8966777 1.021118 0.938657
0.95869505 0.9718892 0.9438052 1.1032579 0.9890372 0.9695621 0.9407556 0.9850196
0.97085464 0.9664452 0.8957645 0.92812806 0.93215585 0.9682849 0.9987789 0.9354782
0.8682826 1.251072 0.94165546 0.97033477 0.8901613 0.9148649 0.97070146 0.94489217
0.97009665 0.90832543 0.9779846 1.2931752 1.0358051 0.9906933 0.9140389 0.9479472
1.0090245 1.0704318 0.95148134 0.9944991 0.9439029 0.9453326 0.96151966 1.0629956
0.9800585 0.9161185 0.95091414 1.0539675
00000000: 1a0a 723f e262 7c3f 8276 7d3f a92d 8b3f
00000010: 429b 6d3f 797f 663f f143 7f3f 0048 6b3f
00000020: 893e 723f 90fb 723f 98e9 7f3f 2a47 613f
00000030: bb9e 803f f09d 683f f7a9 813f c15b 7e3f
00000040: b4d9 693f 8e63 6d3f d0c6 803f 5723 853f
00000050: af05 863f 270a 6b3f 4fb1 723f 1ada 733f
00000060: 11af 743f 7e47 793f c5e8 733f 51d0 703f
00000070: a696 803f 63e4 753f 6d49 803f f34a 733f
00000080: aff1 6c3f 1753 803f 003d 863f ef3c 793f
00000090: 60d2 6b3f 5058 803f 7b18 863f 01b8 763f
000000a0: efab 743f 9d93 803f f6b4 843f 43ed 763f
000000b0: 1a87 6a3f 8864 873f 64ce 773f e938 673f
000000c0: 2cd8 853f 8dfd 703f 5513 7c3f a8ad 813f
000000d0: ed12 703f 7baf 943f a659 803f 3432 743f
000000e0: 3b2b 813f 3825 7b3f 1be1 6f3f f468 7a3f
000000f0: 2111 793f 8d9d 733f d712 613f 95aa 723f
00000100: b49d 723f bac4 6e3f e1a7 773f 02e8 883f
00000110: 1c7d 663f 2cb5 893f 9698 623f 62ba 713f
00000120: c6c7 783f e501 733f 8a13 6c3f 961a 623f
00000130: 6273 723f 49bb 793f 3a83 7e3f 503f 7d3f
00000140: 24df 7d3f 516c 6b3f 85ad 6d3f b199 683f
00000150: 06b9 763f b908 7d3f e9c2 733f f27e 7c3f
00000160: a79d 883f 0a0b 673f 8da7 873f fa0e 7f3f
00000170: aa40 843f fba7 823f 88c5 713f d565 7f3f
00000180: ddc7 6a3f bfc3 843f 8299 743f 9bec 813f
00000190: 8a5f 763f 4e23 763f 0d72 703f 4381 813f
000001a0: 79ed 753f 3fe3 703f 3a06 673f d218 753f
000001b0: 7336 893f ab8c 653f ffb3 823f d34b 703f
000001c0: 0a6d 753f bbcd 783f 389d 713f 8e37 8d3f
000001d0: 8b31 7d3f 3935 783f 5cd5 703f 3f2a 7c3f
000001e0: ee89 783f f468 773f d350 653f cd99 6d3f
000001f0: c4a1 6e3f 85e1 773f f9af 7f3f 807b 6f3f
00000200: c547 5e3f 2123 a03f 5510 713f dc67 783f
00000210: 9ce1 633f 9634 6a3f e47f 783f 74e4 713f
00000220: 4158 783f 0488 683f 335d 7a3f c486 a53f
00000230: 4395 843f 139e 7d3f 74fe 693f abac 723f
00000240: b727 813f e903 893f 4894 733f 7e97 7e3f
00000250: 9fa3 713f 5101 723f 2726 763f 3d10 883f
00000260: 1de5 7a3f be86 6a3f 1c6f 733f 68e8 863f

net.2.bias f4 [156]
0.11916483 0.00950703 0.20406479 0.18718982 0.16271266 0.023120299 0.2920906 0.15859202
0.15682405 -0.1290826 -0.09341286 0.1469782 -0.1471794 0.14186122 0.14246285 0.24021287
-0.15540238 -0.04158191 0.1541124 -0.18341956 0.16189934 0.22289152 0.1191423 -0.056685172
0.14187877 -0.117953725 0.1294599 0.14130847 0.11275912 0.0956551 0.07230867 -0.09467364
-0.049072105 0.19023304 0.12793836 0.11144341 0.14923507 -0.0097828 0.18928117 0.12058945
0.19167326 -0.0671553 -0.13563605 0.2216327 -0.03826247 0.077678375 0.19158736 -0.09762205
0.19930013 0.2725238 -0.12217074 0.2250364 -0.031238733 0.039787374 0.22961193 0.050770525
0.18545336 0.1679285 0.15912731 -0.072326705 0.20975131 0.24661444 0.22607017 -0.015383802
-0.10900939 -0.026535267 0.2925914 0.14356166 0.15318663 0.25442728 0.112885624 0.16768405
0.018811753 0.065982044 0.20331854 0.20547737 -0.048627432 -0.04799302 -0.08391189 -0.15330341
-0.3114327 0.119007014 0.14903909 0.2530377 0.10875812 0.1618817 0.2758699 -0.0912227
0.062476564 -0.05887978 0.13275605 -0.012895093 0.16039266 0.25236854 0.22400233 0.20560372
-0.10082482 0.12888615 -0.10194117 -0.22424656 -0.09228686 -0.010833403 -0.10167724 -0.1668883
-0.086087406 0.084781446 0.032686133 -0.059460092 0.24572133 -0.05834924 -0.058424387 -0.06811734
0.25455457 -0.101422355 -0.06407296 -0.11797314 0.14631055 0.0868205 0.07600961 -0.14195386
-0.110908285 -0.21692929 -0.06342907 -0.06740709 0.21410565 0.1050302 0.20721465 -0.21081908
0.028970815 0.019876938 0.20715377 -0.07688961 0.12028512 -0.020133978 0.0015818038 -0.057882875
0.0873244 -0.06715926 0.08906912 0.058794666 0.20511031 -0.09683313 -0.06221797 -0.12619875
0.12907103 0.11219232 0.15173632 0.19105752 -0.0678264 0.043416847 -0.119697176 -0.11762296
0.14653917 0.03480905 -0.09751767 0.10365259
00000000: b10c f43d 60c3 1b3c 5cf6 503e b0ae 3f3e
00000010: 269e 263e c866 bd3c e68c 953e f265 223e
00000020: 7c96 203e 3b2e 04be 3e4f bfbd 7481 163e
00000030: 32b6 16be 1144 113e c8e1 113e 5dfa 753e
00000040: cd21 1fbe cb51 2abd a4cf 1d3e 56d2 3bbe
00000050: f1c8 253e ad3d 643e e100 f43d b62e 68bd
00000060: ab48 113e b991 f1bd 2391 043e 2bb3 103e
00000070: 41ee e63d d2e6 c33d 9116 943d 41e4 c1bd
00000080: d5ff 48bd 73cc 423e 4602 033e 713c e43d
00000090: 14d1 183e 0a48 20bc ecd2 413e 9af7 f63d
000000a0: ff45 443e b888 89bd 2de4 0abe aff3 623e
000000b0: 1cb9 1cbd d715 9f3d 7a2f 443e 12ee c7bd
000000c0: 5515 4c3e 3d88 8b3e a734 fabd f16f 663e
000000d0: 5fe8 ffbc 16f8 223d 641f 6b3e c1f4 4f3d
000000e0: 7ce7 3d3e 73f5 2b3e 45f2 223e 0620 94bd
000000f0: 0cc9 563e 7f88 7c3e f07e 673e 580c 7cbc
00000100: 5140 dfbd 7d60 d9bc 8ace 953e d401 133e
00000110: f5dc 1c3e 4b44 823e 9430 e73d 5eb5 2b3e
00000120: 1b1b 9a3c 9821 873d bc32 503e a968 523e
00000130: 8f2d 47bd 5494 44bd ffd9 abbd 92fb 1cbe
00000140: 1b74 9fbe f3b9 f33d b49d 183e 288e 813e
00000150: 94bc de3d 51c4 253e d23e 8d3e f8d2 babd
00000160: 6de7 7f3d ed2b 71bd 34f1 073e f145 53bc
00000170: f93d 243e 7336 813e de60 653e c889 523e
00000180: 3e7d cebd bbfa 033e 88c6 d0bd e4a0 65be
00000190: e500 bdbd 967e 31bc 283c d0bd c4e4 2abe
000001a0: 984e b0bd e5a1 ad3d e5e1 053d 6d8c 73bd
000001b0: 5f9e 7b3e 9dff 6ebd 694e 6fbd 1b81 8bbd
000001c0: fa54 823e 86b6 cfbd af38 83bd e79b f1bd
000001d0: 6fd2 153e f2ce b13d edaa 9b3d 5a5c 11be
000001e0: e223 e3bd b622 5ebe 1ae7 81bd ba0c 8abd
000001f0: 833e 5b3e 131a d73d 1430 543e f5e0 57be
00000200: 3454 ed3c f6d4 a23c 1e20 543e 4d78 9dbd
00000210: 0c58 f63d 03f0 a4bc 8754 cf3a 9816 6dbd
00000220: 23d7 b23d cb8a 89bd df69 b63d add2 703d
00000230: 7008 523e 7350 c6bd 45d8 7ebd 3f3a 01be
00000240: 322b 043e 16c5 e53d c460 1b3e 95a4 433e
00000250: 91e8 8abd ddd5 313d cb23 f5bd 4ee4 f0bd
00000260: 5d0e 163e ef93 0e3d 58b7 c7bd cf47 d43d

net.2.running_mean f4 [156]
0.1357784 0.2161761 0.092251055 0.053018276 0.20198166 0.16098075 0.15591541 0.34035146
0.19645514 0.3040553 0.12697665 0.37416282 0.10812814 0.1537604 0.16204198 0.056182377
0.22992036 0.14518611 0.105525635 0.1695159 0.07516894 0.17296436 0.21072808 0.18429738
0.11957637 0.16692601 0.099406324 0.13094647 0.18132155 0.3061638 0.30274922 0.1885115
0.18636213 0.1035854 0.10814647 0.2651567 0.18156627 0.1284982 0.2566891 0.057930525
0.2611028 0.18066156 0.24429446 0.22541873 0.14690755 0.25358516 0.39406872 0.2559578
0.067689896 0.22161007 0.23802882 0.08805751 0.21763092 0.0271193 0.18969052 0.105401866
0.13475516 0.35441458 0.13987263 0.22330438 0.12784663 0.050092377 0.19168602 0.14451194
0.20346081 0.13971013 0.12303104 0.13791591 0.20243931 0.11687033 0.15156914 0.22457586
0.14133455 0.2505766 0.15278557 0.23982853 0.09686441 0.12998542 0.2361045 0.24041314
0.34448922 0.2337321 0.17228107 0.14316317 0.2504679 0.12147066 0.23404756 0.18808234
0.13452716 0.18086882 0.24191493 0.39211285 0.09958519 0.11003838 0.18993545 0.095430546
0.1384689 0.22627422 0.15387116 0.19980434 0.24376383 0.22119808 0.1318306 0.27090025
0.20545058 0.14732297 0.19062677 0.25900763 0.051906735 0.21013883 0.21166176 0.13918675
0.14470693 0.2670122 0.2559996 0.08144938 0.25003296 0.24105449 0.19362272 0.20589858
0.15215792 0.22501725 0.11871351 0.13288254 0.17141244 0.162683 0.18574847 0.43202972
0.2377226 0.052522037 0.13650769 0.6254426 0.23730847 0.32158864 0.14305402 0.27457547
0.21043861 0.18448573 0.07920392 0.18235636 0.18443997 0.14599101 0.22430442 0.13041572
0.12409594 0.2398039 0.122662894 0.21561825 0.27720895 0.20074347 0.14238492 0.12549543
0.143053 0.089570194 0.20575637 0.046114154
00000000: 7e09 0b3e 445d 5d3e 1fee bc3d b129 593d
00000010: 48d4 4e3e 23d8 243e 4aa8 1f3e 8c42 ae3e
00000020: 892b 493e 23ad 9b3e 2b06 023e 4592 bf3e
00000030: 4972 dd3d 5e73 1d3e 55ee 253e 7e1f 663d
00000040: 3e70 6b3e abab 143e d31d d83d 9395 2d3e
00000050: 2cf2 993d 921d 313e 1ac9 573e 74b8 3c3e
00000060: 75e4 f43d a7ee 2a3e 8b95 cb3d d516 063e
00000070: 5bac 393e 80c1 9c3e f201 9b3e 2909 413e
00000080: b7d5 3e3e 9524 d43d e57b dd3d 9ec2 873e
00000090: 82ec 393e 0895 033e c16c 833e 8f48 6d3d
000000a0: 44af 853e 58ff 383e 5428 7a3e 2bd4 663e
000000b0: ef6e 163e ead5 813e 60c3 c93e e70c 833e
000000c0: 00a1 8a3d c0ed 623e d4bd 733e 7f57 b43d
000000d0: a4da 5e3e 4b29 de3c 3b3e 423e efdc d73d
000000e0: 42fd 093e d475 b53e c53a 0f3e e7a9 643e
000000f0: 3aea 023e aa2d 4d3d 5749 443e f0fa 133e
00000100: 0858 503e 2c10 0f3e b3f7 fb3d d439 0d3e
00000110: 404c 4f3e b659 ef3d f134 1b3e 37f7 653e
00000120: 01ba 103e 934b 803e d273 1c3e 9c95 753e
00000130: d960 c63d e61a 053e 61c5 713e dd2e 763e
00000140: e460 b03e 7857 6f3e 736a 303e 5e99 123e
00000150: 543d 803e 9cc5 f83d 2aaa 6f3e a898 403e
00000160: 7dc1 093e ad35 393e 8cb8 773e 04c3 c83e
00000170: 52f3 cb3d cd5b e13d 707e 423e 1771 c33d
00000180: cbca 0d3e 6eb4 673e 6790 1d3e 8299 4c3e
00000190: 3a9d 793e c081 623e 9afe 063e 70b3 8a3e
000001a0: a361 523e d5db 163e aa33 433e a69c 843e
000001b0: 289c 543d a22e 573e dcbd 583e f986 0e3e
000001c0: 0e2e 143e d3b5 883e 6112 833e efce a63d
000001d0: 5204 803e fdd6 763e 0945 463e 14d7 523e
000001e0: 49cf 1b3e ec6a 663e 1220 f33d 5c12 083e
000001f0: be86 2f3e 5f96 263e d934 3e3e 0033 dd3e
00000200: 8e6d 733e 5921 573d acc8 0b3e 021d 203f
00000210: fe00 733e 44a7 a43e c17c 123e 2895 8c3e
00000220: 387d 573e d4e9 3c3e aa35 a23d a0bb 3a3e
00000230: d5dd 3c3e ab7e 153e 0fb0 653e b38b 053e
00000240: 0326 fe3d 278f 753e af36 fb3d 08cb 5c3e
00000250: 55ee 8d3e b28f 4d3e 5acd 113e e081 003e
00000260: 7c7c 123e 9470 b73d ccb1 523e 32e2 3c3d

net.2.running_var f4 [156]
0.14368196 0.036082126 0.04145772 0.0049149445 0.04013167 0.062482245 0.120968275 0.18019606
0.15089159 0.12686051 0.041030917 0.41239706 0.072032295 0.08881455 0.037787523 0.03922822
0.17639877 0.43529335 0.07693502 0.025655419 0.01499869 0.104531094 0.4556299 0.18463185
0.11316603 0.064600945 0.17848694 0.12831725 0.034612596 0.104438476 0.11319312 0.058388546
0.18837298 0.056707658 0.01411691 0.13178878 0.09093716 0.16783378 0.10200592 0.073421344
0.13488026 0.07853699 0.09982876 0.33872268 0.19474821 0.059895433 0.28812525 0.25083017
0.034434237 0.3503862 0.10110879 0.050977718 0.19387925 0.0024197435 0.14539692 0.081597
0.01894404 0.13384375 0.09670354 0.38160783 0.12504633 0.033881202 0.26413134 0.22575165
0.32438815 0.13872345 0.12655759 0.03383675 0.24836685 0.04471529 0.08327713 0.25555643
0.057333387 0.37296662 0.16519381 0.21273308 0.08074668 0.04047951 0.116653115 0.10964957
0.08034008 0.20010254 0.16528718 0.11414312 0.21511914 0.055217553 0.20279144 0.1350406
0.043363478 0.43620583 0.026018929 0.107300095 0.026079996 0.09300424 0.07318391 0.07406862
0.14853199 0.14503534 0.16048566 0.0436256 0.34706005 0.10134197 0.0764153 0.06334204
0.32766926 0.22600241 0.2781384 0.47676724 0.01580151 0.13573398 0.15169735 0.124698706
0.12918784 0.19524075 0.19358446 0.022348149 0.14000666 0.231244 0.22791258 0.46651676
0.23664507 0.059364673 0.16058889 0.090042524 0.21453443 0.16644734 0.107537 0.11911998
0.40032166 0.0054222597 0.08404622 0.1603849 0.33919027 0.8046591 0.08490313 0.105500385
0.11400578 0.22561279 0.05275879 0.02710573 0.101667725 0.33595106 0.2042773 0.0726267
0.043289114 0.040951453 0.11352076 0.1267563 0.46119705 0.22427027 0.051899154 0.018436642
0.047908884 0.042322863 0.14522234 0.016546572
00000000: 5d21 133e daca 133d 92cf 293d 8b0d a13b
00000010: 1b61 243d 62ed 7f3d 37be f73d 5185 383e
00000020: 5383 1a3e b9e7 013e 0910 283d b525 d33e
00000030: ab85 933d 67e4 b53d 17c7 1a3d c5ad 203d
00000040: e1a1 343e c5de de3e 1c90 9d3d 502b d23c
00000050: 11bd 753c 6614 d63d 5248 e93e 2210 3d3e
00000060: 97c3 e73d 804d 843d 48c5 363e 9965 033e
00000070: f0c5 0d3d d7e3 d53d cbd1 e73d d428 6f3d
00000080: d9e4 403e 4a46 683d 9d4a 673c a3f3 063e
00000090: 433d ba3d 9edc 2b3e 7be8 d03d ee5d 963d
000000a0: 0d1e 0a3e 00d8 a03d 0573 cc3d 0f6d ad3e
000000b0: 136c 473e ea54 753d 2785 933e d06c 803e
000000c0: ea0a 0d3d d265 b33e 2012 cf3d 03ce 503d
000000d0: 4888 463e 8f94 1e3b eee2 143e 541c a73d
000000e0: 8830 9b3c 560e 093e 810c c63d 1a62 c33e
000000f0: 250c 003e 04c7 0a3d 393c 873e 712b 673e
00000100: 3416 a63e 850d 0e3e 5098 013e 6798 0a3d
00000110: e153 7e3e 6127 373d 338d aa3d 4bd8 823e
00000120: 6ad6 6a3d 7bf5 be3e 9128 293e b3d6 593e
00000130: 845e a53d d8cd 253d d4e7 ee3d f48f e03d
00000140: 5789 a43d aee7 4c3e 0b41 293e dec3 e93d
00000150: 3148 5c3e cd2b 623d 8fa8 4f3e 1548 0a3e
00000160: e79d 313d 5f56 df3e a625 d53c 27c0 db3d
00000170: b7a5 d53c 0279 be3d 72e1 953d 4ab1 973d
00000180: c518 183e 2584 143e 5a56 243e c2b0 323d
00000190: dbb1 b13e 618c cf3d a07f 9c3d 79b9 813d
000001a0: 44c4 a73e 2d6d 673e 2868 8e3e d61a f43e
000001b0: 2b72 813c d9fd 0a3e 8d56 1b3e 0962 ff3d
000001c0: d149 043e 31ed 473e 013b 463e 7713 b73c
000001d0: e85d 0f3e 3acb 6c3e ea61 693e 49db ee3e
000001e0: 1653 723e 5f28 733d 6a71 243e 3768 b83d
000001f0: eaae 5b3e 2c71 2a3e 5c3c dc3d 2df5 f33d
00000200: f6f6 cc3e 36ad b13b 6d20 ac3d f03b 243e
00000210: 59aa ad3e 24fe 4d3f b1e1 ad3d 9610 d83d
00000220: dd7b e93d 0a07 673e 9a19 583d d60c de3c
00000230: 2b37 d03d c701 ac3e 122e 513e 4fbd 943d
00000240: ed4f 313d b6bc 273d 927d e83d 67cc 013e
00000250: 0522 ec3e 1ba7 653e 3594 543d 7108 973c
00000260: 1b3c 443d bd5a 2d3d 2ab5 143e ad8c 873c

net.3.weight f4 [156, 156]
-0.003950116 0.023419548 -0.05927866 0.054394294 -0.0644 -0.0016427236 -0.09278872 -0.059173983
-0.14933316 0.03838201 -0.08539511 -0.051548082 0.029250234 -0.07666533 -0.0020392663 -0.015472321
0.016636603 0.01337245 -0.06597134 0.035460413 0.03440298 -0.018977221 -0.030861467 0.10658929
-0.09814169 0.048641283 -0.00018258748 0.008338888 0.030611701 -0.00044744686 -0.09067741 -0.18080632
0.004322879 0.07916656 -0.010746993 -0.16085838 -0.023512905 0.13930911 0.020046435 0.02932524
-0.008425657 -0.03101062 0.09215369 0.036084782 -0.0076883724 0.060975466 -0.054451372 -0.07475145
-0.045520898 0.027845278 -0.010627661 -0.012888394 0.021738531 0.04131637 -0.054589953 0.014515758
-0.03293499 0.033935722 0.019766083 0.10391927 -0.014976802 0.0502916 0.102773204 0.035285
-0.022571992 0.036270164 0.061829064 -0.09796981 -0.0492145 -0.08261706 -0.0070541333 0.09849574
0.048379708 -0.005156039 0.07564846 -0.05911891 -0.10857223 -0.071885504 -0.040896803 0.13041046
-0.018324215 -0.025127051 0.007437742 -0.0729931 -0.06574872 0.018973915 0.02288693 -0.036412954
-0.13703768 0.09795126 -0.0823993 0.04962009 -0.013793188 0.023962012 -0.07007857 -0.00616232
-0.074601024 0.0067420844 0.042608913 -0.0736973 0.047037736 -0.051293373 0.0072761136 -0.03180407
0.117630154 0.064014934 0.017144417 0.06902872 -0.115912214 -0.055177063 0.041044146 0.06651565
0.03322563 0.10896429 0.06950257 0.091712676 0.035808038 0.0416449 -0.018090375 0.0045635337
0.045573488 -0.10370739 0.046707787 -0.08917504 -0.04173107 -0.031384252 0.010855521 -0.058454998
-0.090899915 0.063938454 0.008076922 -0.016867409 0.05013498 0.094484754 0.050003577 0.003257436
-0.03019989 0.026181063 -0.09262658 -0.18875231 -0.019533139 -0.0026596673 0.02955786 -0.07571155
0.033858 0.04102508 0.06273729 -0.05831767 0.11025089 0.07304133 0.015502873 -0.14579695
0.053050302 -0.06864908 0.06415403 0.023372745 0.01863521 -0.06646056 -0.029925693 -0.051250614
-0.074106425 0.019927299 -0.049248777 -0.056574315 0.0023214074 0.009564732 -0.014433386 -0.034181245
0.059801202 -0.08592351 -0.038851812 -0.06309404 -0.016683968 -0.05099429 -0.08834483 0.012407371
-0.0014762993 -0.028716736 0.0054019927 0.018652102 -0.022418411 0.09773328 -0.0090564545 -0.0052827955
-0.0028935473 -0.015200708 0.015945952 -0.037655238 0.027091293 0.00083824864 0.018451527 -0.056053806
-0.059488144 0.06860569 -0.07713064 -0.065812744 0.0181751 -0.023636425 0.109331846 -0.10870576
-0.0498572 0.042966027 -0.02950625 -0.039269906 0.02280376 -0.050830454 0.024146147 -0.10253948
-0.008965143 -0.09277633 0.032203916 -0.057876818 0.009880861 -0.047685526 -0.06423168 0.09707755
-0.00882135 0.009644909 0.0049725357 -0.036955997 0.08554804 0.07761076 -0.0071228305 0.07125629
-0.056632582 -0.10439758 -0.048818666 -0.0018426707 0.04382406 -0.07960197 -0.04513183 -0.04661875
0.106189914 0.044365417 0.07301788 0.010975927 0.063549384 0.012345096 -0.08896327 -0.04549133
-0.10150094 0.018233731 -0.015074767 0.01680704 -0.06794136 0.027573429 -0.02384779 -0.0695328
-0.09788244 -0.028202169 0.02566244 -0.04417295 0.0100084515 0.03287323 0.055076025 0.028258663
00000000: fa6f 81bb 5ada bf3c 2ece 72bd 8dcc 5e3d
00000010: 26e4 83bd a850 d7ba 0308 bebd 6b60 72bd
00000020: cbea 18be 7436 1d3d a2e3 aebd 1524 53bd
00000030: 309e ef3c b602 9dbd 36a5 05bb 9e7f 7dbc
00000040: 7c49 883c 1f18 5b3c fb1b 87bd f03e 113d
00000050: 24ea 0c3d 1e76 9bbc 30d1 fcbc 7c4b da3d
00000060: 83fe c8bd 153c 473d f474 3fb9 d59f 083c
00000070: 64c5 fa3c 4d97 eab9 14b5 b9bd 4b25 39be
00000080: f0a6 8d3b 1422 a23d 2814 30bc 0fb8 24be
00000090: 239e c0bc 0ca7 0e3e 6c38 a43c 7c3b f03c
000000a0: c40b 0abc fc09 febc 13bb bc3d a3cd 133d
000000b0: beee fbbb 69c1 793d 6708 5fbd 4a17 99bd
000000c0: 1f74 3abd c81b e43c a41f 2ebc d829 53bc
000000d0: 0115 b23c 5b3b 293d b799 5fbd 80d3 6d3c
000000e0: d7e6 06bd 2f00 0b3d 7bec a13c a0d3 d43d
000000f0: 4361 75bc 91fe 4d3d c27a d23d 0187 103d
00000100: e6e8 b8bc 0690 143d 7940 7d3d 65a4 c8bd
00000110: 2595 49bd 2233 a9bd 5c26 e7bb 22b8 c93d
00000120: cd29 463d fdf3 a8bb 94ed 9a3d ac26 72bd
00000130: 1e5b debd b538 93bd 6883 27bd 528a 053e
00000140: aa1c 96bc 3fd7 cdbc 4db8 f33b 687d 95bd
00000150: 44a7 86bd 2f6f 9b3c 5f7d bb3c c025 15bd
00000160: 9b53 0cbe ac9a c83d f7c0 a8bd 6f3e 4b3d
00000170: d3fc 61bc fb4b c43c 5a85 8fbd 49ed c9bb
00000180: 6cc8 98bd b4ec dc3b af86 2e3d 9cee 96bd
00000190: a4aa 403d 0019 52bd 776c ee3b fc44 02bd
000001a0: 14e8 f03d 431a 833d 7372 8c3c ee5e 8d3d
000001b0: 6263 edbd 5801 62bd e81d 283d 5b39 883d
000001c0: 9917 083d ab28 df3d 5d57 8e3d dbd3 bb3d
000001d0: 73ab 123d d893 2a3d 4432 94bc b289 953b
000001e0: 44ab 3a3d 8a64 d4bd aa50 3f3d 67a1 b6bd
000001f0: 33ee 2abd c68c 00bd 5bdb 313c 826e 6fbd
00000200: bc29 babd 2af2 823d 1155 043c 852d 8abc
00000210: 565a 4d3d 3981 c13d 8dd0 4c3d b57a 553b
00000220: c265 f7bc ab79 d63c 01b3 bdbd 4948 41be
00000230: f603 a0bc d04d 2ebb 5323 f23c a80e 9bbd
00000240: b0ae 0a3d ea09 283d 697c 803d 82de 6ebd
00000250: 38cb e13d b196 953d c3ff 7d3c cc4b 15be
00000260: 464b 593d e497 8cbd 3063 833d 3378 bf3c
00000270: dea8 983c 791c 88bd ba26 f5bc 2aec 51bd
00000280: 1cc5 97bd 933e a33c 16b9 49bd 78ba 67bd
00000290: c122 183b 65b5 1c3c 027a 6cbc a201 0cbd
000002a0: 1bf2 743d aaf8 afbd 1423 1fbd 7337 81bd
000002b0: d1ac 88bc 63df 50bd 22ee b4bd 4948 4b3c
000002c0: 6280 c1ba 5c3f ebbc 3303 b13b 4bcc 983c
000002d0: d1a6 b7bc 6328 c83d 8661 14bc 4d1b adbb
000002e0: aba1 3dbb 640c 79bc 16a1 823c 613c 1abd
000002f0: 8fee dd3c eabd 5b3a a827 973c ad98 65bd
00000300: d7a9 73bd 2481 8c3d abf6 9dbd d5c8 86bd
00000310: f3e3 943c 2da1 c1bc 60e9 df3d 20a1 debd
00000320: 1037 4cbd 25fd 2f3d 17b7 f1bc 7bd9 20bd
00000330: f3ce ba3c 9833 50bd 24ce c53c 3800 d2bd
00000340: 89e2 12bc 8401 bebd 41e8 033d 3e10 6dbd
00000350: 56e3 213c e651 43bd e68b 83bd 98d0 c63d
00000360: 6c87 10bc ae05 1e3c a7f0 a23b 2c5f 17bd
00000370: d033 af3d 64f2 9e3d a266 e9bb d1ee 913d
00000380: 91f7 67bd 66ce d5bd 15f6 47bd c585 f1ba
00000390: dc80 333d 5c06 a3bd 27dc 38bd 4df3 3ebd
000003a0: 197a d93d 83b8 353d 668a 953d 60d4 333c
000003b0: 2e26 823d 1643 4a3c 6032 b6bd 1e55 3abd
000003c0: badf cfbd e85e 953c 28fc 76bc ebae 893c
000003d0: d724 8bbd ace1 e13c 715c c3bc 3667 8ebd
000003e0: 9776 c8bd 3c08 e7bc 0a3a d23c b2ee 34bd
000003f0: 7dfa 233c 14a6 063d 6697 613d b67e e73c

net.3.bias f4 [156]
-0.006898793 -0.09809051 -0.18393265 -0.14453244 -0.1617862 0.041122552 -0.0932925 -0.113062255
-0.10414695 0.13223533 0.10612157 0.008421182 0.037325844 -0.030175982 -0.007588572 0.026874943
-0.05739812 -0.08547941 -0.096387684 -0.06372064 0.01347019 0.113816544 -0.014173705 0.059032295
-0.06875947 0.10576362 0.056480713 -0.07929965 0.025516644 0.09117141 0.1101068 -0.046403203
-0.25861672 -0.042712353 -0.012128328 0.032237943 -0.011010181 -0.1371494 0.028999053 -0.12818705
0.11506962 0.021863285 -0.06952982 -0.15429345 -4.6876492e-05 -0.039020408 -0.10293147 0.052795175
-0.1685681 -0.015641179 0.079595424 -0.15202868 -0.18544872 -0.087526135 -0.11571104 -0.12747377
0.121363804 -0.022081334 -0.06728819 0.024600504 0.0019539092 0.10748101 -0.11666746 -0.054635327
0.081466116 0.1366675 -0.039386716 0.10119602 0.047347475 -0.0277786 -0.035483524 -0.10760355
-0.07121099 0.103537045 -0.07621661 0.047634885 -0.0511577 -0.021408914 -0.10707136 -0.1709999
-0.053059462 -0.16104709 -0.033956844 -0.07724923 0.037729487 -0.020253036 -0.093249895 -0.0022657092
0.06815359 -0.030383635 -0.02677573 -0.112673745 -0.07016482 -0.19344452 -0.012931195 -0.073737845
-0.11427372 0.14466578 -0.14086373 0.13921393 -0.008842838 -0.08163533 0.06323124 0.058622144
-0.06549357 -0.065146066 -0.0618199 -0.067745276 0.14566593 -0.045345455 -0.26489466 -0.022737512
0.0052214223 0.009931718 -0.1069815 -0.08522564 0.0006949377 0.036641553 -0.06984625 -0.030533452
-0.14561968 0.09042519 -0.033643212 -0.096931346 -0.06631634 0.036296602 -0.011878539 0.0634932
-0.048384294 -0.089801 0.016805405 -0.12756084 -0.02682359 -0.15945405 -0.052984618 -0.15650167
0.100754805 -0.062606096 -0.07128873 0.0087209055 0.03184454 0.013930957 -0.21641293 -0.02754214
-0.24617748 -0.039276645 -0.16781065 -0.10216599 -0.0034350515 0.018451462 0.14874281 -0.16066125
-0.2026782 -0.15330513 -0.17041661 -0.1369573
00000000: 450f e2bb ade3 c8bd d758 3cbe 5000 14be
00000010: 48ab 25be 1f70 283d 2310 bfbd 2f8d e7bd
00000020: ff4a d5bd b368 073e 4456 d93d fff8 093c
00000030: fce2 183d 9f33 f7bc 8ea9 f8bb d728 dc3c
00000040: 4b1a 6bbd d40f afbd e866 c5bd f87f 82bd
00000050: 12b2 5c3c a618 e93d d438 68bc d9cb 713d
00000060: c4d1 8cbd 999a d83d 5258 673d db67 a2bd
00000070: 4808 d13c 14b8 ba3d ad7f e13d 4911 3ebd
00000080: 6969 84be 26f3 2ebd e5b5 46bc ef0b 043d
00000090: 0c64 34bc e470 0cbe 6c8f ed3c 7743 03be
000000a0: 9fa9 eb3d a21a b33c a665 8ebd 1aff 1dbe
000000b0: 409d 44b8 ddd3 1fbd bccd d2bd c13f 583d
000000c0: 1e9d 2cbe ee21 80bc ed02 a33d 68ad 1bbe
000000d0: 45e6 3dbe e740 b3bd e9f9 ecbd 7c88 02be
000000e0: 968d f83d eae3 b4bc 64ce 89bd ff86 c93c
000000f0: 280d 003b 011f dc3d 59ef eebd 4bc9 5fbd
00000100: b5d7 a63d 91f2 0b3e f753 21bd dc3f cf3d
00000110: 6def 413d f28f e3bc 2c57 11bd 405f dcbd
00000120: 11d7 91bd 3b0b d43d 7417 9cbd cc1c 433d
00000130: bd8a 51bd bf61 afbc 3b48 dbbd 991a 2fbe
00000140: e154 59bd 87e9 24be 5516 0bbd d834 9ebd
00000150: 3c8a 1a3d b2e9 a5bc cdf9 bebd 4b7c 14bb
00000160: 1c94 8b3d 1ae7 f8bc c758 dbbc 7ec1 e6bd
00000170: 93b2 8fbd 5216 46be 5ddd 53bc de03 97bd
00000180: 5708 eabd 4423 143e 953e 10be 198e 0e3e
00000190: 8de1 10bc 6d30 a7bd 617f 813d c61d 703d
000001a0: 7e21 86bd 4d6b 85bd dd36 7dbd 09be 8abd
000001b0: 7329 153e 28bc 39bd 46a0 87be 0544 babc
000001c0: 7718 ab3b a5b8 223c 1e19 dbbd c88a aebd
000001d0: 7b2c 363a 7415 163d 8d0b 8fbd 4a21 fabc
000001e0: 531d 15be d830 b93d 77cd 09bd f183 c6bd
000001f0: dcd0 87bd bfab 143d 349e 42bc b908 823d
00000200: 9c2e 46bd 96e9 b7bd 7dab 893c 4f9f 02be
00000210: 25bd dbbc ec47 23be 6606 59bd f941 20be
00000220: 8958 ce3d a037 80bd d3ff 91bd 21e2 0e3c
00000230: 6c6f 023d ab3e 643c 5a9b 5dbe 0ea0 e1bc
00000240: f315 7cbe 8ce0 20bd 8ed6 2bbe 673c d1bd
00000250: 9a1e 61bb 8527 973c 0950 183e 6284 24be
00000260: e08a 4fbe 05fc 1cbe b181 2ebe 893e 0cbe

net.5.weight f4 [156]
1.1661745 1.1086369 1.1373665 1.2472403 1.1918881 1.0431117 1.1958212 1.179947
1.1453131 1.0261389 1.0510587 1.0990587 1.1465291 1.2163371 1.131831 1.1078813
1.1832571 1.1438948 1.1899061 1.1955587 1.1174501 1.0985383 1.1352627 1.269423
1.1584638 1.1180108 1.1404915 1.1030284 1.0487287 1.1585532 1.0304645 1.1315606
1.2385386 1.1250638 1.0493678 1.0847585 1.142199 1.1258248 1.0892296 1.1465999
1.0423087 1.1334872 1.1362747 1.1227702 1.1219218 1.1623657 1.0753925 1.1599833
1.1683706 1.1278707 1.0467646 1.134294 1.1439089 1.177038 1.1781304 1.1820843
1.08916 1.1507038 1.1603217 1.1140251 1.048952 1.1353241 1.1374342 1.1132232
1.0158069 1.0497259 1.1525314 1.0757446 1.0893607 1.1444422 1.1620905 1.165844
1.1591225 1.0955762 1.1944244 1.0538924 1.1140752 1.1381981 1.1189835 1.1357486
1.149604 1.2196412 1.1356559 1.171964 1.113279 1.1412196 1.1346672 1.2121732
1.1341102 1.0256798 1.1326771 1.2168624 1.177377 1.1762226 1.1300755 1.1246134
1.2226858 1.0807073 1.1523668 1.0015118 1.1224543 1.1499269 1.1216117 1.1152284
1.1842453 1.1930463 1.13951 1.169222 1.0832812 1.1339015 1.2221314 1.0764093
1.1213583 1.1705167 1.1847675 1.2831244 1.1052397 1.204276 1.2158004 1.1186265
1.0868502 1.0852084 1.1538435 1.1599132 1.1662287 1.125469 1.0489236 1.0778849
1.1790699 1.242496 1.1061575 1.2034575 1.0597177 1.2086421 1.1322414 1.1323968
1.0689125 1.1397849 1.1271211 1.2684008 1.149755 1.0686374 1.2071872 1.160268
1.2043533 1.0375693 1.2856739 1.3259325 1.0775534 1.1325876 1.0590161 1.1864148
1.2025617 1.2357843 1.1366254 1.1530067
00000000: 3545 953f d0e7 8d3f 3a95 913f 92a5 9f3f
00000010: ca8f 983f af84 853f ab10 993f 8108 973f
00000020: 9f99 923f 8558 833f 1789 863f f5ad 8c3f
00000030: 77c1 923f efb0 9b3f d7df 903f 0ecf 8d3f
00000040: f874 973f 256b 923f d84e 983f 1108 993f
00000050: 9b08 8f3f e79c 8c3f 4a50 913f 747c a23f
00000060: 8b48 943f fa1a 8f3f a0fb 913f 0930 8d3f
00000070: be3c 863f 794b 943f 43e6 833f fad6 903f
00000080: 6f88 9e3f 1702 903f af51 863f 5ed9 8a3f
00000090: 9433 923f 071b 903f e06b 8b3f c9c3 923f
000000a0: 5f6a 853f 1c16 913f 7371 913f efb6 8f3f
000000b0: 229b 8f3f 66c8 943f 76a6 893f 557a 943f
000000c0: 2b8d 953f 115e 903f 62fc 853f 8c30 913f
000000d0: 9b6b 923f 2ea9 963f facc 963f 8a4e 973f
000000e0: 9869 8b3f 434a 933f 6c85 943f 6098 8e3f
000000f0: 0f44 863f 4d52 913f 7297 913f 197e 8e3f
00000100: f605 823f 6b5d 863f 2686 933f 00b2 893f
00000110: 2c70 8b3f 157d 923f 62bf 943f 603a 953f
00000120: 205e 943f d73b 8c3f e6e2 983f f2e5 863f
00000130: 049a 8e3f 7ab0 913f da3a 8f3f 3660 913f
00000140: 3926 933f 341d 9c3f 2c5d 913f eb02 963f
00000150: ed7f 8e3f 7c13 923f c63c 913f 7e28 9b3f
00000160: 862a 913f 7a49 833f 90fb 903f 26c2 9b3f
00000170: 4ab4 963f 768e 963f 50a6 903f 55f3 8f3f
00000180: f880 9c3f 9e54 8a3f c180 933f 8a31 803f
00000190: 95ac 8f3f ce30 933f f990 8f3f cebf 8e3f
000001a0: 5a95 973f beb5 983f 77db 913f 11a9 953f
000001b0: f5a8 8a3f af23 913f cd6e 9c3f c8c7 893f
000001c0: ab88 8f3f 7ed3 953f 76a6 973f 6c3d a43f
000001d0: 7f78 8d3f b725 9a3f 599f 9b3f 272f 8f3f
000001e0: e81d 8b3f 1ce8 8a3f 25b1 933f 0978 943f
000001f0: fb46 953f 5e0f 903f 2143 863f 22f8 893f
00000200: c3eb 963f 1c0a 9f3f 9296 8d3f e50a 9a3f
00000210: d4a4 873f c9b4 9a3f 49ed 903f 61f2 903f
00000220: 20d2 883f 79e4 913f 8145 903f f55a a23f
00000230: 2c2b 933f 1cc9 883f 1c85 9a3f a983 943f
00000240: 4028 9a3f 12cf 843f f690 a43f 28b8 a93f
00000250: 45ed 893f a1f8 903f d78d 873f 71dc 973f
00000260: 8bed 993f 2e2e 9e3f f17c 913f b995 933f

net.5.bias f4 [156]
-0.25366697 -0.14194886 -0.17292592 -0.25370425 -0.21489578 0.16568634 -0.20074162 -0.22275347
-0.16309793 0.12023305 0.23101506 0.18486892 0.15619595 0.17236103 0.14102975 -0.17049536
0.16686375 -0.18223517 -0.28069392 -0.2585984 -0.26498246 0.12730967 -0.18657796 0.21467349
-0.19643667 0.14123529 0.14463556 0.18330902 0.13790388 0.19607498 0.13202965 -0.18703313
-0.26087254 -0.2344666 0.1308541 0.14609684 -0.260127 -0.14755304 0.12842977 -0.17156416
0.13406631 0.13602649 -0.16068774 -0.18471204 0.16326821 0.20582294 -0.1462323 0.16478121
-0.18305276 -0.15891327 0.1307852 -0.146778 -0.21781185 -0.24557453 -0.02618531 -0.16633625
0.1723996 0.16993092 -0.1960915 0.13524199 0.16348565 0.13867903 -0.15156735 -0.1414453
0.13145912 0.13517377 -0.22180448 0.1264874 0.13230708 0.23114538 0.14672914 -0.22525659
0.180279 0.147921 -0.22789562 0.22714679 -0.1840434 0.2615572 -0.16174632 -0.16369936
-0.17467016 0.32361376 -0.15383859 -0.17188744 -0.16263142 -0.174545 -0.14652964 0.11646079
0.15851143 0.146075 0.1509036 -0.20407695 -0.15872565 -0.21583524 -0.26734862 -0.17159314
-0.1550462 0.141191 -0.20837061 0.09948034 -0.17194737 -0.20793764 0.17382193 0.16472146
0.23042086 -0.114828594 -0.17339395 -0.19271798 0.12981872 -0.15972376 0.29976586 0.1574863
0.20194717 0.16587241 -0.21835129 0.25153962 -0.054730635 -0.13121586 0.23777461 -0.14478485
0.35836783 0.14848715 -0.15908489 -0.12900306 -0.29576617 0.14002083 0.14378116 0.1701668
0.2096738 0.16453384 0.11402209 -0.23359008 0.2012623 -0.21732743 -0.1935536 -0.15881419
0.13712062 -0.16930807 -0.15707338 0.20889774 0.25060594 0.14186181 -0.28503498 0.13899885
-0.2517023 0.12297243 0.1287792 0.31569013 0.17255163 0.1622142 0.14113091 -0.35354
-0.21556032 -0.17903502 -0.15157692 -0.19626422
00000000: a3e0 81be 0b5b 11be 7e13 31be 86e5 81be
00000010: a40d 5cbe aea9 293e 368f 4dbe 7c19 64be
00000020: 2503 27be bf3c f63d 368f 6c3e 474e 3d3e
00000030: d5f1 1f3e 697f 303e 1a6a 103e 5696 2ebe
00000040: 55de 2a3e db9b 3abe 1db7 8fbe 0267 84be
00000050: c8ab 87be 775d 023e 4b0e 3fbe 5ed3 5b3e
00000060: b226 49be fc9f 103e 581b 143e 5cb5 3b3e
00000070: ad36 0d3e e1c7 483e c832 073e 9d85 3fbe
00000080: 1691 85be 0318 70be 9efe 053e 699a 153e
00000090: 5e2f 85be 2518 17be 1883 033e 84ae 2fbe
000000a0: ae48 093e 874a 0b3e 548b 24be 2725 3dbe
000000b0: c82f 273e 40c3 523e ecbd 15be 68bc 283e
000000c0: 2f72 3bbe 29ba 22be 8eec 053e f94c 16be
000000d0: 120a 5fbe e477 7bbe 9382 d6bc 0d54 2abe
000000e0: 8589 303e 5f02 2e3e 36cc 48be e07c 0a3e
000000f0: c868 273e e001 0e3e 7934 1bbe 09d7 10be
00000100: 389d 063e fe6a 0a3e b720 63be ea85 013e
00000110: 827b 073e 60b1 6c3e 2a40 163e aaa9 66be
00000120: 0f9b 383e 9a78 173e 785d 69be 2b99 683e
00000130: e075 3cbe d3ea 853e d4a0 25be cea0 27be
00000140: bcdc 32be b4b0 a53e dd87 1dbe 4303 30be
00000150: da88 26be edbb 32be de0b 16be ff82 ee3d
00000160: d250 223e af94 153e 7986 1a3e 8cf9 50be
00000170: fa88 22be ea03 5dbe ebe1 88be 1db6 2fbe
00000180: 6ec4 1ebe 6094 103e 1b5f 55be 59bc cb3d
00000190: f912 30be 9bed 54be 60fe 313e beac 283e
000001a0: 72f3 6b3e 412b ebbd 2f8e 31be dd57 45be
000001b0: 33ef 043e a08e 23be e97a 993e 1744 213e
000001c0: 3dcb 4e3e 75da 293e 7b97 5fbe cdc9 803e
000001d0: 3b2d 60bd 735d 06be 307b 733e 7b42 14be
000001e0: fd7b b73e 040d 183e 26e7 22be 6119 04be
000001f0: aa6e 97be 9f61 0f3e 5e3b 133e 3540 2e3e
00000200: bbb4 563e 8f7b 283e 6a84 e93d 3d32 6fbe
00000210: b417 4e3e 158b 5ebe ea32 46be 30a0 22be
00000220: 5969 0c3e 185f 2dbe d8d7 20be 4ae9 553e
00000230: 6c4f 803e 3944 113e 1bf0 91be b755 0e3e
00000240: 20df 80be f8d8 fb3d b2de 033e 23a2 a13e
00000250: 60b1 303e 7b1b 263e 9f84 103e 3203 b5be
00000260: d8bb 5cbe f554 37be fb36 1bbe 7df9 48be

net.5.running_mean f4 [156]
0.4464147 0.17625874 0.050669942 0.12205911 0.1158624 0.3982211 0.24679464 0.04861619
0.13680111 0.7660582 0.39831966 0.46488303 0.56169295 0.27544907 0.4143114 0.2884772
0.20188321 0.17636989 0.1785154 0.294929 0.29411796 0.41849074 0.17802984 0.34343445
0.28540847 0.32000032 0.4248506 0.25635403 0.39394483 0.32540426 0.2886643 0.2055998
0.025789587 0.25288406 0.46697912 0.8492813 0.18869065 0.11180472 0.49092194 0.03291771
0.5308155 0.2429728 0.1934439 0.15036362 0.38667813 0.3566739 0.29302996 0.2936038
0.19121352 0.19110483 0.44293207 0.14002968 0.23750974 0.17158541 0.0430794 0.094536826
0.39035317 0.36052197 0.17117612 0.5361294 0.4087389 0.5244231 0.18949509 0.20463717
0.5072481 0.59600544 0.22556067 0.45983028 0.3559334 0.2799846 0.28039867 0.23971768
0.2502967 0.45438662 0.1058369 0.40436852 0.21876222 0.37805986 0.31133464 0.11141339
0.20776866 0.11319572 0.19068779 0.091498435 0.2880248 0.22488327 0.23173347 0.31023327
0.45511514 0.36193264 0.3150365 0.18387203 0.12818602 0.03871087 0.28866008 0.2671049
0.093780324 0.5726809 0.19673476 0.88199383 0.1979578 0.10854312 0.38740999 0.34404987
0.33680916 0.3321582 0.20370862 0.16760945 0.5049381 0.14834757 0.07352628 0.568765
0.3713146 0.47160003 0.16687083 0.07200521 0.4519167 0.2891109 0.13886945 0.115522586
0.23210058 0.46599928 0.13489515 0.12770374 0.26854464 0.34920242 0.46478707 0.8872078
0.24444515 0.15177915 0.19479218 0.18180129 0.3372527 0.13740434 0.3043225 0.15102932
0.28322846 0.24408025 0.20458904 0.16012973 0.511549 0.42003152 0.035429977 0.28886658
0.019148458 0.38268438 0.038638495 0.124099456 0.20626085 0.6912546 0.51242614 0.2083725
0.118618324 0.1274796 0.081001155 0.13159175
00000000: 7890 e43e 2c7d 343e 498b 4f3d 20fa f93d
00000010: 4449 ed3d a3e3 cb3e bcb7 7c3e c521 473d
00000020: 9715 0c3e 641c 443f 8ef0 cb3e 2605 ee3e
00000030: 1ccb 0f3f a907 8d3e a020 d43e 49b3 933e
00000040: 79ba 4e3e 4f9a 343e becc 363e ef00 973e
00000050: a196 963e 6b44 d63e 744d 363e a4d6 af3e
00000060: 0f21 923e 15d7 a33e 0586 d93e d640 833e
00000070: 23b3 c93e 639b a63e cfcb 933e c188 523e
00000080: af44 d33c 057a 813e e317 ef3e 806a 593f
00000090: 1f38 413e dff9 e43d 1f5a fb3e b8d4 063d
000000a0: 86e3 073f ddcd 783e 2816 463e ecf8 193e
000000b0: adfa c53e f69d b63e 0608 963e 3d53 963e
000000c0: 7acd 433e fcb0 433e fec7 e23e f163 0f3e
000000d0: c135 733e 16b4 2f3e 0674 303d 869c c13d
000000e0: 5fdc c73e 5696 b83e cb48 2f3e c73f 093f
000000f0: 3a46 d13e 9840 063f 000b 423e 688c 513e
00000100: 03db 013f d093 183f 60f9 663e e06e eb3e
00000110: e73c b63e 245a 8f3e 6a90 8f3e 8d78 753e
00000120: e426 803e 5da5 e83e 04c1 d83d 6409 cf3e
00000130: 3403 603e 1091 c13e 4167 9f3e b42c e43d
00000140: 4fc1 543e 28d3 e73d a943 433e 8863 bb3d
00000150: fd77 933e cd47 663e 8a4b 6d3e e5d6 9e3e
00000160: da04 e93e 3c4f b93e 774c a13e f348 3c3e
00000170: 3243 033e 4a8f 1e3d 41cb 933e f9c1 883e
00000180: e60f c03d 379b 123f d674 493e 59ca 613f
00000190: 73b5 4a3e db4b de3d 9a5a c63e 4e27 b03e
000001a0: 4072 ac3e a410 aa3e fe98 503e d0a1 2b3e
000001b0: a043 013f 6de8 173e f294 963d 959a 113f
000001c0: f21c be3e 8f75 f13e 30e0 2a3e 7877 933d
000001d0: a061 e73e 5806 943e cb33 0e3e 1b97 ec3d
000001e0: c6ab 6d3e 7597 ee3e f421 0a3e c5c4 023e
000001f0: af7e 893e a9ca b23e 92f8 ed3e 0d20 633f
00000200: d44f 7a3e fe6b 1b3e 9a77 473e 1e2a 3a3e
00000210: 63ac ac3e b9b3 0c3e 29d0 9b3e 6ea7 1a3e
00000220: 5203 913e 2cf0 793e ca7f 513e 0cf9 233e
00000230: e0f4 023f 5f0e d73e 061f 113d 52e6 933e
00000240: 3add 9c3c 35ef c33e 6643 1e3d db27 fe3d
00000250: 0b36 533e 10f6 303f 5c2e 033f 9a5f 553e
00000260: 2aee f23d 038a 023e efe3 a53d fdbf 063e

net.5.running_var f4 [156]
1.3130044 0.4569536 0.054109033 0.19598533 0.19687736 0.2552838 0.4163491 0.04307237
0.28805524 0.8825298 0.3390357 0.36916766 0.57875735 0.1463325 0.18560785 0.4792233
0.23008925 0.35984322 0.21090569 0.717505 0.7051261 0.178585 0.38505954 0.14653057
0.8597407 0.11952683 0.12917466 0.16097356 0.20588055 0.12249519 0.11740476 0.41351303
0.008245527 0.5764317 0.40529746 0.35667473 0.582307 0.19867437 0.1849993 0.024800925
0.20290785 0.08318453 0.52182513 0.3505306 0.1581979 0.13300046 0.21990223 0.09543619
0.46872273 0.2819429 0.57321835 0.2699439 0.110833116 0.3252873 0.016674552 0.14626755
0.15795048 0.12077691 0.2814196 0.485311 0.41341713 0.3758633 0.44917408 0.3915841
0.5909693 0.57775104 0.67099726 0.16331027 0.23886654 0.13543351 0.11636528 0.6122795
0.07229597 0.19928788 0.062182 0.53948134 0.606763 0.25136697 1.0458078 0.18983439
0.57361674 0.07224711 0.37621263 0.07882754 0.7502394 0.24390045 0.65394384 0.090442255
0.21017794 0.3358633 0.2993635 0.17478769 0.2553432 0.040746763 0.8277463 0.42803946
0.13883184 0.30299583 0.43294498 1.1753895 0.57295275 0.1930693 0.15804347 0.13145779
0.1404508 0.15449844 0.51777816 0.3296244 0.18429488 0.3280388 0.050694924 0.6516708
0.16354144 0.47414193 0.35887396 0.029946053 0.1561512 0.12523144 0.107652605 0.17038366
0.18861705 0.31413713 0.2814831 0.08044923 0.9232502 0.17457482 0.18159929 1.2397721
0.18415646 0.06809499 0.124337725 0.33069244 0.3097695 0.32860622 1.0999246 0.3565051
0.1086116 0.7675001 0.41744056 0.15406404 0.37319297 0.15123092 0.01656558 0.15797402
0.011522763 0.41580245 0.015633026 0.036292087 0.0683714 0.68716496 0.21901836 0.5721703
0.20789598 0.24040706 0.15140899 0.23481935
00000000: 8710 a83f d2f5 e93e 6fa1 5d3d 61b0 483e
00000010: 389a 493e 8fb4 823e b62b d53e a76c 303d
00000020: fa7b 933e 79ed 613f 1696 ad3e 8b03 bd3e
00000030: 7129 143f 30d8 153e fc0f 3e3e c25c f53e
00000040: 849c 6b3e 5f3d b83e a9f7 573e 68ae 373f
00000050: 2583 343f fcde 363e 8626 c53e 1c0c 163e
00000060: f717 5c3f 7cca f43d 5d46 043e 41d6 243e
00000070: 5ad2 523e c2de fa3d e871 f03d fbb7 d33e
00000080: 3f18 073c 0791 133f 2683 cf3e 129e b63e
00000090: 1212 153f 4b71 4b3e 7570 3d3e 4f2b cb3c
000000a0: 13c7 4f3e a75c aa3d 5596 053f bf78 b33e
000000b0: a1fe 213e 4631 083e 0d2e 613e 0d74 c33d
000000c0: 6dfc ef3e d25a 903e 70be 123f 1636 8a3e
000000d0: 79fc e23d 0f8c a63e 1299 883c 29c7 153e
000000e0: c5bd 213e e259 f73d 3b16 903e af7a f83e
000000f0: 69ab d33e 2871 c03e 25fa e53e b67d c83e
00000100: c449 173f 7ee7 133f 7ac6 2b3f cf3a 273e
00000110: 6e99 743e 15af 0a3e eb50 ee3d 59be 1c3f
00000120: e90f 943d 1f12 4c3e 8eb2 7e3d 731b 0a3f
00000130: d254 1b3f 2cb3 803e 08dd 853f f263 423e
00000140: 8cd8 123f 4bf6 933d f19e c03e 5570 a13d
00000150: b00f 403f 0ac1 793e dd68 273f ca39 b93d
00000160: e338 573e 46f6 ab3e 2c46 993e 8bfb 323e
00000170: 58bc 823e 14e6 263d 2ee7 533f fd27 db3e
00000180: ef29 0e3e 4522 9b3e f7aa dd3e 2a73 963f
00000190: 08ad 123f f5b3 453e 26d6 213e df9c 063e
000001a0: 56d2 0f3e d734 1e3e 1c8d 043f 88c4 a83e
000001b0: ccb7 3c3e b4f4 a73e 7ba5 4f3d e6d3 263f
000001c0: 6877 273e bbc2 f23e 54be b73e 6d51 f53c
000001d0: 1ae6 1f3e ac3c 003e f878 dc3d 0e79 2e3e
000001e0: d424 413e 95d6 a03e 8e1e 903e 91c2 a43d
000001f0: 205a 6c3f bec3 323e 2af5 393e dab0 9e3f
00000200: 8393 3c3e 6375 8b3d c7a4 fe3d 8550 a93e
00000210: 1c9a 9e3e 133f a83e 54ca 8c3f d687 b63e
00000220: c26f de3d e37a 443f c5ba d53e f7c2 1d3e
00000230: 2613 bf3e 47dc 1a3e 8ab4 873c f1c3 213e
00000240: f9c9 3c3c 0fe4 d43e d510 803c 03a7 143d
00000250: 4e06 8c3d 0bea 2f3f 5946 603e c179 123f
00000260: afe2 543e 452d 763e f50a 1b3e 7c74 703e
