artifacts/mlp.pt (torch, 164763 bytes, 14 tensors)

net.0.weight f4 [156, 78]
000000 8c 85 19 3e 21 f7 ec 3d 11 28 7c bd 34 45 92 3d
       0.1499235 0.115705736 -0.061561648 0.07142106
000010 38 1b 8b bc d3 fa 08 bc 77 74 84 bd e4 f8 f3 3c
       -0.016980752 -0.008360582 -0.064675264 0.029781766
000020 23 64 e2 3d 8d 56 31 bd 9b d4 ee 3d db e4 a9 3d
       0.11054256 -0.043295432 0.11661645 0.08295604
000030 cf 2e d8 3d 3c 48 cd 3c 38 66 03 3e cb e7 8e bd
       0.10555803 0.025058858 0.12831962 -0.06977805
000040 78 63 cd 3d 4e 40 c9 3c 5f 18 3a bd 6e a3 67 3c
       0.10028738 0.024566796 -0.0454334 0.014138086
000050 21 7d 03 bd f8 7e 83 3c 22 96 8b bd e3 fa a5 3d
       -0.032101754 0.016051754 -0.06815745 0.081044935
000060 9c 34 27 bd 53 26 20 bd ea 37 99 bd 1c 63 36 bd
       -0.040821657 -0.03909905 -0.07481368 -0.04452811
000070 54 2e 1d 3c 64 43 46 be a8 fc ce 3d c5 fb c4 bd
       0.009593565 -0.19361645 0.10106784 -0.09618334
000080 13 d7 23 3e 2d 5d 9a 3c df 33 78 bd 99 95 04 3d
       0.16000013 0.018843258 -0.060596343 0.03236923
000090 2c cf 33 bd fd 52 56 3d 05 2f c0 3d 11 4b 80 bc
       -0.043898746 0.052325238 0.09383968 -0.015660794
0000a0 a0 a1 9e 3d 61 9d cc bb de 73 86 3d 9e 1c e0 3d
       0.07745671 -0.006244347 0.06565069 0.10942958
0000b0 71 9c 83 3d cd 0a 51 3d da b4 6e 3d 07 31 92 3a
       0.06426323 0.05103569 0.058277942 0.0011153527
0000c0 54 9c 8f 3d 6b 21 6a 3b 16 39 3d bc 5e 46 d3 3c
       0.07012239 0.0035725485 -0.011549255 0.02579039
0000d0 a3 89 0e bd b3 3e d4 3d e5 4d 5f 3d b5 fc bc 3c
       -0.03479923 0.103635214 0.054517645 0.023069719
0000e0 02 ad 12 3d 2f 16 01 bb b3 7a b5 3d e0 c2 a4 bd
       0.035809524 -0.001969706 0.08861294 -0.08044982
0000f0 62 9c e9 3b 44 46 9e bd f4 b0 fe b8 6d 4f ff bc
       0.007129238 -0.07728246 -0.00012144624 -0.031165803
000100 3d db 09 3b b8 7b 60 bd 64 42 26 3d 69 3d 09 be
       0.0021035217 -0.054805487 0.04059066 -0.13402332
000110 1a a3 97 bd 08 17 04 be dc 99 1f 3e 1f ed c6 3c
       -0.07404156 -0.1289941 0.15586036 0.02428299
000120 9a 52 1f 3e d5 fd 5f bd 87 d7 08 be 9e a2 8b bc
       0.15558854 -0.054685432 -0.13363467 -0.017045315
000130 8a e2 a9 bd 60 32 db 3b 11 4c 7a 3d 00 81 90 3d
       -0.08295162 0.006689355 0.0611077 0.07055855
000140 7e f7 2e bf 88 f7 9c bc 73 4e 82 3d 43 13 87 3c
       -0.68346393 -0.019161 0.06362619 0.016488677
000150 c7 7e 7c 3d a6 fb 83 bd 12 cd a7 3d d7 47 d4 bd
       0.06164434 -0.064444825 0.08193411 -0.10365265
000160 5c 6c 91 bd 28 8b 0a bc ae 9c 96 3b 9a 5a 57 bd
       -0.07100746 -0.008456029 0.0045963144 -0.05257664
000170 78 9f 28 3d 55 1b de 3c 89 e4 72 be 9d 40 76 be
       0.041167706 0.027112642 -0.23719992 -0.24048086
000180 fe 59 bb bc f8 9b b4 3d 40 b6 90 bd ff 44 2a be
       -0.02287006 0.08818811 -0.070660114 -0.16627882
000190 d2 b0 9c be c2 30 d0 bd b1 c8 0f 3e 2a 3f 43 3d
       -0.30603653 -0.1016555 0.14041401 0.04766766
0001a0 3c 39 0d 3e ad 40 0d bb f7 8d 0c 3d d8 69 cc 3d
       0.13791364 -0.0021553442 0.034315076 0.099811256
0001b0 02 61 ab bd 45 a7 93 bd 71 00 c7 3d 70 31 af 3c
       -0.08368112 -0.072096385 0.09716881 0.021385878
0001c0 f6 58 e7 3b ee fe d5 bd 1b 32 30 bd 00 72 b2 bd
       0.0070601655 -0.104490146 -0.043016534 -0.0871315
0001d0 24 92 d0 bc 11 fd ac bd 2e e4 61 bd b1 35 77 bd
       -0.02546031 -0.08446706 -0.05514925 -0.06035394
0001e0 1b d5 b0 3d ae 51 a6 bc 12 16 f8 3b 9f 23 c6 bd
       0.08634397 -0.02030262 0.0075709904 -0.09674763
0001f0 ee 03 68 bd d3 83 83 bd a9 2c ae bb 13 d3 d7 bd
       -0.056644373 -0.06421628 -0.0053153825 -0.10538306
000200 01 6e 99 3d a8 f3 29 3c 7d 96 da 3d c8 cd 56 3d
       0.07491685 0.010373034 0.106732346 0.052442342
000210 6e f9 eb bd af f3 4e 3d b5 36 ff bc 7b c7 31 bd
       -0.11522184 0.050525364 -0.031154016 -0.04340313
000220 3e 7c c0 bd 47 89 e6 bd 4d b1 04 3d be 9e ca bc
       -0.09398697 -0.11256652 0.03239565 -0.024733897
000230 72 b6 14 bf 7c 08 b7 bd 5b 80 11 3e 12 e2 aa bc
       -0.5809089 -0.08937165 0.1420912 -0.020859752
000240 a2 e2 86 3b 97 7e de 3b 90 1a 55 bf f2 e8 b2 3d
       0.004116372 0.006789993 -0.83243656 0.08735837
000250 9b be 5c 3d 28 a5 80 bd fe 77 13 bc bc 78 c4 bd
       0.053892713 -0.06281501 -0.009000776 -0.09593341
000260 60 c5 11 3d 9e 2d 59 3c e0 91 1f 3e 59 3c 29 bd
       0.035588622 0.013255505 0.1558299 -0.041317318
000270 b8 a1 d7 3d 35 2f 5c 3c 62 73 d1 bb b1 8c c2 bd
       0.10528892 0.013438989 -0.0063919285 -0.09499491
000280 e9 e8 c7 3d 19 9d 7b ba 59 71 4a bc 66 d0 eb bd
       0.09761221 -0.00095982995 -0.012356126 -0.11514358
000290 80 46 16 3d d9 77 1c bd a0 11 c2 bc df 63 bf 3d
       0.036688328 -0.038200233 -0.023690045 0.09345221
0002a0 3c aa 32 3d ea 87 c6 bd 86 f7 5c bd d7 a0 28 bd
       0.04361938 -0.09693892 -0.053946994 -0.041169014
0002b0 f4 30 61 3d 94 3b aa bd 4a 3a fc bd 39 c0 c2 3d
       0.054978326 -0.08312145 -0.12315805 0.0950932
0002c0 b4 be d7 bd 15 40 f2 3c 71 83 47 3d 79 ed 25 be
       -0.105344206 0.029571572 0.048709337 -0.1620387
0002d0 96 19 30 3c e1 cf 20 3d 9f 27 70 3c de d7 a0 bc
       0.010748288 0.03926075 0.014657884 -0.019634183
0002e0 94 6e 24 3d 6d 04 3e 3d 71 91 6c 3b 0d fe a2 bc
       0.040144518 0.04639094 0.0036097432 -0.019896531
0002f0 67 bd 1d bd 76 76 46 3c bc fa f1 bc d1 96 1a bd
       -0.038510706 0.012113204 -0.029538505 -0.037741486
000300 14 5e 5e 3d 91 8c 90 3d d3 e9 d7 bc bd 5f 35 bb
       0.05428894 0.07058061 -0.026356613 -0.0027675473
000310 18 96 ea 3c da 68 0f bc c5 33 29 3c bd 48 f0 3c
       0.028636023 -0.008753026 0.010327284 0.02933156
000320 8a f7 10 be 76 17 4e bd 15 80 11 3e 34 ba 42 3c
       -0.14156929 -0.050315343 0.14209016 0.011885215
000330 36 3e d7 3a e7 45 9d bd 55 57 9f bd 8e 69 4c be
       0.0016421739 -0.076793484 -0.07780329 -0.19962141
000340 d3 a8 74 bc 86 69 e0 3c b8 7d b9 3d be 10 2f 3d
       -0.014932829 0.027394067 0.09057182 0.042740576
000350 63 fa cc bd 3d 73 8b bd 77 62 92 bc aa 51 e0 3d
       -0.10008695 -0.06809089 -0.017869217 0.10953076
000360 bf 2d 86 3c 14 36 f0 bc 09 bd 6f 3b 22 61 46 bd
       0.016379235 -0.029322661 0.003658118 -0.048432477
000370 74 45 db bd 79 b4 68 3d 4b 61 36 bd 13 da 06 bd
       -0.107066065 0.056812737 -0.04452638 -0.032922816
000380 59 8b 8c be fd 47 ae 3d 3d 4d 43 3d 8f 0d 93 3c
       -0.27450064 0.085098244 0.047681082 0.017950801
000390 0c 73 02 be c0 1f 11 be 48 41 b4 bd b7 47 44 3d
       -0.127392 -0.14172268 -0.08801514 0.047919955
0003a0 a2 be 56 3d 75 0e e3 3d 0e b8 91 3c e1 04 8e bb
       0.052427895 0.11086742 0.01778796 -0.0043340777
0003b0 a1 ee f3 bd 5d c9 22 3d 8c d5 ed bd 24 5e 57 bd
       -0.11910749 0.039742816 -0.116129965 -0.052580014
0003c0 46 d8 9e 3d cc 25 ab bd 97 f2 88 bd 5a 36 4c bd
       0.07756095 -0.083568186 -0.06686895 -0.04985652
0003d0 d6 e6 3f ba b1 9d 9a bd 83 87 86 bd 09 dd bd 3c
       -0.0007320469 -0.075496085 -0.065688156 0.023176687
0003e0 a5 9a 9e bd 63 ef bd 3a 6d 74 df bd b8 37 16 be
       -0.0774434 0.0014490898 -0.10910878 -0.14669693
0003f0 8c 7f 33 bd 48 cc a2 bd 0b 28 8d bd 1e a8 f4 bd
       -0.04382281 -0.0794912 -0.06892403 -0.11946128

net.0.bias f4 [156]
000000 1e 44 f8 bd cc b3 08 be 57 b2 7e bd 56 3b 9c bd
       -0.12122367 -0.13349837 -0.062181797 -0.07628505
000010 9e 46 25 bd b2 91 ee bd dc 5a ba bc c7 c4 46 bc
       -0.04035055 -0.11648883 -0.022748403 -0.012131876
000020 49 cb 1b bb c9 a5 51 3d cc d8 74 bd a0 eb 95 3d
       -0.002377229 0.051183496 -0.059777066 0.073203325
000030 92 d2 ff bd 52 34 d5 bd f3 61 ed bc 97 af 0f be
       -0.12491335 -0.1041037 -0.02897737 -0.14031826
000040 64 c3 cc 3c 35 e2 26 be 5e e2 be bd 79 f0 d6 bd
       0.024995513 -0.16297229 -0.0932052 -0.10495085
000050 d1 9b 1a bd 60 41 e8 bb dd 6b 10 3d e2 70 a1 bd
       -0.037746254 -0.0070878714 0.035259116 -0.07882859
000060 48 8c 78 bc 0c e3 81 bd 0d 5c c5 bd f6 d1 54 bd
       -0.015170164 -0.06342134 -0.09636698 -0.051958047
000070 73 b5 11 bb 63 04 8c 3d fc aa ba 3d 95 4c 38 3d
       -0.0022233396 0.06836774 0.09114644 0.04499491
000080 31 4a a9 bd d0 cf f0 bd b2 e4 47 be 81 85 b3 3d
       -0.08266104 -0.11758387 -0.19520834 0.08765698
000090 ac 06 e3 3c b0 0f 91 bd d6 2c 84 3d 1c db 3f be
       0.027713142 -0.0708307 0.06453864 -0.18735927
0000a0 8d db 5d bc 6e 4e ce bc 22 52 1d bd b7 63 c9 3d
       -0.0135411145 -0.025183883 -0.038408406 0.09833472
0000b0 2b 64 de bd 85 ae 18 bc 87 00 17 3e 49 c1 48 3c
       -0.10858949 -0.009318952 0.14746295 0.012253114
0000c0 52 3e ef bd 79 12 a5 3c 9f 60 35 bd 2e 24 93 bd
       -0.116818085 0.02015041 -0.0442816 -0.07184635
0000d0 f8 0e 40 3d c5 73 c2 be 03 fd 17 bd 5b e8 0a be
       0.046889275 -0.3797895 -0.037106525 -0.13565199
0000e0 70 3b b3 bd c1 c5 8c 3d 2e a0 c8 bd d7 2c ad bd
       -0.08751571 0.06873656 -0.09796177 -0.08455818
0000f0 2d 2f 07 be 08 ad 31 be 84 e3 ce 3d 5b fa f5 bd
       -0.1320159 -0.17351162 0.10101989 -0.12010642
000100 d2 d0 a0 bd f6 fa f0 bd 81 13 b9 bd 9f f8 22 3c
       -0.07852329 -0.11766617 -0.09036923 0.009946971
000110 ed e8 c0 3d 69 c3 3a bd 0f c7 a6 bd 6a f1 00 be
       0.09419427 -0.045596514 -0.08143436 -0.12592092
000120 75 39 a4 bd 0c 09 f6 3c 2f b6 9b bd 2b 11 00 bd
       -0.080187716 0.03003361 -0.07603108 -0.031266373
000130 e4 e0 36 be 7c 39 ed bd 8f 04 cc 3b bf 1c e3 bd
       -0.17859226 -0.1158323 0.0062261294 -0.11089467
000140 0c d0 58 bd 89 fa ee 3b 9b 4e 7e bc 2f 63 80 bd
       -0.052932784 0.0072930497 -0.015521671 -0.06268918
000150 1e b9 a5 bd ce 35 2d bd d2 45 c0 3d aa 33 bc bd
       -0.08091949 -0.04228764 0.09388317 -0.09189542
000160 64 c1 6c bd 43 16 3d bd 29 81 3e 3d a4 c9 30 3d
       -0.05780162 -0.04616381 0.046509895 0.04316105
000170 b5 16 f9 bd 8c a7 d0 bd fc 44 df 3c 01 ca f3 bd
       -0.12162534 -0.10188207 0.027254574 -0.119037636
000180 f6 7b df bd 3c 37 02 3d 4b ac 7a bd 00 39 5e be
       -0.109123155 0.031790957 -0.061199468 -0.21701431
000190 6d d7 73 3b ae 4f 20 3d 90 d7 eb bd 9a 00 e8 bd
       0.0037207261 0.03913849 -0.11515725 -0.1132824
0001a0 78 bf 28 be d7 a6 0c be 27 b9 87 3d b0 4c 1f bd
       -0.1647929 -0.1373552 0.06627112 -0.038891494
0001b0 2b 3c b8 bd 87 b5 b3 bc 53 28 47 be d0 94 b2 bd
       -0.08995851 -0.021937145 -0.19448976 -0.0871979
0001c0 21 e4 59 bd ed 06 fe 3b ab 37 68 3b 63 5e 88 be
       -0.053196076 0.0077522905 0.0035433571 -0.2663451
0001d0 d3 32 aa 39 ec be 76 bd 43 e7 d8 bd cc ea 47 be
       0.00032462794 -0.06024067 -0.10590985 -0.19523162
0001e0 3b 55 6f bd 91 07 bc bd dc b2 fe bd ec 0e 13 be
       -0.05843089 -0.09181131 -0.124364585 -0.14361161
0001f0 8e 0e b3 bd 6c a6 f6 bd ce 32 09 3d 74 36 63 bd
       -0.087430105 -0.12043461 0.033495717 -0.055471852
000200 86 89 de bd 8c 91 6c be 98 a9 83 bd 7f 69 9e 3b
       -0.10866074 -0.23102397 -0.06428832 0.0048343535
000210 d5 62 af bc 26 22 ff bd f5 f8 8f bd 58 ea 55 bd
       -0.021409431 -0.12457685 -0.07029907 -0.05222544
000220 64 7a 77 3d ab 60 c8 bd 45 62 12 be 48 48 56 be
       0.060419455 -0.09784063 -0.142953 -0.2092601
000230 8b 8c a7 3d ba f6 27 be 42 4f 72 bd cd 13 4e 3d
       0.08181103 -0.16402712 -0.059157617 0.050311852
000240 44 90 ca bd 5f 17 0d be 8d a3 be bd cd 9b 10 3c
       -0.09890798 -0.13778447 -0.093085386 0.008826208
000250 79 81 99 3d 3e 3d 7d bd bd 15 1c be 8f 2d 47 be
       0.07495398 -0.061825983 -0.15242667 -0.19450973
000260 ef c9 c4 3c 72 9f dd bd 03 dc d9 bd 25 92 6d be
       0.02402207 -0.108214274 -0.10637667 -0.23200281

net.2.weight f4 [156]
000000 c4 fc 67 3f f1 6b 81 3f d2 55 7e 3f d7 33 8d 3f
       0.90620065 1.0111066 0.993497 1.1031445
000010 79 c9 68 3f 33 c5 67 3f 44 5e 7d 3f 19 6d 66 3f
       0.9093242 0.9053528 0.9897196 0.9001022
000020 f9 14 75 3f 5f bc 7a 3f 83 61 7f 3f 39 49 62 3f
       0.95735127 0.9794368 0.99758166 0.8839298
000030 ec ca 82 3f dc 73 60 3f 52 c6 82 3f 53 6c 81 3f
       1.0218177 0.8767679 1.0216773 1.0111183
000040 b3 1f 6f 3f f9 d5 68 3f 55 f4 80 3f 0a 34 86 3f
       0.93407744 0.90951496 1.0074564 1.0484631
000050 f0 8f 86 3f e1 5d 6e 3f a7 fc 74 3f 53 95 73 3f
       1.0512676 0.93112 0.95698017 0.95149726
000060 c3 49 74 3f 2b 7a 7c 3f 09 9f 70 3f 76 e8 6d 3f
       0.9542505 0.98623914 0.9399267 0.9293283
000070 75 1e 80 3f e6 90 70 3f 2a ad 81 3f 29 71 77 3f
       1.0009295 0.939711 1.013097 0.96657044
000080 66 99 6e 3f 59 27 7d 3f 76 56 85 3f c4 f2 72 3f
       0.9320282 0.98888165 1.0417011 0.9490168
000090 66 76 68 3f 60 64 7f 3f 71 7e 82 3f 5a c6 6f 3f
       0.9080566 0.99762535 1.0194837 0.93662035
0000a0 6a 31 76 3f 15 58 7c 3f b4 84 84 3f 21 4e 74 3f
       0.9616915 0.985719 1.0352998 0.95431715
0000b0 11 a0 6d 3f ed b4 83 3f 7d 72 7c 3f 1b 4e 6b 3f
       0.92822367 1.0289589 0.98612195 0.91916054
0000c0 3c ab 83 3f f3 fe 71 3f e4 66 7c 3f 55 a0 7b 3f
       1.0286632 0.94529647 0.985945 0.9829152
0000d0 07 59 6f 3f fb b2 93 3f 0a 31 80 3f 1f 12 75 3f
       0.9349522 1.1538996 1.0014966 0.95730776
0000e0 c6 54 82 3f 75 f5 79 3f dc f4 6e 3f 52 77 78 3f
       1.0182121 0.9764016 0.93342376 0.9705707
0000f0 26 4d 76 3f 41 0f 72 3f 1d da 5f 3f 75 5b 72 3f
       0.9621147 0.94554526 0.8744219 0.946708
000100 61 9d 75 3f fd 27 6d 3f bc 58 78 3f f2 18 87 3f
       0.95943266 0.9263914 0.970104 1.0554488
000110 55 55 65 3f 62 94 86 3f cf 76 61 3f 5f 44 72 3f
       0.8958333 1.0514033 0.8807191 0.94635576
000120 2b 48 78 3f 9e de 77 3f fe a3 6a 3f 79 73 65 3f
       0.9698512 0.9682406 0.9165648 0.8962932
000130 d7 f1 73 3f 34 42 79 3f bc 71 7e 3f 3f f4 7d 3f
       0.95290893 0.9736664 0.99392295 0.99200815
000140 2e 4b 7c 3f de 96 69 3f 28 71 6e 3f e0 6e 6a 3f
       0.98552215 0.9124583 0.9314141 0.9157543
000150 fa dc 75 3f c2 c8 82 3f e4 e7 72 3f c7 19 7e 3f
       0.9604031 1.0217516 0.94885087 0.99258083
000160 9c f7 84 3f 98 ab 62 3f bf 57 87 3f b2 8d 7f 3f
       1.0388064 0.8854308 1.0573653 0.99825585
000170 52 43 84 3f 91 36 83 3f 13 0c 70 3f 98 6f 7c 3f
       1.0333045 1.0251027 0.93768424 0.9860778
000180 46 52 6d 3f df fe 83 3f 22 22 76 3f 6c eb 83 3f
       0.92703664 1.0312155 0.9614583 1.030622
000190 fa 62 78 3f f5 a1 78 3f ab 86 6f 3f a2 3d 83 3f
       0.97026026 0.97122127 0.9356486 1.0253184
0001a0 73 b4 76 3f 37 72 71 3f da 6e 66 3f 42 17 78 3f
       0.96369094 0.94314903 0.90012896 0.9691049
0001b0 57 a8 89 3f 33 1a 66 3f de 50 86 3f 18 07 71 3f
       1.0754498 0.89883727 1.0493429 0.9415145
0001c0 c4 ed 7c 3f 41 93 77 3f 96 0a 70 3f de 5f 8d 3f
       0.988003 0.96709067 0.9376615 1.1044881
0001d0 07 d1 77 3f dd 0a 74 3f 64 12 71 3f ef 76 78 3f
       0.96803325 0.95329076 0.94168687 0.9705648
0001e0 d6 79 7b 3f 3a d8 79 3f c6 cf 65 3f 6b c9 6e 3f
       0.9823278 0.9759556 0.8977016 0.9327609
0001f0 ab 2b 6f 3f 28 3b 7d 3f d7 8e 7f 3f 53 d6 70 3f
       0.9342601 0.9891839 0.9982733 0.9407703
000200 b6 cb 66 3f 5d 7b a1 3f c6 d2 77 3f d8 8f 75 3f
       0.9015459 1.2615772 0.9680599 0.95922613
000210 c7 72 65 3f 76 72 65 3f f8 d8 75 3f e1 5f 75 3f
       0.8962826 0.8962778 0.96034193 0.95849425
000220 b9 3e 7e 3f 8a ec 6a 3f c8 eb 73 3f 11 47 a4 3f
       0.9931446 0.9176718 0.9528165 1.2834188
000230 7d 8a 86 3f 53 5d 7e 3f a8 ce 6c 3f bb 0c 76 3f
       1.0511013 0.9936115 0.9250283 0.96113175
000240 b9 09 81 3f 87 42 8c 3f bf 5f 70 3f 36 4f 78 3f
       1.0081092 1.0957803 0.93896097 0.96995866
000250 27 54 6b 3f 24 06 70 3f 21 ac 73 3f 34 a8 88 3f
       0.9192528 0.9375937 0.9518452 1.0676332
000260 fc cf 7f 3f 7c ab 6e 3f 24 e3 74 3f 9b f8 87 3f
       0.99926734 0.93230414 0.9565909 1.0622743

net.2.bias f4 [156]
000000 20 50 00 3e b6 bb 85 3b d4 95 44 3e 81 91 2a 3e
       0.12530565 0.004081215 0.1919778 0.16657068
000010 8d fa 2c 3e 6c 18 df 3c 1b 4c 95 3e d9 ba 18 3e
       0.16892453 0.027233325 0.29159626 0.14915027
000020 3d 51 09 3e 05 1a 28 be 36 18 93 bd 92 04 ec 3d
       0.13409896 -0.16416176 -0.07182352 0.11524309
000030 5f 3c 15 be de 89 ad 3d c7 10 01 3e 73 e6 81 3e
       -0.14573811 0.08473562 0.12604056 0.2537113
000040 8d ec d3 bd af 0b 3a bc 4f 66 e4 3d 00 50 48 be
       -0.10347853 -0.011355325 0.11152326 -0.19561768
000050 83 d3 18 3e a9 84 3f 3e 96 35 e8 3d 68 18 a0 bd
       0.14924435 0.1870295 0.11338346 -0.07817155
000060 c3 71 06 3e bc 79 c2 bd 86 30 f8 3d f3 f0 10 3e
       0.13129334 -0.09495875 0.1211863 0.14154415
000070 10 79 09 3e a2 bc c3 3d 02 3c 81 3d ca a2 b7 bd
       0.13425088 0.09557463 0.06310274 -0.089665964
000080 72 cd 79 bd 26 e7 56 3e c7 12 f5 3d 14 1c 17 3e
       -0.060986944 0.20986614 0.11966472 0.14756805
000090 ae 3a 3b 3e 90 fb 3d bd b0 0f 6a 3e c9 53 01 3e
       0.18284103 -0.046382487 0.22857547 0.12629618
0000a0 2e 23 2b 3e 9d 77 98 bd 04 ee f0 bd ec d4 66 3e
       0.16712639 -0.074446894 -0.11764148 0.22542161
0000b0 a6 bd 19 bd 37 19 67 3d a2 03 4b 3e 59 9d bf bd
       -0.03753438 0.05642053 0.19825605 -0.093561836
0000c0 05 9b 48 3e ac 5e 86 3e 9f b2 d9 bd d8 45 58 3e
       0.19590385 0.26244104 -0.106297724 0.21120393
0000d0 94 c9 94 3c cd 31 4f 3d ca c9 56 3e 11 c1 4d 3d
       0.018162526 0.050584603 0.20975414 0.05023295
0000e0 a6 47 3f 3e 1c 29 23 3e ef a2 33 3e db 9b 9c bd
       0.18679675 0.1593365 0.17542623 -0.076469146
0000f0 fe 16 12 3e 03 ff 67 3e 3e 79 6a 3e d5 39 4e bc
       0.14266583 0.22655873 0.22897813 -0.01258703
000100 58 12 ca bd b6 48 25 bc c9 46 95 3e 7b 0f ec 3d
       -0.0986678 -0.010088136 0.29155567 0.1152639
000110 20 2a 31 3e 6d c1 7e 3e c2 08 bd 3d 18 83 1d 3e
       0.17301226 0.24878474 0.09230186 0.1538204
000120 52 85 3b 3d 89 1c 6e 3d c7 45 43 3e 7d cf 39 3e
       0.04578144 0.058132682 0.19069587 0.18145557
000130 c5 3c 5f bd 0b e5 4e bd 2f 87 74 bd 88 99 14 be
       -0.054501314 -0.0505114 -0.059699234 -0.14511693
000140 54 d6 9e be 79 e5 09 3e 5d 00 da 3d 38 db 85 3e
       -0.31022894 0.13466443 0.106446005 0.26143813
000150 7f c9 06 3e ac 52 1c 3e 3d cd 87 3e 62 36 90 bd
       0.13162802 0.15265912 0.26523772 -0.07041623
000160 aa 76 e9 3d ef 77 57 bd 48 fe 23 3e fd a7 11 3c
       0.113995865 -0.052604612 0.1601497 0.008890149
000170 55 98 09 3e 60 23 8d 3e 9d 1a 53 3e 19 3e 78 3e
       0.13437016 0.2756605 0.20615621 0.24242438
000180 ff 00 b8 bd b8 61 dc 3d 79 99 cb bd 5f 59 6d be
       -0.08984565 0.10760826 -0.09941382 -0.23178624
000190 8c 1f d8 bd 0d 32 11 bc 85 d3 af bd 91 e3 13 be
       -0.10552892 -0.008862031 -0.08585266 -0.14442278
0001a0 f6 ec d1 bd 59 1b ac 3d a4 8e d1 3c 14 6e 82 bd
       -0.10250275 0.08403654 0.025580712 -0.06368652
0001b0 73 0c 6c 3e 85 77 c0 bd 8d e8 80 bd b7 8e 93 bd
       0.23051624 -0.093977965 -0.062943555 -0.07204955
0001c0 ef b3 86 3e 02 8f a8 bd fe 8a 14 bd 04 04 04 be
       0.26309153 -0.082304016 -0.036265366 -0.12892157
0001d0 8b 50 03 3e c9 5f 96 3d b2 15 2e 3d 97 a4 15 be
       0.12823693 0.07342488 0.04250116 -0.14613567
0001e0 51 44 06 be 58 b1 3d be f9 0e 6a bd 21 11 59 bd
       -0.13111998 -0.18524683 -0.057143185 -0.05299485
0001f0 d8 03 4d 3e 19 e4 08 3e 4d 0b 56 3e e8 cd 4f be
       0.20020998 0.13368262 0.20902748 -0.20293391
000200 e1 6b b5 bc 7d 7f 51 3c 3f 71 55 3e 21 d2 78 bd
       -0.022146167 0.012786743 0.20843981 -0.06074727
000210 9b 4f 17 3e 47 a0 a9 bc b2 d9 e5 bc 26 8e 6a bd
       0.14776461 -0.020706309 -0.028057907 -0.05726447
000220 62 e6 a5 3d 13 82 a8 bd b6 fb 01 3e 91 ae 82 3d
       0.08100583 -0.08227935 0.12693676 0.06380952
000230 b2 6f 4a 3e f2 da 15 be 34 b9 de bc fc 5d ee bd
       0.19769171 -0.14634302 -0.027187921 -0.1163902
000240 e7 b0 f2 3d 66 6a bd 3d a1 c3 04 3e 2c 03 17 3e
       0.11850148 0.092488095 0.12965252 0.14747304
000250 63 e7 ae bd b0 00 61 3d 96 dc e5 bd ed 00 d8 bd
       -0.08540227 0.054932296 -0.11223714 -0.105470516
000260 ea c0 1c 3e 27 9b b2 3c 55 5c d7 bd 24 d9 ab 3d
       0.15307966 0.021802498 -0.10515658 0.08391026

net.2.running_mean f4 [156]
000000 5a fe 1a 3e e6 47 10 3e ba 36 c7 3d 12 61 6d 3d
       0.1513609 0.14089927 0.09727235 0.0579539
000010 48 24 5b 3e 74 8b 29 3e 44 c6 20 3e 7b 7a a1 3e
       0.21400559 0.16557103 0.15700632 0.31538758
000020 e8 d1 3c 3e f6 4e 8c 3e dc e3 1a 3e ea 0d bd 3e
       0.18439448 0.27403992 0.15125984 0.36924678
000030 a2 16 de 3d bc e9 10 3e a4 5d 29 3e 8a 59 82 3d
       0.108441606 0.14151663 0.16539627 0.063647345
000040 a1 e6 5a 3e 0c 3a 27 3e 66 4d da 3d 14 2d 3c 3e
       0.2137704 0.16330737 0.10659294 0.18376571
000050 51 3d 98 3d 67 df 22 3e 5e d5 73 3e 0d 1e 3a 3e
       0.0743357 0.15905534 0.23811862 0.18175526
000060 d2 08 0f 3e ef 39 29 3e c5 14 e6 3d 9a cd 0a 3e
       0.13968208 0.16526006 0.1123443 0.13554993
000070 77 45 2f 3e dc bd 8f 3e ef d5 8f 3e a9 84 5c 3e
       0.17116342 0.2807454 0.28092906 0.21534981
000080 da 1e 49 3e 69 d5 d0 3d b3 16 ef 3d 12 e0 84 3e
       0.19640675 0.10196955 0.116742514 0.25952202
000090 76 24 28 3e 95 70 0f 3e 71 7b 46 3e 2a 78 6e 3d
       0.16420159 0.1400779 0.19383027 0.058220066
0000a0 ea 59 8c 3e 85 1a 49 3e d8 d2 84 3e 5d 19 69 3e
       0.2741235 0.19639023 0.2594211 0.22763582
0000b0 99 61 1b 3e 3a a1 86 3e 18 fa c0 3e d4 9b 7f 3e
       0.1517395 0.2629488 0.37690806 0.24961787
0000c0 5b fd 85 3d b1 eb 5e 3e 09 41 62 3e 67 46 0e 3e
       0.06542464 0.21769597 0.22095121 0.13894044
0000d0 db 61 48 3e 4d 10 96 3c 0a e2 32 3e 8b 3f da 3d
       0.19568579 0.01831832 0.1746904 0.10656651
0000e0 81 c1 0b 3e fa 96 b4 3e f3 32 16 3e 59 58 64 3e
       0.13648035 0.35271436 0.14667873 0.22299327
0000f0 7a 1e 02 3e 86 ac af 3d 33 04 65 3e 85 0d 13 3e
       0.12706938 0.08577828 0.22364883 0.14360626
000100 b6 d8 64 3e 31 46 22 3e dc 07 0a 3e c4 a6 04 3e
       0.22348294 0.15847088 0.1347956 0.12954241
000110 38 a5 69 3e 18 09 dd 3d ee 69 2d 3e 42 87 5d 3e
       0.22816932 0.1079275 0.1693494 0.21633628
000120 17 32 34 3e a9 13 65 3e ed 5f 10 3e b3 9b 81 3e
       0.17597233 0.22370781 0.14099093 0.25314102
000130 22 70 aa 3d 29 09 d6 3d c5 f4 70 3e f8 74 76 3e
       0.08322169 0.10450966 0.23530872 0.24068058
000140 b7 a0 af 3e 2e 36 83 3e a8 5f 45 3e b6 1c 1a 3e
       0.34302303 0.25627273 0.19274771 0.15050015
000150 34 e8 3b 3e 17 82 e0 3d a2 ad 63 3e 42 af 3a 3e
       0.18350297 0.10962313 0.22234204 0.18230918
000160 53 ce d4 3d f5 d5 4a 3e ed d8 44 3e 4e 56 bf 3e
       0.10390916 0.1980818 0.19223376 0.37370533
000170 9b f0 aa 3d b8 e4 f5 3d aa ce 44 3e 26 0f e3 3d
       0.08346673 0.12006515 0.19219461 0.11086874
000180 ea 59 0c 3e 4b 89 64 3e 34 59 16 3e 48 56 35 3e
       0.13706174 0.22317998 0.14682466 0.17708695
000190 ec a8 82 3e e7 ff 6a 3e 84 e0 15 3e 2f d5 6a 3e
       0.25519502 0.22949181 0.14636427 0.22932886
0001a0 1d b9 53 3e be 84 2f 3e ae 1d 40 3e 6b 1e 90 3e
       0.20676084 0.17140481 0.18761322 0.28148207
0001b0 01 62 7e 3d b4 de 54 3e 1c bb 37 3e f6 93 1c 3e
       0.062105183 0.2078808 0.1794247 0.15290818
0001c0 4a 8d 13 3e 16 a8 8a 3e aa b4 73 3e b2 39 99 3d
       0.14409366 0.27081364 0.23799387 0.07481708
0001d0 1a c5 79 3e 7d 6b 73 3e 7a 4f 3c 3e d7 03 5b 3e
       0.24391595 0.23771472 0.18389693 0.21388184
0001e0 10 7c 33 3e 23 b0 7a 3e 5f c0 0f 3e be 42 06 3e
       0.17527795 0.24481253 0.14038227 0.13111398
0001f0 8f fb fc 3d c2 a9 2a 3e a4 04 30 3e df a0 e1 3e
       0.123526685 0.1666632 0.1718927 0.44068047
000200 5f 39 52 3e 25 30 74 3d e4 dc 4a 3e aa 5e ce 3e
       0.20529698 0.059616227 0.19810826 0.40306598
000210 c1 72 71 3e 2f fd 7d 3e f7 71 10 3e 68 ff 8b 3e
       0.23578931 0.24803613 0.14105974 0.27343297
000220 22 d4 4e 3e 3e 1b 3e 3e 9b a0 cc 3d 8b ef 42 3e
       0.2019811 0.1856508 0.099915706 0.19036691
000230 84 6d 55 3e 28 2d 06 3e 36 e8 64 3e 66 ba 17 3e
       0.20842558 0.13103163 0.22354206 0.14817199
000240 3e 14 e4 3d 79 8d 53 3e 46 34 0b 3e 5e 12 36 3e
       0.111366734 0.20659436 0.1359416 0.17780444
000250 43 44 9f 3e 55 13 51 3e 1f 56 10 3e 57 67 04 3e
       0.31106767 0.20417531 0.14095353 0.12930046
000260 8e c3 26 3e 94 f6 b5 3d 65 51 3c 3e 0a 71 70 3d
       0.16285536 0.08884922 0.18390425 0.058701552

net.2.running_var f4 [156]
000000 e4 10 24 3e c2 eb ab 3c 54 53 06 3d 68 a7 98 3b
       0.16022068 0.020986442 0.03279431 0.0046586283
000010 16 0d 2c 3d 82 7d 65 3d 16 82 06 3e 7c f3 14 3e
       0.042004667 0.056027897 0.13135561 0.14546007
000020 02 99 21 3e 73 1a c8 3d 83 6a 1b 3d 01 d3 c6 3e
       0.15781024 0.0977067 0.037943374 0.38832858
000030 a7 8f 95 3d be 8c d4 3d 25 4d 06 3d bb 14 41 3d
       0.0730279 0.10378407 0.032788415 0.04713891
000040 40 7b 11 3e d0 e7 cb 3e 48 8b c6 3d 8e 9e de 3c
       0.14207172 0.39825296 0.096945345 0.027175214
000050 cc 2a 88 3c d9 d2 cb 3d 92 8b 03 3f c0 01 34 3e
       0.01662197 0.099523254 0.5138484 0.17578793
000060 7f 7f 9a 3d 08 fd 84 3d 4a e1 8f 3e 10 32 14 3e
       0.07543849 0.064935744 0.2810157 0.14472222
000070 e2 16 f5 3c 45 2f f1 3d f9 5a cb 3d ab 14 2f 3d
       0.029918138 0.11776594 0.09929461 0.04274432
000080 9a 23 3f 3e 1c 50 bf 3d df c1 71 3c 08 ad 1a 3e
       0.18665925 0.093414515 0.014755695 0.15105069
000090 b8 da ca 3d 28 fe 30 3e 8b 2b cd 3d b6 b1 25 3d
       0.099049985 0.17284453 0.10018071 0.04045268
0000a0 0d 13 11 3e 90 c3 a0 3d 84 cc d6 3d 27 46 96 3e
       0.14167424 0.078498006 0.10488227 0.29350397
0000b0 6c c2 4e 3e 3c 53 82 3d 75 0f 8e 3e a6 2b 6c 3e
       0.20191354 0.06363532 0.27746168 0.23063526
0000c0 2e fa f1 3c 66 d2 b9 3e fe d3 bc 3d 94 69 93 3d
       0.02953824 0.36293334 0.09220122 0.07197872
0000d0 22 ca 21 3e 0c cb c9 3a c4 c2 19 3e d7 a9 8d 3d
       0.15799764 0.0015395596 0.15015703 0.0691716
0000e0 fa 30 a3 3c ee ac fd 3d a6 88 04 3e 19 6e bd 3e
       0.019920815 0.12386499 0.12942752 0.3699806
0000f0 72 a3 25 3e 93 3e 75 3d 16 61 6c 3e e7 b6 74 3e
       0.1617563 0.05987413 0.2308391 0.23897897
000100 c1 7c cf 3e a7 1b 3d 3e ca 07 1b 3e 20 8f 0c 3d
       0.40524867 0.1846758 0.1513969 0.034316182
000110 34 6a a8 3e aa 18 38 3d f7 5e bd 3d 52 b8 76 3e
       0.32893527 0.044945396 0.09246629 0.2409375
000120 85 b5 76 3d 58 d4 8f 3e a6 2b 1f 3e 54 c3 88 3e
       0.060231704 0.28091693 0.15543994 0.26711524
000130 16 35 e2 3d 20 6d 32 3d 94 e5 e5 3d 01 4a f8 3d
       0.110452816 0.0435611 0.11225429 0.1212349
000140 18 d9 a6 3d ce 47 69 3e 41 a6 20 3e 2d 67 0a 3e
       0.08146876 0.22781298 0.15688421 0.13515921
000150 6b 60 80 3e 32 61 98 3d f6 90 5d 3e f6 13 0e 3e
       0.2507356 0.074404135 0.2163733 0.13874802
000160 96 5b 19 3d ec 4e c0 3e 35 d2 b6 3c 26 e4 d1 3d
       0.03744086 0.37560213 0.022317031 0.10248594
000170 e6 af de 3c d0 66 09 3e 0d 38 a1 3d c0 fa ca 3d
       0.027183484 0.13418126 0.07872019 0.09911108
000180 c6 7b 0a 3e d6 9a 0e 3e 93 ca 20 3e d9 a7 0b 3d
       0.13523778 0.13926253 0.15702276 0.03409562
000190 c3 e3 86 3e f4 86 d6 3d b6 d3 b6 3d 58 98 61 3d
       0.26345643 0.10474959 0.089270994 0.055076927
0001a0 da d2 be 3e c1 f2 89 3e b7 c3 50 3e e3 22 01 3f
       0.37270242 0.2694302 0.2038716 0.5044386
0001b0 3f d7 a3 3c c4 06 20 3e 48 7f d4 3d 2d 85 d7 3d
       0.020000098 0.15627581 0.103758395 0.10523448
0001c0 8f c2 d1 3d c6 07 70 3e 1b 8e 2c 3e 01 07 53 3c
       0.10242187 0.23440465 0.16851084 0.012880088
0001d0 f9 f9 11 3e c8 44 4e 3e b6 ee 51 3e eb 6c f5 3e
       0.14255513 0.20143425 0.20501217 0.4793466
0001e0 b9 64 55 3e 63 5d 76 3d d8 38 49 3e 68 17 af 3d
       0.20839204 0.060147654 0.1965059 0.08549386
0001f0 aa 23 41 3e a4 ec 1a 3e ca 5d c4 3d 31 f6 eb 3d
       0.18861261 0.15129334 0.09588201 0.11521567
000200 85 13 a6 3e 69 91 a7 3b 57 89 a9 3d d0 66 d9 3d
       0.32436767 0.00511377 0.082781486 0.10615313
000210 e0 9c cf 3e 57 96 0f 3f 5a fb f2 3d ff 76 c2 3d
       0.40549374 0.56088775 0.11864348 0.09495353
000220 81 b3 c3 3d cf 2b 73 3e 24 c8 70 3d 08 39 e3 3c
       0.09555722 0.2374718 0.05878462 0.027737156
000230 ec a6 b4 3d fb c9 9e 3e 2d 1b 70 3e a5 79 a8 3d
       0.088209 0.31013474 0.23447867 0.08226327
000240 58 66 77 3d 7a 5d 20 3d 24 b6 21 3e 90 87 a6 3d
       0.060400337 0.039151646 0.15792137 0.08131325
000250 95 0d 15 3f 08 85 65 3e f3 34 86 3d 70 c8 95 3c
       0.5822385 0.22414029 0.06553068 0.018284053
000260 68 66 34 3d 38 9d 5a 3d 20 7c 13 3e 88 99 90 3c
       0.044042975 0.05337259 0.14402819 0.017651334

net.3.weight f4 [156, 156]
000000 86 5e 12 bb e2 f0 87 3c ca a4 c2 bd 63 2e 3c 3d
       -0.0022334172 0.016594354 -0.09504087 0.045942675
000010 56 51 96 bd 7d da b0 bb 09 0a 91 bd aa 0c 92 bd
       -0.07339732 -0.0053971396 -0.07081992 -0.07131322
000020 08 0e a9 bd ea 57 37 3d 80 69 6e bd 1b 8f 8d bd
       -0.082546294 0.044761576 -0.05820608 -0.06912061
000030 29 52 35 3d 8f b7 67 bd 1a 52 49 bc 50 86 49 bd
       0.044267807 -0.05657154 -0.012287641 -0.049200356
000040 26 37 ec 3c 42 90 9e 3c b9 99 9a bd e8 b5 3d 3d
       0.02883489 0.019355897 -0.075488515 0.046316057
000050 9c 55 1e 3d 2a 1f e9 bb 73 52 4e bd 1e 2c d3 3d
       0.038655862 -0.0071143107 -0.0503716 0.10311149
000060 9a 83 d6 bd ca e1 63 3d 42 1f 06 3d 3f 11 17 bc
       -0.1047432 0.05563525 0.032744654 -0.00922042
000070 87 dc ce 3c e8 8f 46 bc bc 80 c0 bc 65 f3 70 bd
       0.02525164 -0.012119271 -0.023498885 -0.05882587
000080 a2 68 bf 3c 71 dd be 3d 8d 5e 9a 3c 3f 04 f2 bd
       0.023365323 0.0931958 0.018843913 -0.11817216
000090 bf d7 8f bc 01 8d fb 3d b2 3f 39 3c a3 13 2f bd
       -0.01755893 0.12282754 0.01130669 -0.042743336
0000a0 19 7d e2 bb 69 e9 50 bc e2 9e 94 3d ae 9e d4 bb
       -0.0069118855 -0.012750962 0.07256867 -0.0064886427
0000b0 6c e1 ba 3c c4 bc 46 3d 25 36 85 bd f0 56 7f bd
       0.022812568 0.048519865 -0.06504468 -0.06233877
0000c0 d5 1a 21 bd 7e 76 9d bc 1d 63 6b bc 79 5a d3 bb
       -0.03933223 -0.01922154 -0.014366892 -0.006449994
0000d0 6b fb 04 bd 44 6b 45 3d 31 43 b7 bd 73 f3 27 3d
       -0.032466333 0.048198 -0.089483626 0.041003656
0000e0 0b 69 fb bc 2d 21 4b 3c 72 68 cd 3c 0a 57 df 3d
       -0.030689737 0.012398046 0.025074217 0.10905273
0000f0 44 7a 8e bd 39 f5 74 3d 97 ec 54 3d ee 5d bc 3c
       -0.06956914 0.059804175 0.051983442 0.022994008
000100 35 86 2e ba c1 f9 e7 3c 43 c1 33 3d 4d 1e c4 bd
       -0.00066575716 0.028317334 0.04388548 -0.09576092
000110 59 1f d3 bc d9 a4 13 bc 19 ce 86 bc ba 3b f0 3d
       -0.025771784 -0.009011471 -0.016455697 0.11730142
000120 29 9e cd 3c d3 ff 0a 3d 9f a5 75 3d 9d 97 13 bd
       0.02509983 0.03393538 0.0599724 -0.03603326
000130 4f 09 e6 bd ba a4 53 bd 94 04 3c bd c6 b8 e6 3d
       -0.11232244 -0.051670767 -0.045902804 0.112657115
000140 9d 30 89 3b b4 ff b7 bb fe f9 02 bc 0c dd e6 bd
       0.0041867034 -0.005615199 -0.007994173 -0.1127263
000150 9c 90 b5 bd ff f5 75 bc 65 2a f6 3c 7b 17 94 bc
       -0.08865473 -0.015012263 0.030049512 -0.018077603
000160 96 3e 20 be 52 c7 bb 3d 01 f6 8d bd ca 04 b9 3d
       -0.15648875 0.09168877 -0.06931687 0.090341166
000170 6f bb a8 3c c6 fc 00 bd 40 b1 a2 bd 7f 42 73 bc
       0.020597188 -0.031491064 -0.07943964 -0.014847397
000180 0f 5c 8c bd c3 3a 19 bc 9e 02 04 3d b6 e2 a9 3c
       -0.06853496 -0.009352389 0.03222906 0.020737987
000190 af 77 5f 3d 3c 5e 00 bd 64 3f 92 3c 92 40 1d bc
       0.0545575 -0.03133987 0.017852493 -0.009597914
0001a0 dd ad b8 3d bf 1a e8 3c 75 4f 16 3d 02 fc 8a 3d
       0.09017537 0.028333066 0.03669687 0.06786348
0001b0 78 8a d8 bd 7b 4d 00 bd b3 0f 87 3d e2 7b b3 3d
       -0.10573286 -0.03132389 0.06594791 0.08763863
0001c0 2f f5 9f bc 4a 27 fa 3d de db 30 3d e9 7b f8 3d
       -0.019526092 0.12214525 0.04317843 0.12133009
0001d0 c6 96 c2 3b 40 91 a0 bb de a3 87 bc e1 b0 ab bb
       0.0059383838 -0.0049001276 -0.01655763 -0.0052395915
0001e0 ec 2c 80 3d 69 0d e2 bd 96 15 63 3c 8b 0a ad bd
       0.06258568 -0.11037714 0.013860127 -0.084492765
0001f0 40 5b 26 bd 7c b1 d7 bd 64 f9 de bc a6 3f 68 bd
       -0.040614367 -0.10531899 -0.027218528 -0.056701325
000200 df 61 b9 bd cf 0f 88 3d 92 78 07 bb bd ab 92 bc
       -0.090518706 0.0664364 -0.002067123 -0.017904157
000210 2f b7 f6 3c 45 86 c7 3d 0d ad b7 3d 10 0f d4 3c
       0.030116646 0.09742407 0.08968554 0.025886089
000220 3a 41 13 bd 6b b2 e1 3c a7 ad 7d bd 6e c4 50 be
       -0.035950877 0.027550897 -0.061933186 -0.20387432
000230 d4 18 0c bd c3 aa fd bc 71 c5 6f 3c 51 de 33 bd
       -0.034203365 -0.030965215 0.014634476 -0.04391319
000240 b8 3b eb 3c ce 24 3c 3d 36 e4 7c 3d 6e 80 e0 bc
       0.028715 0.045933537 0.061741076 -0.02740499
000250 3c 80 a6 3d 7f b9 74 3d c6 60 46 3d 8f 50 ad bd
       0.081299275 0.059747215 0.048432134 -0.08462631
000260 1e 90 98 3d f6 93 e3 bd 88 13 9b 3d b7 f3 85 3d
       0.07449363 -0.11112206 0.07572085 0.065406255
000270 02 13 a7 3c 2b 39 71 bd bb 26 70 bd a9 a3 5d bc
       0.020394806 -0.05889241 -0.058630686 -0.013527789
000280 11 87 77 bd 54 44 64 3c 9f 17 16 bd 78 1f 71 bd
       -0.060431544 0.013932306 -0.03664362 -0.0588679
000290 47 1b 7d 3c 5e 26 8a 3b 41 b2 c4 bc 67 b9 02 bd
       0.015448398 0.0042159995 -0.02401078 -0.031915095
0002a0 33 f1 92 3d 1b 2b 68 bd 1c 73 71 bd 8d ea 80 bd
       0.07174911 -0.056681734 -0.058947667 -0.06294737
0002b0 e1 16 77 bb 20 f2 93 bc f9 95 a4 bd b3 36 b5 3c
       -0.0037702846 -0.01805979 -0.080364175 0.02212081
0002c0 af b7 0e bd 2a 7e 3e bd f6 8a 91 ba e9 a7 77 3c
       -0.034843143 -0.04650704 -0.0011104036 0.0151157165
0002d0 e1 56 c2 bc 62 df d6 3d 20 0e 15 bc fd 0b 93 bb
       -0.023723068 0.10491826 -0.009097606 -0.004487513
0002e0 41 1e b1 bb bb e6 82 bc 8c 5d 52 3c a4 3e f0 39
       -0.005405218 -0.015979161 0.012839686 0.00045823038
0002f0 71 ce 90 3c 50 67 15 3b 5f a9 4b 3d ac 3d 4f bd
       0.017676564 0.0022797175 0.04972207 -0.050595924
000300 3b 6c 88 bd e3 87 53 3d d3 9c 8d bd 27 fe d4 bd
       -0.06661268 0.051643264 -0.069146775 -0.10400038
000310 d9 2e 01 3d 83 2f 29 bd a6 b3 e0 3d 9d 42 d1 bd
       0.031538818 -0.041305076 0.10971765 -0.102177836
000320 b9 f1 17 bd 61 0f 67 3d 9f b8 47 bc b2 61 0d bd
       -0.03709576 0.05641115 -0.012190013 -0.034516998
000330 88 2f a3 38 a2 d4 47 bd 03 ca 85 3b ab 56 a9 bd
       7.781299e-05 -0.048786767 0.0040829196 -0.08268484
000340 03 f9 a6 bc eb 69 c3 bd 92 f9 c4 3c 07 59 02 bd
       -0.02038241 -0.095416866 0.024044786 -0.031823184
000350 a1 47 35 3c fd ff 7d bd 54 70 68 bd dd 17 a4 3d
       0.011064441 -0.062011708 -0.05674775 0.08012364
000360 18 c9 f7 bb 27 d1 6e bc 73 27 9d bc 5b 70 fb bc
       -0.007561814 -0.014576233 -0.01918385 -0.030693224
000370 8d eb 8e 3d fb 94 63 3d 01 e3 a1 bb 54 1c 46 3d
       0.069785215 0.055562 -0.004940391 0.04836686
000380 8b 88 61 bd 51 2f ce bd 46 bd 78 bd 7b b5 2a bc
       -0.05506186 -0.10067619 -0.06072738 -0.010419245
000390 6c ff 81 3c 74 04 8b bd 26 a3 40 bd 69 aa 1c bd
       0.015868865 -0.06787959 -0.04703059 -0.038248453
0003a0 f1 e8 bc 3d 72 1a 81 3c d8 0d 6b 3d 70 cc f6 3c
       0.092241175 0.01575968 0.05738625 0.03012678
0003b0 d5 dd 3d 3d 5a 9c eb 3c b2 d6 a3 bd be 37 94 bd
       0.046354134 0.028761078 -0.07999934 -0.072371945
0003c0 50 16 9f bd 17 04 00 3d 3d 27 3b bb 9b 45 0c 3c
       -0.07767928 0.0312539 -0.0028557323 0.008561517
0003d0 7b af 9a bd 99 cc 54 3d 98 1c 80 bc 11 13 4b bd
       -0.075530015 0.051952932 -0.015638635 -0.04957873
0003e0 12 9e 90 bd 74 26 50 bd 5a b1 be 3b 8a 24 54 bd
       -0.070613995 -0.05081792 0.005819482 -0.05179266
0003f0 f6 f8 7b 3c 32 41 8f 3c 0a 07 90 3d fd dc 98 3c
       0.015379181 0.017487142 0.070325926 0.018660063

net.3.bias f4 [156]
000000 1d 01 bf bc b5 91 de bd e1 bd 36 be ac ef 12 be
       -0.02331596 -0.10867635 -0.1784587 -0.1434924
000010 a8 81 2c be 2f a0 69 3c 08 cd ab bd 0b ec ce bd
       -0.16846335 0.014259382 -0.08388716 -0.101036154
000020 2e 25 a3 bd f5 42 16 3e 3e c8 c6 3d 73 05 74 3c
       -0.07966076 0.1467398 0.09706162 0.014893877
000030 45 7d 0d 3d f6 eb 27 bd a2 d7 37 bc 87 3c 4e 3c
       0.034543294 -0.040996514 -0.011220844 0.012587673
000040 b6 d2 7d bc ec a6 a6 bd c5 a3 48 be e5 53 9b bd
       -0.015492132 -0.081373066 -0.19593723 -0.07584361
000050 67 39 ef 3c 05 ba ee 3d 66 0e 8e bc 75 6d af 3d
       0.029202176 0.11656574 -0.01734085 0.08565799
000060 af a2 9b bd db 1c f6 3d 8f 39 64 3d cf 5a 40 bd
       -0.07599389 0.120172225 0.055718955 -0.0469616
000070 fd fa d2 3c 61 40 af 3d 44 c5 00 3e 25 3a 79 bd
       0.025754446 0.08557201 0.12575251 -0.060846467
000080 56 df 1e be 2a bf 7c bd d4 ea bb bb 54 45 60 3d
       -0.15514883 -0.061705746 -0.005734781 0.054753616
000090 50 d9 c7 3b 0e dd 1d be e4 ca 99 3c 85 8c ef bd
       0.0060989037 -0.15416357 0.018773504 -0.11696724
0000a0 05 70 45 3d 16 22 c4 3c 1a 45 8f bd 37 3a 03 be
       0.048202533 0.023942035 -0.06995602 -0.12815176
0000b0 1f 96 d1 3b 3a b9 9e bd 4e 23 cc bd a0 75 84 3d
       0.0063960697 -0.07750173 -0.09967671 0.06467748
0000c0 2a c8 41 be ff f7 e5 bc 36 0f b2 3d 2b d3 0c be
       -0.18924013 -0.028072355 0.086943075 -0.13752429
0000d0 2b 25 59 be ac 7e 84 bd 3c 0b 33 be 4d dd ef bd
       -0.21205585 -0.06469473 -0.17484754 -0.11712132
0000e0 74 90 15 3e 49 c8 71 bc 00 c1 60 bd 06 fe b6 3a
       0.14605886 -0.014757224 -0.05487156 0.0013961203
0000f0 9c 45 ad bc 51 20 a0 3d 75 6e dd bd 7e eb 9a bd
       -0.021151356 0.07818664 -0.10812084 -0.07564448
000100 3e 2e b0 3d 35 f4 0b 3e 1f a7 2a bd d7 ea cd 3d
       0.0860257 0.13667376 -0.041663285 0.10054558
000110 55 64 b5 3c 71 43 14 bd 2a 78 58 bd de 65 db bd
       0.022142569 -0.03619713 -0.052848972 -0.10712789
000120 6b 0c 85 bd ae f6 f4 3d 24 b6 7a bd c5 18 81 3d
       -0.06496509 0.11961113 -0.06120886 0.063035525
000130 08 13 6e bd 65 79 18 bd 04 6c e2 bd 82 18 c1 bd
       -0.05812362 -0.037225146 -0.110557586 -0.094285026
000140 b4 9e 96 bd 52 f1 3d be ec 81 3c bd cf f6 d8 bd
       -0.07354489 -0.18549088 -0.04602234 -0.1059395
000150 74 46 5d 3d 9c 4d 88 bd 07 bb bd bd 65 ac 6e 3b
       0.054022267 -0.06655428 -0.09264188 0.0036418673
000160 a5 9d c0 3d b4 e2 26 bd f1 ed 2a bd 15 fa d6 bd
       0.09405068 -0.040743545 -0.041730825 -0.10496918
000170 60 6e 4e bd 86 96 15 be cf c6 2d bd e8 f6 6d bd
       -0.05039823 -0.14608201 -0.042425927 -0.058096796
000180 13 45 3d bc 77 6a 1d 3e 9a b8 13 be 77 74 0a 3e
       -0.011552113 0.15372644 -0.14425889 0.1352099
000190 43 23 3e bc 2c 61 a5 bd 3d de 8d 3d fa 37 6a 3d
       -0.011605087 -0.08075175 0.06927154 0.05718229
0001a0 e7 99 98 bd 14 38 94 bd 1d 63 0e bd 74 79 68 bd
       -0.074512295 -0.072372586 -0.03476249 -0.05675645
0001b0 af 68 07 3e 06 97 f4 bc cd ad 9b be bf 7f cf bc
       0.13223527 -0.02985717 -0.30406037 -0.025329469
0001c0 a4 4c 20 3b ac 49 9b bc a2 ab b6 bd 13 40 8f bd
       0.0024459744 -0.018956028 -0.08919455 -0.06994643
0001d0 b3 b3 3c bc 8c ac e1 3c c3 15 9e bd 5d 01 9c bc
       -0.011517453 0.027548097 -0.077189945 -0.019043619
0001e0 ec 01 1c be 46 d9 8d 3d 16 80 d7 bc b2 4e 94 bd
       -0.15235108 0.06926207 -0.026306193 -0.072415724
0001f0 61 fb 6c bd 3e b3 42 3d 98 25 ac 3c 02 3d 59 3d
       -0.05785692 0.04753422 0.02101402 0.053036697
000200 57 ad a8 bd fc 8b 6f bd 2a ad 20 bc fd 12 1c be
       -0.08236187 -0.05848311 -0.0098069105 -0.15241618
000210 c5 43 1c bd 01 e5 1a be c8 64 4b bd 60 26 1d be
       -0.038150568 -0.1512642 -0.04965666 -0.1534667
000220 c3 25 b5 3d 95 90 95 bd e8 0a 57 bd ed 0e 43 bc
       0.08845093 -0.073029675 -0.052500635 -0.011905414
000230 34 cc f2 3b dc 3e 86 3c 5d 90 61 be 31 71 61 bd
       0.007409597 0.016387396 -0.22027726 -0.05503959
000240 d0 79 38 be 32 96 41 bc 70 5f 04 be 0c 81 12 be
       -0.18015218 -0.0118155945 -0.12927032 -0.1430704
000250 97 3a e8 bc f2 a1 a4 3c 97 91 2f 3e c7 f5 25 be
       -0.02834825 0.020096753 0.17145382 -0.16207038
000260 14 ea 58 be 7d c2 29 be 0e f6 12 be 13 65 fc bd
       -0.21183044 -0.16578098 -0.14351675 -0.12323966

net.5.weight f4 [156]
000000 c1 9e 94 3f e1 f0 8e 3f 6e 91 91 3f 5c 90 9f 3f
       1.1610948 1.116726 1.1372507 1.246593
000010 79 a0 98 3f 13 ea 86 3f 26 7d 98 3f b5 25 96 3f
       1.1923972 1.0540184 1.1913192 1.1730257
000020 1d b3 91 3f 84 8a 82 3f ba 40 86 3f a2 a0 88 3f
       1.1382786 1.0198522 1.0488503 1.0674021
000030 78 a2 92 3f 6b c0 9b 3f af 9a 8f 3f 1f 58 8e 3f
       1.1455832 1.2168096 1.1219081 1.1120642
000040 7f cf 97 3f 7a bf 91 3f 28 5a 9d 3f ca 42 9a 3f
       1.1860198 1.1386559 1.2293139 1.2051632
000050 56 62 8e 3f 55 aa 8c 3f 13 d1 91 3f 10 d9 a2 3f
       1.112376 1.0989481 1.1391929 1.2722492
000060 f3 0f 94 3f 90 b3 8e 3f 5b 91 93 3f cd 2f 89 3f
       1.1567367 1.1148548 1.1528734 1.0717713
000070 9d db 86 3f 76 40 97 3f f0 3e 85 3f 5e 6d 91 3f
       1.0535771 1.1816547 1.0409832 1.1361501
000080 59 b0 9a 3f 12 c6 92 3f 56 93 86 3f 1a 91 8a 3f
       1.2085067 1.1466696 1.0513713 1.0825531
000090 ea 34 93 3f 10 db 90 3f 39 29 8b 3f ae b0 93 3f
       1.1500523 1.1316853 1.0871955 1.1538293
0000a0 8e a3 86 3f e6 22 90 3f 80 54 91 3f 45 ac 8f 3f
       1.0518663 1.126065 1.1353912 1.1224447
0000b0 13 d7 90 3f 40 1d 95 3f da 70 89 3f 00 de 91 3f
       1.1315635 1.1649551 1.0737565 1.1395874
0000c0 80 c9 94 3f ef 7a 91 3f 40 82 86 3f 4b 99 91 3f
       1.1623993 1.1365641 1.0508499 1.1374906
0000d0 14 53 97 3f 76 b3 95 3f 4c e6 97 3f 0c 7b 96 3f
       1.1822228 1.1695392 1.1867156 1.1756301
0000e0 fb 1b 8a 3f f4 8f 92 3f bd ac 92 3f 83 83 8e 3f
       1.0789789 1.1450181 1.1458966 1.1133884
0000f0 ff da 86 3f c5 e8 91 3f a3 56 91 3f 3a 96 8f 3f
       1.0535582 1.1399161 1.1354564 1.121772
000100 33 03 82 3f 31 06 86 3f 81 b0 93 3f 7c de 89 3f
       1.0157226 1.047064 1.153824 1.0771022
000110 9a b8 89 3f f9 27 90 3f 94 ca 96 3f b1 98 94 3f
       1.0759461 1.1262199 1.1780572 1.1609098
000120 47 25 92 3f fd af 8a 3f 3e a7 9a 3f 99 c1 84 3f
       1.1417626 1.0834957 1.2082288 1.0371581
000130 8e 87 8f 3f b3 d7 8f 3f 72 c7 8e 3f 87 d3 8e 3f
       1.1213243 1.1237701 1.1154616 1.1158303
000140 59 60 93 3f 93 5e 9b 3f 97 6f 91 3f 8c 09 97 3f
       1.1513778 1.2138237 1.136218 1.1799788
000150 09 6d 8e 3f da 01 92 3f 94 a8 91 3f 8c 8b 9b 3f
       1.1127025 1.1406815 1.1379571 1.2151961
000160 03 84 90 3f df 3d 84 3f 2d b2 90 3f 6d 0c 9b 3f
       1.1290287 1.0331382 1.1304375 1.2113167
000170 85 88 95 3f 49 a7 96 3f e3 03 92 3f 1e 37 8f 3f
       1.1682287 1.1769801 1.1407436 1.1188695
000180 4c ca 93 3f 70 9d 89 3f 2a 59 93 3f 6b e6 7e 3f
       1.1546111 1.0751171 1.1511586 0.9957034
000190 f0 22 8f 3f 9b 99 94 3f 5f d0 90 3f ea 36 90 3f
       1.1182537 1.1609377 1.131359 1.1266758
0001a0 6f 17 96 3f 28 84 97 3f 36 c1 91 3f 40 97 95 3f
       1.1725901 1.1837206 1.1387088 1.1686783
0001b0 c3 81 8c 3f 8a 3b 92 3f 61 99 a5 3f 17 32 89 3f
       1.09771 1.142442 1.2937433 1.0718411
0001c0 a7 0e 91 3f cd ed 97 3f e2 aa 96 3f d0 11 a3 3f
       1.1332597 1.1869446 1.1770899 1.2739811
0001d0 e8 88 8d 3f 09 24 9a 3f 7f 57 9d 3f df 7d 8f 3f
       1.1057405 1.2042247 1.2292327 1.1210288
0001e0 68 d6 89 3f cf 34 8b 3f 67 19 93 3f 5f d1 94 3f
       1.0768557 1.0875491 1.1492127 1.1626395
0001f0 e2 c7 94 3f e2 f0 8f 3f 7f d7 86 3f 5a 60 89 3f
       1.1623499 1.1245387 1.0534514 1.0732529
000200 5e f5 97 3f 4f 6e 9c 3f 69 7b 8d 3f 2a c7 9a 3f
       1.1871755 1.2221164 1.1053287 1.209203
000210 b0 0c 8a 3f 9a 33 99 3f 68 37 90 3f 1b e2 90 3f
       1.0785122 1.1968873 1.1266909 1.1319002
000220 05 6b 88 3f 06 de 92 3f 28 60 8f 3f 0c 8e a2 3f
       1.065766 1.1474006 1.120122 1.2699599
000230 85 cb 93 3f e0 eb 88 3f af 9b 98 3f 7f 4c 93 3f
       1.1546484 1.0696983 1.1922511 1.150772
000240 00 93 9a 3f 64 2f 83 3f 24 fa a1 3f 7b 71 ac 3f
       1.2076111 1.0248837 1.2654462 1.3472131
000250 9c 31 89 3f 7b 85 91 3f cb d3 86 3f 49 95 98 3f
       1.0718265 1.136886 1.0533384 1.1920558
000260 49 4e 99 3f 3c c1 9c 3f 21 0a 91 3f 40 af 8f 3f
       1.1977016 1.224647 1.1331216 1.1225357

net.5.bias f4 [156]
000000 f7 53 82 be fc d0 11 be 6f d6 31 be 66 fa 82 be
       -0.25454685 -0.14239877 -0.17366956 -0.25581664
000010 0c 55 5c be 56 48 28 3e 95 f4 4d be 26 ac 63 be
       -0.21516818 0.16433844 -0.20112832 -0.22233638
000020 14 96 26 be 75 bd f5 3d 36 89 69 3e 14 bd 3a 3e
       -0.16268188 0.11999027 0.22806248 0.1823619
000030 be 8a 20 3e 6d 41 31 3e fd 28 10 3e 92 01 2f be
       0.15677926 0.17310114 0.14078136 -0.17090443
000040 e4 34 2c 3e 25 c1 3a be e4 34 91 be 8b 60 84 be
       0.16817051 -0.18237741 -0.28360665 -0.25854906
000050 95 ed 87 be 09 e1 02 3e 4a a9 3f be a4 5a 5a 3e
       -0.26548448 0.12781157 -0.18716922 0.21323639
000060 f6 a9 49 be 61 65 0f 3e a2 b7 14 3e 8a 9f 3a 3e
       -0.19693741 0.14003517 0.14523175 0.18224922
000070 4b 4f 0e 3e 19 00 4e 3e 74 53 09 3e 4e 76 40 be
       0.13897435 0.20117225 0.13410741 -0.1879513
000080 6f ff 86 be 3f d4 71 be ab 85 06 3e 21 5a 15 3e
       -0.26366755 -0.23616122 0.13136928 0.14585163
000090 c1 0b 85 be d7 d8 17 be f4 ac 03 3e eb fe 30 be
       -0.2598553 -0.14828812 0.12858945 -0.17284743
0000a0 b9 9f 0c 3e 54 97 0a 3e 03 6a 24 be ac cf 3c be
       0.13732804 0.1353429 -0.16056065 -0.18438596
0000b0 bd 90 2b 3e 40 af 54 3e 1f 10 16 be 67 76 23 3e
       0.16754432 0.20769978 -0.14654587 0.15963136
0000c0 b3 56 3c be 93 2c 23 be 26 ce 07 3e 39 e1 16 be
       -0.18392448 -0.15934972 0.13262233 -0.14734353
0000d0 f1 65 61 be a3 d8 79 be 7d 1f a8 bc a0 5d 2a be
       -0.22011544 -0.24399047 -0.020522827 -0.16637278
0000e0 09 f2 32 3e 7b 0b 2d 3e a8 a6 48 be 8c e8 0b 3e
       0.17475142 0.1689891 -0.19594824 0.13662928
0000f0 83 39 2c 3e 6e 87 0d 3e 8d 1c 1b be be 00 11 be
       0.16818814 0.13821194 -0.1514761 -0.1416044
000100 f0 dc 05 3e 47 6a 0a 3e 13 9c 63 be b3 5b 01 3e
       0.13072562 0.13517104 -0.22227506 0.12632637
000110 29 65 07 3e d7 86 6f 3e 6b e5 17 3e 92 44 65 be
       0.13222183 0.23391281 0.1483361 -0.22389439
000120 07 64 37 3e 38 b6 17 3e 06 86 6e be a9 45 69 3e
       0.17909251 0.14815605 -0.23293313 0.2278048
000130 c9 02 3d be e6 ba 85 3e 1e 59 26 be 9f c8 26 be
       -0.18458094 0.26119155 -0.16244933 -0.16287468
000140 71 33 33 be a8 fe aa 3e 96 0d 1e be 80 8c 30 be
       -0.17500092 0.33397412 -0.1543487 -0.17241096
000150 b3 aa 26 be 62 22 33 be fa 63 16 be bb 24 ee 3d
       -0.16276054 -0.17493585 -0.14686576 0.116280995
000160 50 12 22 3e 39 49 15 3e 88 a5 1b 3e e4 5f 52 be
       0.15827298 0.14578713 0.15199864 -0.20544392
000170 16 aa 22 be d0 f5 5c be a2 32 89 be 8d 8c 2f be
       -0.15885195 -0.21578145 -0.26796442 -0.1714346
000180 7b fd 1a be be ec 10 3e cc 78 56 be 99 3f ca 3d
       -0.15135758 0.1415281 -0.20944518 0.098754115
000190 30 70 30 be 1a 0e 55 be f4 4e 34 3e c0 d2 27 3e
       -0.17230296 -0.2080616 0.17608243 0.16388988
0001a0 4e a7 69 3e 31 3e fc bd 14 b8 31 be 4d 0a 44 be
       0.22817728 -0.123165496 -0.17355376 -0.19144554
0001b0 c4 b1 05 3e 9c 48 24 be 39 1d 9f 3e 15 c4 20 3e
       0.13056093 -0.16043323 0.31076983 0.156998
0001c0 a2 2d 52 3e 12 b2 2a 3e 15 a8 5d be 11 13 7b 3e
       0.2052522 0.16669491 -0.2164615 0.24518992
0001d0 bd 75 2d bd e6 75 03 be ea 3a 6f 3e 8a b5 14 be
       -0.042348612 -0.12837943 0.23362318 -0.14522377
0001e0 64 e8 b6 3e 94 e9 18 3e 10 5b 23 be e7 d7 02 be
       0.35724175 0.14932853 -0.15952706 -0.12777673
0001f0 ee d8 96 be 79 60 0f 3e 6b d6 15 3e 2d b0 2f 3e
       -0.2946238 0.14001645 0.14632575 0.1715705
000200 b5 f5 59 3e 94 e7 1d 3e 09 20 eb 3d 63 4a 6e be
       0.21285136 0.15420371 0.114807196 -0.23270564
000210 89 f9 50 3e d1 e1 5e be 30 b4 46 be c0 26 23 be
       0.2040769 -0.2176583 -0.19404674 -0.1593275
000220 34 a6 0d 3e 0b ea 2d be a2 cf 20 be 46 67 5a 3e
       0.13832933 -0.16983812 -0.15704206 0.21328458
000230 87 05 81 3e 83 cc 10 3e 9f 26 91 be f4 eb 0d 3e
       0.2519953 0.14140515 -0.28349778 0.1385954
000240 d8 cf 80 be 7b 13 fc 3d 55 c9 0f 3e 14 ee 9f 3e
       -0.25158572 0.12308403 0.14041646 0.31236327
000250 d3 3f 30 3e 98 d3 25 3e 19 ea 10 3e 14 e2 b3 be
       0.17211847 0.16193998 0.14151801 -0.3513342
000260 d3 8c 5f be 46 e1 37 be eb a8 1b be 56 92 48 be
       -0.21831064 -0.17957029 -0.15201156 -0.19587073
